checkpoints/cnn1d.twentyfour.pt (torch, 671236 bytes, 20 tensors)

weight f4 [64, 1, 9]
000000 97 be ab 3d 95 c3 1e 3e 30 23 e5 3d 40 11 1e 3e
       0.083859615 0.15504296 0.11188352 0.15436268
000010 be 90 a6 3e 10 9d 9d be 4a f5 3f 3e 73 89 d5 3d
       0.32532305 -0.30783892 0.18745914 0.10426607
000020 67 f7 a4 be 75 6c f1 bd e3 4e 53 3e 98 97 54 bc
       -0.32220003 -0.11788265 0.20635562 -0.012975596
000030 29 00 35 3e 01 b2 1f 3e e7 1c 95 bb fa fd 20 be
       0.17675842 0.15595247 -0.0045505646 -0.15721884
000040 02 0d 3b 3d a7 db 93 be c4 e9 99 3e ff 99 9a bd
       0.045666702 -0.2887852 0.30061162 -0.07548904
000050 74 df ef bd 85 6c 9d 3e 3b 59 1e 3c 4d 33 a7 be
       -0.11712542 0.30746856 0.009664829 -0.32656327
000060 9d 7a 88 be 4f 99 13 3e e2 75 21 3e f6 55 45 3e
       -0.26656047 0.14413951 0.15767625 0.19271073
000070 a6 a3 52 be 78 c3 6d be d5 8b 9d 3e f6 67 18 3e
       -0.2057024 -0.23219097 0.30770746 0.14883408
000080 56 58 25 be 88 d1 0c 3d 40 68 34 3d 50 f6 9d be
       -0.16146979 0.034379512 0.044044733 -0.30851984
000090 29 c7 3a be 05 68 b6 bd 33 ca 1f 3e d7 bf bc 3d
       -0.18240036 -0.08906559 0.15604477 0.09216278
0000a0 0d c8 7a 3e 87 30 11 3d 48 96 9c 3e a2 24 1e be
       0.24490376 0.03544667 0.30583405 -0.15443662
0000b0 cb 8a 21 bb 85 c0 0c bd 14 e2 9f 3e 9f c0 c6 3d
       -0.0024649377 -0.03436329 0.3122717 0.09704708
0000c0 60 9f 0a 3e 42 e9 95 3e 82 47 46 be 77 69 96 be
       0.13537359 0.29279524 -0.19363216 -0.29377338
0000d0 c2 9b 78 be cd ae 50 be 13 d8 09 be 66 f1 a3 be
       -0.24278167 -0.20379181 -0.13461332 -0.3202011
0000e0 b3 3b 88 be aa a9 a5 be fe f7 2f be e8 8c 42 bd
       -0.26608047 -0.32356006 -0.17184445 -0.04749766
0000f0 82 51 02 3e 98 57 7c bd e0 02 3f 3c a6 96 15 be
       0.12726405 -0.061606973 0.0116584 -0.14608249
000100 f4 63 11 3e c1 f7 34 3e e9 7f 8d bc c6 ea 61 3e
       0.14198285 0.17672636 -0.017272906 0.22062215
000110 cc ad ec bd cf 21 3a bd ec e0 24 be 25 ec 0e 3e
       -0.115565866 -0.0454424 -0.16101426 0.1395727
000120 7f 68 8d 3e 08 b9 95 3e 31 74 76 be 29 55 2a 3e
       0.27618787 0.2924273 -0.24067761 0.16634049
000130 72 95 58 3e 38 cf 85 3d a2 ff 0f 3e da 92 98 3e
       0.21150759 0.065336645 0.1406236 0.2979954
000140 aa 80 9a be ec 0f b9 bd 63 d6 96 3e 06 3c 33 3e
       -0.30176288 -0.0903624 0.2946044 0.17503366
000150 0e a8 06 be f6 70 90 be 1b af 9e be e0 31 0e bd
       -0.13150045 -0.28211182 -0.3099297 -0.034715533
000160 90 8b fb 3c 78 14 1a be be b5 6f be ee 99 4c be
       0.030706197 -0.1504687 -0.23409173 -0.19980595
000170 cf 2b 82 3e b0 75 88 be b8 f0 1a 3d 3b 50 a7 be
       0.25424048 -0.26652288 0.037827224 -0.32678398
000180 3c b5 f6 bd 8b bd 2c be 48 1e 01 bd 8d 4d 20 3e
       -0.120462865 -0.1686918 -0.03152302 0.15654583
000190 60 8a 21 be c8 8d fb 3d a1 6e 6b be ad 60 67 3e
       -0.15775442 0.12282902 -0.2299142 0.22595473
0001a0 83 8c 88 bd fa c6 a8 bc d1 0c a7 be 90 05 5c 3e
       -0.066674255 -0.020602692 -0.32626966 0.21486497
0001b0 22 2f 99 be 10 66 d7 bc 80 3a 25 bd 22 de 9d be
       -0.29918772 -0.026293784 -0.040338993 -0.30833536
0001c0 63 24 03 be cc 3a d6 3d 4a 12 7e 3e 00 92 2d bc
       -0.12806849 0.10460433 0.24811664 -0.010593891
0001d0 6c dc d5 bd a6 c1 d8 3d c2 0d bb bc b9 db 29 bb
       -0.10442433 0.105838105 -0.022833709 -0.0025918318
0001e0 fd 5d 40 be 69 f1 25 3e 38 8f 44 be 30 f9 ab 3b
       -0.18785854 0.16205372 -0.19195259 0.0052482113
0001f0 a9 12 20 be 2d 8e 0c 3e a0 ae 6b bc 38 8f 11 bd
       -0.15632118 0.13726111 -0.014384896 -0.035536975
000200 20 74 83 be 77 76 89 be 31 97 85 3e 84 87 99 be
       -0.25674534 -0.26848194 0.26091912 -0.29986203
000210 6d 3e 8f 3e ca 52 86 be 6a 18 12 3e 9e 0b 33 be
       0.27977315 -0.26235038 0.14267126 -0.174849
000220 db 86 44 be 1c ff ce bd 10 fa d4 3c 23 4b 95 be
       -0.19192068 -0.10107252 0.025998145 -0.29158887
000230 b0 65 d9 3d 68 bf 09 be 00 f7 20 3c ae d9 6a 3e
       0.106150985 -0.13451922 0.009824514 0.229346
000240 af 3d 01 be 12 66 a9 be 93 3e 83 3e 03 6f 80 3d
       -0.12621187 -0.33085686 0.25633678 0.06271174
000250 23 0b 7d 3e 74 47 42 be 0c 72 57 bc 09 06 7c 3e
       0.2471128 -0.1897257 -0.0131497495 0.24611677
000260 7b 5c a4 3d 7a bb 9e 3e 38 da ef 3d f7 3a e8 bd
       0.08025452 0.31002408 0.11711544 -0.11339372
000270 94 c8 29 bd 53 d1 9d be 13 09 84 3e 2e 8c 4f 3e
       -0.04145105 -0.30823764 0.25788173 0.20268318
000280 0a b0 ca 3d f7 75 a2 3e d7 f7 2d 3e b9 43 61 be
       0.09896858 0.31730625 0.16989075 -0.2199849
000290 5a 99 a7 3e 2a 60 45 3d 7d 3b 9b be 7b d6 9b 3c
       0.32734185 0.048187412 -0.30318823 0.01902317
0002a0 a1 e8 e4 3c a0 b3 26 be 73 f1 95 3e 6b a3 4a be
       0.027942957 -0.16279459 0.29285774 -0.19788902
0002b0 80 e4 75 3c 28 f9 6c bd a6 f2 22 be 1c 76 fb 3d
       0.015008092 -0.0578548 -0.15912876 0.12278387
0002c0 8e ab 3c 3e 3c 2b be 3d 4a 5b a3 be d3 2a 6b be
       0.18424818 0.0928559 -0.31905586 -0.22965555
0002d0 f1 3e 99 3e aa 39 6e be 03 5f 0c bc d5 24 94 3e
       0.29930833 -0.23264185 -0.008567574 0.2893435
0002e0 6b 56 5e 3e 29 df fa 3d a4 01 93 3c 8f a1 06 3e
       0.21712653 0.12249596 0.017945118 0.13147567
0002f0 c4 e6 b2 bd 26 79 76 3e 8b 4d 9e 3e 50 a3 56 3e
       -0.08735421 0.24069652 0.30918536 0.20960736
000300 ed 6e d6 3d f0 f0 8c be ec 16 23 be c3 17 01 be
       0.10470376 -0.2752757 -0.15926713 -0.1260672
000310 57 9d 56 be 37 54 a9 3d c8 16 63 3d a6 fb f7 bd
       -0.20958458 0.08268016 0.055441648 -0.12108545
000320 a6 0f 31 3e e8 d7 05 be 16 0e f8 bd c0 b6 2c bd
       0.17291126 -0.13070643 -0.12112062 -0.04216647
000330 00 54 a9 ba c0 be 13 be b0 fe b7 3c 2e 00 37 be
       -0.0012918711 -0.14428234 0.022460312 -0.17871162
000340 98 6d 0e 3e a9 3d 2e 3c 03 40 86 bb 26 03 47 3e
       0.13908994 0.010634818 -0.0040969863 0.19434795
000350 9b cb 49 3c c6 fe 8e be 7d cb 77 be 64 09 87 3e
       0.01231661 -0.27928752 -0.24198718 0.26374352
000360 15 9d 1f be f8 1f a8 be 50 6e 5a be 48 f8 85 3e
       -0.15587266 -0.3283689 -0.21331143 0.26165986
000370 8a f8 b6 3d 2e 5c 92 3e 9e 6b 11 be 4d a5 df bd
       0.08934124 0.28585953 -0.14201209 -0.109202005
000380 9c d3 21 be 90 b8 eb bd 50 c4 94 bc e0 80 08 bd
       -0.15803379 -0.11509812 -0.018160015 -0.03332603
000390 c0 85 ca bb 00 a6 ee bc 8e 72 8a be fe 10 70 be
       -0.006180495 -0.02913189 -0.27040523 -0.23443982
0003a0 b6 b6 3e be 90 27 b2 3c f2 ea 95 3e 77 1b 9d be
       -0.18624386 0.02174738 0.29280812 -0.30685017
0003b0 07 26 b4 bd d2 53 97 3e 24 bd b9 bd a0 68 da bd
       -0.08796316 0.29556137 -0.09069279 -0.10664487
0003c0 9a 25 6f 3e b6 90 9e be 10 7a 01 3e ca e6 37 3e
       0.23354188 -0.3096978 0.1264422 0.17959133
0003d0 1c 9d df bc 37 79 fd 3c e9 ac 72 be f5 00 ac 3c
       -0.027296595 0.030941589 -0.23698772 0.02099655
0003e0 67 b9 ec bd 17 c8 59 3e e5 67 ff 3d bf 48 9a 3e
       -0.115588 0.21267734 0.12470988 0.30133626
0003f0 a0 87 1a be cf e2 a6 be 46 e7 a1 be f0 25 94 be
       -0.150908 -0.32594916 -0.3162176 -0.28935194

bias f4 [64]
000000 5c f5 04 3d 8d 8f 97 3e f4 78 d8 3c e6 b5 4e be
       0.032460555 0.29601708 0.026424862 -0.20186576
000010 25 98 35 3e ee ef 70 be 3e 45 7c be 57 41 f7 bd
       0.1773382 -0.23529026 -0.24635789 -0.120730095
000020 90 21 a1 3e 06 b0 98 be 40 31 99 bb bf b9 26 3e
       0.3147092 -0.29821795 -0.0046750605 0.16281794
000030 00 06 73 bd fc 5c df 3d 13 1d 12 be 00 d4 98 bb
       -0.059331894 0.10906407 -0.14268903 -0.0046639442
000040 e2 2f 97 3e af 3d 25 be 24 90 0c bc 40 eb 9e 3c
       0.2952872 -0.16136812 -0.008579288 0.019399285
000050 9e f9 e9 bd 0f a8 6e 3e 03 98 75 be 9e d6 21 be
       -0.11424564 0.23306297 -0.23983769 -0.15804526
000060 d9 1c 6d 3e 9e cc 51 3e 94 0d 33 be 0b b1 49 be
       0.23155536 0.20488212 -0.17485648 -0.19696443
000070 ab 77 a4 be 3c 78 27 3e 54 fc 80 bc 69 ef 47 3e
       -0.3212255 0.1635446 -0.01574532 0.19524921
000080 b6 f1 1f be 20 24 36 3e 04 91 d6 bd 1c 1f 95 be
       -0.15619549 0.17787218 -0.10476878 -0.29125297
000090 d0 80 36 be f3 c2 81 3e 7d 05 c9 bd 2c 2d da 3d
       -0.17822576 0.25344047 -0.098155 0.10653147
0000a0 15 9e 94 3e c0 d9 51 3e db b1 9f be 88 4f 31 3d
       0.29026857 0.20493221 -0.3119038 0.043288738
0000b0 f4 88 02 be 37 e4 62 bd a0 3c 10 bd a7 b7 85 3e
       -0.12747556 -0.055393424 -0.035214067 0.26116678
0000c0 ee df 28 be 81 44 38 3e 7e 20 6b be f6 36 e8 bd
       -0.16491672 0.17994882 -0.22961614 -0.11338608
0000d0 45 e7 2e 3e cf ed 8c 3e 44 41 66 3e 0f b9 a7 3e
       0.1708041 0.27525184 0.22485834 0.32758376
0000e0 91 eb 8e 3e 47 bb 3e be 0f 4e 40 3e 0d aa 73 3d
       0.27914098 -0.18626128 0.18779777 0.059488345
0000f0 7f c9 f2 bd f1 f2 32 be e7 72 87 3e e2 28 cc bd
       -0.118548386 -0.17475487 0.2645485 -0.09968735

weight f4 [64]
000000 87 14 7f 3f 56 93 82 3f e2 67 7f 3f 00 00 80 3f
       0.996407 1.0201213 0.9976789 1.0
000010 85 e8 7e 3f 10 4b 7f 3f 00 00 80 3f 54 14 81 3f
       0.99573547 0.9972391 1.0 1.0084329
000020 a4 92 7f 3f 00 00 80 3f 00 00 80 3f ad f6 7e 3f
       0.9983313 1.0 1.0 0.9959515
000030 00 00 80 3f 88 54 7f 3f 00 00 80 3f 00 00 80 3f
       1.0 0.9973836 1.0 1.0
000040 bf c6 7f 3f 73 ac 7e 3f 6b 71 7f 3f 00 00 80 3f
       0.9991264 0.99481887 0.9978244 1.0
000050 8f 1d 7f 3f 19 d2 7f 3f 00 00 80 3f 65 7d 80 3f
       0.9965448 0.9992996 1.0 1.0038267
000060 15 02 80 3f 00 00 80 3f b6 0d 80 3f 61 c0 7f 3f
       1.0000635 1.0 1.0004184 0.9990292
000070 00 00 80 3f ed 5f 80 3f e2 8a 7f 3f d3 cd 81 3f
       1.0 1.0029274 0.99821293 1.0140938
000080 fc c0 7f 3f 7a 51 7f 3f 06 b2 7e 3f 00 00 80 3f
       0.99903846 0.997337 0.9949039 1.0
000090 00 00 80 3f 1f 2e 82 3f 45 85 7f 3f 00 00 80 3f
       1.0 1.0170325 0.9981273 1.0
0000a0 a3 ae 7f 3f 3a 38 7f 3f 00 00 80 3f f1 28 7f 3f
       0.9987585 0.9969517 1.0 0.99671847
0000b0 1e e1 7f 3f 7e 92 7f 3f 00 00 80 3f 61 34 7f 3f
       0.99952877 0.99832904 1.0 0.996893
0000c0 cd 02 80 3f 70 91 80 3f 76 d4 7f 3f 00 00 80 3f
       1.0000855 1.0044384 0.99933565 1.0
0000d0 11 10 80 3f 45 8d 7f 3f 6a e4 82 3f 5f 59 82 3f
       1.0004903 0.99824935 1.0225956 1.0183524
0000e0 d5 34 80 3f f6 53 7f 3f d8 7f 7f 3f 6e 34 7f 3f
       1.0016123 0.9973749 0.9980445 0.99689376
0000f0 96 c1 80 3f 4a 8d 7f 3f 00 00 80 3f a4 78 80 3f
       1.0059078 0.99824965 1.0 1.0036817

bias f4 [64]
000000 0a 88 2c bc 80 91 17 3c 83 80 bb 3b 61 73 9b bc
       -0.010530481 0.0092509985 0.005722107 -0.018975915
000010 82 34 c9 ba e6 a3 c6 3b a6 9c c2 3c cb b4 ce bb
       -0.0015350732 0.0060620187 0.023756336 -0.0063081733
000020 68 c0 6a 3c c3 70 51 bc 60 c4 9d 3c 87 af e0 ba
       0.0143281 -0.012783232 0.019258678 -0.0017142155
000030 5a 52 9a bc dc 59 eb 3b 33 74 8c bc cd db b3 bc
       -0.018838096 0.007182343 -0.017145252 -0.021955395
000040 d9 5f 78 3b d9 8f a0 ba a1 1a 24 3c f4 7a 72 bc
       0.0037898927 -0.0012249901 0.010016114 -0.014799822
000050 0f ba 0b 3b 39 07 54 3c 0c 10 11 3c 06 a9 96 3c
       0.0021320616 0.012941175 0.0088539235 0.018391144
000060 95 87 d6 bb b7 16 5e bc 1d d5 36 bc ca ac 17 3c
       -0.0065469244 -0.01355522 -0.011159209 0.009257505
000070 43 ca d7 bb bf b3 20 bb 28 53 b6 3b 21 f0 8b bc
       -0.006585391 -0.00245212 0.005564112 -0.017082276
000080 0b f8 8e ba 2f be 41 3b 63 1a 61 bb e1 be 18 bc
       -0.0010907663 0.002956282 -0.0034348003 -0.009322853
000090 cb 2d 9e 3c 53 4b 2d bc 29 ea 51 bb 33 e9 a6 3c
       0.019308945 -0.010577041 -0.003203044 0.02037487
0000a0 cc 2b 20 3c ae 5a 8b 3b 39 c4 9a bc ce 81 96 bb
       0.009776067 0.004252753 -0.018892394 -0.0045931106
0000b0 51 fa e9 bb ae df 25 bc 07 30 fc bb 61 95 95 3b
       -0.0071404357 -0.01012413 -0.007696155 0.0045649265
0000c0 6f 4c ba 3b 36 96 d0 ba 0d 02 d3 3b 1e 68 d5 3c
       0.005685381 -0.0015913907 0.0064394535 0.026050624
0000d0 d4 6f f6 bb 2b 2d 01 bc f1 5c 2c bc db 41 17 b9
       -0.007520655 -0.007884304 -0.010520206 -0.00014425015
0000e0 50 2e 99 bb 9f 33 bb 3b 3a 28 af 3b ac 70 3f b9
       -0.0046747103 0.005712941 0.0053453716 -0.00018257153
0000f0 76 31 11 3c bd 55 2f bc 8b 61 5a 3c c7 9a 35 3c
       0.00886189 -0.010701594 0.01332892 0.011084265

running_mean f4 [64]
000000 7f 1d 9e 3e 16 6f 98 3e f4 c4 d0 3d 00 00 00 00
       0.3088188 0.29772252 0.10193816 0.0
000010 b4 24 cf 3e 70 0d 34 33 00 00 00 00 2c 4b 21 39
       0.4045769 4.1921737e-08 0.0 0.0001538216
000020 2d cf 52 3f 00 00 00 00 00 00 00 00 9a 7d f0 3d
       0.82347375 0.0 0.0 0.117427066
000030 00 00 00 00 ac 28 c8 3c 00 00 00 00 00 00 00 00
       0.0 0.024433456 0.0 0.0
000040 36 21 da 3e 5e 8f 9e 3e 26 4a d3 3d 00 00 00 00
       0.42603463 0.30968755 0.10316877 0.0
000050 7b 55 9c 3e e6 c2 a9 3e 00 00 00 00 44 54 13 34
       0.30533966 0.33156508 0.0 1.3721098e-07
000060 1a b6 c9 3b 00 00 00 00 2a 0f 25 35 f6 c6 a1 3d
       0.0061557414 0.0 6.1489357e-07 0.07899277
000070 00 00 00 00 90 c4 e0 3b e6 a5 58 3d d4 76 2f 33
       0.0 0.0068593696 0.052892588 4.0853436e-08
000080 a8 f4 e1 35 81 93 c4 3e db 1a 08 3f 00 00 00 00
       1.6835011e-06 0.38393787 0.5316598 0.0
000090 00 00 00 00 7f db 46 3a 0d 65 4f 3e 00 00 00 00
       0.0 0.0007585808 0.20253392 0.0
0000a0 17 55 b8 3e 6c 8f af 3c 00 00 00 00 a9 34 c9 3e
       0.36002418 0.021430694 0.0 0.3929799
0000b0 75 50 96 3d 45 86 21 3f 00 00 00 00 d3 d2 19 3f
       0.07339565 0.63095504 0.0 0.6008732
0000c0 57 fe 97 3d e1 8b 43 3e f5 d5 d6 35 00 00 00 00
       0.07421558 0.19096328 1.6006512e-06 0.0
0000d0 77 06 c6 3b 3e 94 ce 3e 4a 33 3d 37 11 d1 a8 3e
       0.006043251 0.40347475 1.12772195e-05 0.32972005
0000e0 39 69 76 3e ef ba 4b 3d cf f5 1e 3f 3d 6e 46 3e
       0.24063577 0.04973882 0.62093824 0.1937799
0000f0 9a f6 96 37 63 63 8c 34 00 00 00 00 60 5a ce 37
       1.7996226e-05 2.6149345e-07 0.0 2.4599198e-05

running_var f4 [64]
000000 f9 55 9b 3a 89 4a 21 37 ec 66 e0 38 04 00 00 00
       0.0011851183 9.613702e-06 0.00010700323 6e-45
000010 77 7e 52 3a eb f6 28 31 04 00 00 00 f2 d5 46 36
       0.0008029709 2.4587574e-09 6e-45 2.9628832e-06
000020 3e 85 82 3b 04 00 00 00 04 00 00 00 25 44 29 38
       0.003983169 6e-45 6e-45 4.0356204e-05
000030 04 00 00 00 ad 0e ed 38 04 00 00 00 04 00 00 00
       6e-45 0.00011303774 6e-45 6e-45
000040 a4 60 93 39 4d df 5f 3b 24 62 53 39 04 00 00 00
       0.00028110028 0.0034160197 0.00020159088 6e-45
000050 3e 8d 31 3b eb 5e 37 39 04 00 00 00 86 32 a5 31
       0.0027092244 0.000174876 6e-45 4.807876e-09
000060 ef 7c 88 39 04 00 00 00 51 d4 54 33 16 61 86 3a
       0.00026033024 6e-45 4.9553197e-08 0.0010252323
000070 04 00 00 00 fc 47 8a 39 36 dc 9c 38 c0 b3 c5 30
       6e-45 0.00026375044 7.479677e-05 1.4384725e-09
000080 f5 7a 23 34 30 2c 2e 3a f1 95 cb 3b 04 00 00 00
       1.522529e-07 0.00066441577 0.006212943 6e-45
000090 04 00 00 00 1e 84 cb 36 50 f4 b6 3a 04 00 00 00
       6e-45 6.065252e-06 0.0013958309 6e-45
0000a0 2c 02 b9 38 0e 1a 07 3a 04 00 00 00 4c e2 f8 3a
       8.821892e-05 0.0005153724 6e-45 0.001898834
0000b0 af 34 25 3a 5a e1 ec 3b 04 00 00 00 e0 5b e8 3a
       0.0006302101 0.0072290124 6e-45 0.0017727576
0000c0 e7 66 65 3a 13 2a 51 37 81 2b ee 33 04 00 00 00
       0.00087509904 1.2467167e-05 1.1090652e-07 6e-45
0000d0 d2 a5 70 39 93 5a 8d 39 6e 03 80 34 7f c9 ec 36
       0.00022949956 0.000269611 2.3844353e-07 7.0568053e-06
0000e0 1a 22 13 38 ec 9a f3 39 ae 85 3d 3b 0e e7 96 39
       3.507929e-05 0.00046463998 0.002891879 0.0002878238
0000f0 27 b8 9e 35 fb 08 06 33 04 00 00 00 dd 19 c0 35
       1.1825513e-06 3.1207474e-08 6e-45 1.4312642e-06

weight f4 [128, 64, 9]
000000 9b c1 cf bc 2b 0f f1 3c 16 04 6b 3c 50 bf ca bc
       -0.025360873 0.029426178 0.014344236 -0.024749428
000010 75 86 b6 ba b1 e9 3b bc e0 07 72 3b bc fa ae 3c
       -0.0013925569 -0.011469291 0.0036930963 0.021359794
000020 5f 97 d7 bc 3e 70 26 bd 82 98 1c 3d 0a 75 17 bd
       -0.026317297 -0.040634386 0.03823138 -0.03697685
000030 4b 77 bc 3b e9 0f bd 3c 70 99 22 bd 93 a2 05 bd
       0.0057515255 0.023078876 -0.03969711 -0.032625746
000040 60 30 3b 3b bd b3 22 bc f2 76 07 bd 0b 80 9c 3c
       0.002856277 -0.009930548 -0.03307242 0.019104024
000050 72 21 1a bd 14 49 72 bc 1b 99 00 3b 1f 45 84 3c
       -0.037629552 -0.014787931 0.0019622508 0.01614624
000060 d6 4d 33 bd 1e 79 2f bc 2a 93 17 3d fb af c3 3c
       -0.043775402 -0.010710029 0.03700558 0.023887625
000070 77 4f 36 3c 94 ad c9 bb 0d 5d fc bc 69 1d fa 3c
       0.011127344 -0.0061547253 -0.030806089 0.030531602
000080 15 76 1d bd 91 8c 84 bc 8b 38 b7 bc 4b ed a7 bc
       -0.03844269 -0.016180309 -0.022365829 -0.020498892
000090 99 ef 5d 3c 19 d3 80 bb 06 a5 bd 3c eb 3f ea bc
       0.013545894 -0.003931415 0.023149978 -0.028594932
0000a0 3e 39 62 3b dc db 9c 3a d1 eb b4 3c 01 f6 18 3d
       0.0034518982 0.0011967379 0.022085102 0.037343983
0000b0 33 fe 42 3a e0 fc 1c bd f9 a6 bf 3c 16 ef af 3c
       0.00074383913 -0.038327098 0.023395048 0.02147631
0000c0 b0 d6 1b 3d 0a 37 9d bc ab a9 c3 bc c6 e1 10 3c
       0.03804654 -0.019191284 -0.023884615 0.008842891
0000d0 ca 57 1a bb 6d 7c f3 3a a1 3c 6d 3c 2b 1c ae 3a
       -0.0023550862 0.001857651 0.014479787 0.0013283541
0000e0 8d e5 23 ba 76 e4 41 3c 96 0b fd 3c ae ba e5 3c
       -0.0006252162 0.0118342545 0.030889314 0.028043117
0000f0 4f dc 78 3c d5 eb ea bb af 32 6d ba 2e 21 b8 bc
       0.015189244 -0.0071692267 -0.0009048385 -0.022476759
000100 82 17 2f bd 20 c2 92 bc 5e c8 b9 bc 6d 13 a6 bc
       -0.04274703 -0.017914832 -0.02267855 -0.020272935
000110 3e 29 82 3c b7 a0 8d bb e8 dd 92 3c b4 55 10 3d
       0.015888806 -0.004322137 0.017928079 0.035237983
000120 e2 86 09 bd 72 56 0f bd 53 b1 e1 3b 62 97 df 3c
       -0.0335759 -0.03499455 0.006887594 0.027293865
000130 bf a0 19 3d ce 68 d3 3c 37 1f 01 bd f3 3f 9a 3a
       0.037506815 0.02580681 -0.03152391 0.0011768326
000140 a8 16 1b bc eb 17 e6 3a 40 fe e6 bb 0f 57 3d bc
       -0.009465851 0.0017554736 -0.007049352 -0.011556401
000150 b9 48 81 bc 1f 52 6f bc bb 12 50 bc 73 29 b4 bc
       -0.015781747 -0.014606982 -0.012699778 -0.02199242
000160 66 b5 1d 3d 60 61 ed 3b b8 2f bd bc 92 dc fe 3b
       0.038503073 0.007244274 -0.023094043 0.007777759
000170 63 d5 ec bc 00 9a 12 3d 9a b5 e3 3c 8e 64 13 3c
       -0.028910344 0.035791397 0.027796555 0.008996142
000180 3a e1 d1 3c 4c a1 05 bd ac ec 21 3c 1f c1 06 bd
       0.025620092 -0.032624528 0.009883087 -0.03289902
000190 0c 83 09 b9 15 67 d9 bb a2 92 5a 3b a4 03 0b bd
       -0.00013114157 -0.006634603 0.003335156 -0.03393902
0001a0 97 f7 e8 bb a0 a4 1c 3d 6c a6 fe bc 5b 04 fd bb
       -0.007109593 0.038242936 -0.031085216 -0.0077214665
0001b0 1a 52 1f bd 02 95 96 3c 64 01 d3 bc 4a d9 25 bd
       -0.038896658 0.0183816 -0.025757499 -0.040490426
0001c0 c0 b3 13 bd 22 69 db bc 84 3d f2 3a 82 e9 d4 bc
       -0.036060095 -0.02678353 0.0018481468 -0.025990251
0001d0 cf 65 11 bb ca 9f 23 bd 75 5b 12 3c 39 bc 9c bc
       -0.0022185927 -0.03994731 0.008932938 -0.01913272
0001e0 24 63 93 3c 2c 23 38 bc ef 8e 06 3d 66 14 1f 3d
       0.01799161 -0.011238854 0.032851156 0.038837813
0001f0 19 f9 37 bc bc 3e 95 bc ab e2 16 bd 59 90 ab bc
       -0.011228823 -0.01821839 -0.03683726 -0.020942854
000200 71 8e 5f bc 19 ef 9d 3c 6b 93 64 bc 33 87 6e bc
       -0.0136448005 0.01927905 -0.013951163 -0.014558601
000210 1f 43 30 bc a9 db d6 bc dd 38 8f 3c 95 24 b7 3b
       -0.01075819 -0.026227789 0.01748317 0.0055890777
000220 13 ef ff ba 95 be 34 3b f3 bb a4 3c 57 b4 00 bd
       -0.0019526206 0.0027579416 0.020109152 -0.031421985
000230 fd 7d 95 3b ff f7 04 bd 43 c0 9a 3c 83 ce a9 3c
       0.004562138 -0.03246307 0.018890506 0.020728355
000240 b0 9f 88 bc 2d ae b9 bc 07 5c ab ba 38 d0 aa 3c
       -0.016677707 -0.022666061 -0.0013073691 0.02085124
000250 54 71 9a 3c de 5c df 3c 89 28 e1 bb d1 cf ff 3c
       0.018852867 0.027265962 -0.0068712872 0.031227024
000260 b2 c2 a1 bc e0 21 fd 3c ed 82 1c 3d 5a 23 12 3d
       -0.019746158 0.030899942 0.038210798 0.035678245
000270 3a d7 26 3d 68 42 03 3d 1a 84 0e bd 82 b8 a1 bc
       0.0407326 0.03204575 -0.03479395 -0.0197413
000280 5a 7b 47 bc 72 c8 08 3d a0 7a 19 bc 2f 8a d5 bc
       -0.012175405 0.033394285 -0.009367615 -0.026066868
000290 7c 82 0f bd 30 b1 60 3b cb a5 18 3c aa 3b 1f bb
       -0.03503655 0.00342853 0.009316872 -0.0024297037
0002a0 ec cf 15 3c ff 6d 96 ba 16 77 7c 3c f1 13 af 3c
       0.009143811 -0.0011476873 0.015409252 0.021371813
0002b0 c0 97 01 3a 89 77 1a bd c7 fa fc bc 76 db 4f bc
       0.0004943572 -0.037711654 -0.030881299 -0.012686601
0002c0 21 77 85 bc b4 d7 97 bc e4 81 fc bc 4f 7f 17 bd
       -0.016292157 -0.018535472 -0.030823655 -0.036986645
0002d0 8d 7d 50 3c 87 94 bf 3c c7 53 1a bd 07 81 d2 3c
       0.012725246 0.023386253 -0.037677553 0.02569629
0002e0 3a a2 5b 3c ce cb 0e bd cc f5 16 bb 5a d3 af 3b
       0.013405377 -0.034862332 -0.002303469 0.0053657712
0002f0 65 4b ad bc d8 c4 ab bb a9 7e d3 3c 99 da e9 bc
       -0.021154115 -0.0052419715 0.025817232 -0.028546618
000300 40 52 22 3d be eb 16 3d 56 50 90 3c 57 3b b7 3c
       0.03962922 0.036845915 0.017616432 0.022367163
000310 c6 31 07 bd 49 f2 0d 3d e7 d2 b5 bc 49 a2 a4 b9
       -0.033006452 0.03465489 -0.022195293 -0.0003140143
000320 07 8b a8 3c 2f 32 ba bc 87 40 af 3c 78 88 0b 3d
       0.020574106 -0.022729008 0.021393074 0.034065694
000330 23 58 1e bd a6 58 45 bc 62 95 97 bb 8d 35 23 3d
       -0.038658272 -0.012045061 -0.004625962 0.039845992
000340 b2 f6 c5 3c 75 9a 20 bd e4 a3 b5 3c 89 57 27 3d
       0.024165485 -0.0392098 0.022172876 0.040854964
000350 d5 aa af 3c ab 10 da 3b 82 8c bc 3c 01 24 b3 bc
       0.021443764 0.006654819 0.023016218 -0.021867754
000360 35 56 18 bd 3a 7b 82 bc 6d 0d 14 bc d2 ef 66 3c
       -0.03719159 -0.0159279 -0.009036404 0.014095264
000370 e2 65 a4 3b 0c 8d 38 3c 9e da 72 3b 6a 04 cf bc
       0.005017028 0.011264097 0.0037056576 -0.02527066
000380 d9 92 3d 3c 80 54 12 3b 8b 72 15 bd 7e 88 d8 3c
       0.011570656 0.0022328198 -0.03648619 0.026432272
000390 d4 31 14 bd 4a 27 4c ba 22 18 03 3d c6 bd 16 3d
       -0.036180332 -0.0007787837 0.032005437 0.036802076
0003a0 a4 7f e7 bc 90 ad 03 3c 07 3e 9e bc e4 fd dd bc
       -0.028259106 0.008036986 -0.019316686 -0.027098604
0003b0 64 e6 c0 bc ac 7e 0c 3d ef 4d 09 3c f0 4a df bc
       -0.023547359 0.03430049 0.008380397 -0.027257413
0003c0 11 5c b0 bc 4a 78 dd bb fe b9 f0 bc 7e 5f 23 bb
       -0.021528276 -0.0067587243 -0.029385563 -0.0024928744
0003d0 94 cc 06 3d 6e 1d 26 bd 72 fc 9e 3c 6c ae 83 3c
       0.032909945 -0.04055541 0.019407485 0.016074382
0003e0 f2 4c 10 3d 56 a4 2a 3c f0 e9 cc 3c 10 1f 27 bb
       0.03522963 0.010415157 0.025013894 -0.0025500692
0003f0 f5 07 19 bd 3b 1d 81 3c 06 fc 3b bc 6f 07 d8 bb
       -0.037361104 0.015761008 -0.011473661 -0.006592683

bias f4 [128]
000000 08 cb 33 3d d4 f3 c1 3a 47 dd 16 bd 05 03 1b bc
       0.043894798 0.0014797398 -0.03683212 -0.009461169
000010 be ee 55 3b f0 a9 00 3d 35 33 6c bc 34 eb 36 bd
       0.0032643522 0.031412065 -0.014416506 -0.0446579
000020 07 02 f0 bc b3 ba ec ba 8e 6b f6 3c 1d e5 0e bd
       -0.029297842 -0.0018061012 0.030080583 -0.03488647
000030 28 19 29 3d 84 61 65 3c 55 b3 2c 3b 94 ab 43 bc
       0.041283756 0.0140003 0.0026352007 -0.011942763
000040 1c 42 04 3d dc 02 20 bd 68 35 53 bc 9c 3d 2c bc
       0.03228961 -0.039065227 -0.012891151 -0.010512736
000050 7a 8b 06 bd 8c 4e d2 3c 9b 1d 03 bd 2f 1e 1f 3d
       -0.03284786 0.02567222 -0.032010656 0.038847145
000060 56 62 ce 3c 17 d5 ee 3b e7 b6 29 bd 0c 00 ce bb
       0.025193375 0.007288586 -0.041434195 -0.0062866267
000070 60 d1 00 3d ef 09 00 3d e3 a0 88 bc 84 af e1 3c
       0.031449676 0.031259473 -0.01667828 0.027549513
000080 91 e6 1a 3c 70 05 3e 3c 67 2b 05 3d af 29 c3 bc
       0.009454385 0.011597976 0.032512095 -0.023823587
000090 fa 3c 2b bd 62 28 ed bc 1a 49 60 3b 91 e0 7c 3b
       -0.0418062 -0.02894992 0.003422326 0.0038586
0000a0 a7 13 d0 bc 06 57 e3 3c e4 43 04 3b d4 51 36 bc
       -0.025399996 0.027751457 0.0020182068 -0.011127908
0000b0 26 38 ea 3b 54 5f 07 3b 21 f7 9c 3c bf 0e 9e 3a
       0.0071478067 0.0020656185 0.019160809 0.0012058838
0000c0 58 89 80 bc 99 d7 d7 bc ff fd 98 3c fe 7b f5 bc
       -0.01569049 -0.026347922 0.018675802 -0.02996635
0000d0 1e d2 97 3c 99 27 30 bc 1b 00 91 3c 61 fb 31 bc
       0.018532809 -0.010751628 0.017700246 -0.010863156
0000e0 67 96 31 3c 97 98 e8 3c c7 e5 f3 bb cf 72 13 bd
       0.010839081 0.028393073 -0.007443163 -0.035998162
0000f0 76 a0 79 bc 4b ee c0 3c 91 f6 c3 ba 7c d6 e7 3c
       -0.015236011 0.023551127 -0.0014950802 0.028300516
000100 1a f2 de bb 8b 6d e6 3c 29 f5 ca bc de f9 a0 bb
       -0.006803763 0.028128406 -0.024775105 -0.004912599
000110 a6 68 9c 3c 8a c6 0c bd 52 ab 89 bc 4a ef a2 bc
       0.019092869 -0.03436903 -0.016805325 -0.019889493
000120 87 30 d3 bc 2e 25 22 3d 41 82 ad bc b5 87 64 bc
       -0.025779976 0.03958624 -0.021180274 -0.013948371
000130 94 93 0a bc 54 d3 9c bc f7 57 d4 bb bf 63 de bb
       -0.008458037 -0.019143738 -0.006480213 -0.006786793
000140 db 24 98 3c 40 b7 6a ba a4 73 b1 3c 62 7c ea 3c
       0.018572262 -0.0008953698 0.021661587 0.028623763
000150 cf f3 1c 39 da 10 95 ba 0b 09 04 3d 28 7a 20 bd
       0.00014968145 -0.001137282 0.032235187 -0.039178997
000160 f4 45 b8 bc d9 53 ea bc 56 71 ec 3c 07 ba 69 3b
       -0.022494294 -0.028604435 0.028862637 0.003566386
000170 2d 8c f7 3c 1f ae fb bc 66 54 60 3c 65 d1 46 3c
       0.030218208 -0.030722676 0.013691997 0.0121348845
000180 d7 d2 89 3b 3b 8b 03 bd 29 c9 c2 3c 67 cc 8a 3c
       0.0042060423 -0.032115202 0.023777561 0.01694317
000190 ff 34 ed bc c7 b6 9a bc 02 d8 bd bc 8e 00 bb bc
       -0.028955935 -0.018885983 -0.02317429 -0.022827413
0001a0 66 80 bb bb 28 5d 5b 3c 74 a6 cd bc e1 80 af bc
       -0.0057220934 0.013388909 -0.025103785 -0.021423759
0001b0 ca 7f c1 3c 43 cc 90 bc 52 f6 4c bc 52 80 12 bd
       0.023620505 -0.017675525 -0.012509899 -0.035766907
0001c0 c5 95 9f bc bf e7 d5 3c 2e 7f 63 bb 5d 76 ec bc
       -0.019480595 0.026111482 -0.0034713256 -0.028865034
0001d0 b1 9f c3 3c 2a 34 57 3c 12 95 95 bc c2 72 b9 3c
       0.023879858 0.0131349955 -0.018259559 0.022637729
0001e0 00 d6 0d 3a 04 37 a2 bb 67 e7 fc 3c d9 ec e0 3c
       0.00054106116 -0.004950406 0.03087206 0.027456688
0001f0 f4 06 02 bd d2 bb a1 bc fc c0 f2 3b 9a bf 14 3d
       -0.031744912 -0.01974288 0.0074082594 0.036315538

weight f4 [128]
000000 16 f3 7e 3f fd d7 7f 3f 27 1a 80 3f 7e bb 80 3f
       0.9958967 0.99938947 1.0007981 1.0057218
000010 58 91 80 3f 59 15 80 3f 98 03 82 3f 5c bb 80 3f
       1.0044355 1.0006515 1.0157347 1.0057178
000020 dd 34 80 3f 80 36 80 3f 3f 5f 7f 3f 58 ff 7f 3f
       1.0016133 1.0016632 0.9975471 0.99999
000030 7c 6b 81 3f e3 76 7e 3f df 22 7f 3f ac e4 7e 3f
       1.0110927 0.99400157 0.99662584 0.99567676
000040 c1 63 7f 3f 98 a7 82 3f 02 37 81 3f 59 0c 7f 3f
       0.9976159 1.0207396 1.0094912 0.99628216
000050 3b 84 80 3f 2b 4e 80 3f c6 d9 7f 3f 36 02 80 3f
       1.0040354 1.0023855 0.9994167 1.0000675
000060 c8 25 7f 3f 6e 4f 80 3f 4c 53 80 3f 04 02 80 3f
       0.99667025 1.002424 1.002542 1.0000615
000070 f6 00 80 3f 64 dd 7f 3f a7 30 80 3f 74 ec 7d 3f
       1.0000293 0.9994719 1.0014848 0.99188924
000080 6f 05 80 3f 3c 94 80 3f 06 b0 80 3f 1f 43 7f 3f
       1.0001658 1.0045238 1.0053718 0.99711794
000090 92 f9 7f 3f 9b 5b 80 3f 7f 2f 7f 3f 74 95 7e 3f
       0.9999019 1.0027956 0.9968185 0.994468
0000a0 53 a4 7f 3f 61 37 80 3f 5b 59 7f 3f cc e5 7f 3f
       0.99860114 1.00169 0.9974572 0.9996002
0000b0 f0 9f 7f 3f dc 2b 7f 3f d4 19 80 3f 5e 20 80 3f
       0.9985342 0.996763 1.0007882 1.0009878
0000c0 23 eb 7f 3f 97 38 7e 3f 31 ef 7e 3f 6c 66 81 3f
       0.99968165 0.993051 0.9958373 1.0109382
0000d0 d9 cd 7d 3f 47 4a 80 3f f4 ab 7f 3f 79 1c 7e 3f
       0.99142224 1.0022668 0.99871755 0.99262196
0000e0 76 27 80 3f 60 74 7d 3f 2d 46 7f 3f a0 cd 7f 3f
       1.0012043 0.990057 0.99716455 0.99923134
0000f0 eb fb 7f 3f 45 5e 7f 3f 63 b7 80 3f 80 0f 7f 3f
       0.9999377 0.9975322 1.0055965 0.99633026
000100 13 cf 7f 3f 52 11 80 3f 8b 5a 80 3f ef 9f 81 3f
       0.99925345 1.0005286 1.0027632 1.0126933
000110 61 54 80 3f 43 f7 7f 3f ee 62 7f 3f 07 86 7f 3f
       1.002575 0.99986666 0.9976033 0.99813884
000120 40 70 80 3f 62 20 7f 3f 4e 03 7f 3f 22 21 7f 3f
       1.0034256 0.9965879 0.9961442 0.9965993
000130 4c 49 80 3f 75 6e 80 3f 44 48 7f 3f 69 41 7f 3f
       1.0022368 1.0033709 0.99719644 0.9970918
000140 92 a5 82 3f 55 8b 7f 3f 87 67 80 3f 21 e8 7f 3f
       1.0206778 0.9982198 1.0031594 0.99963576
000150 9b 18 7f 3f fb 1f 7f 3f 4d 02 80 3f d5 1e 82 3f
       0.9964692 0.99658173 1.0000702 1.0165659
000160 6a 88 7f 3f f9 3d 7f 3f 19 5d 7f 3f 7d 63 7f 3f
       0.99817526 0.9970394 0.9975143 0.9976118
000170 98 3c 7f 3f e0 73 80 3f 21 3a 80 3f 01 a0 7f 3f
       0.99701834 1.0035362 1.001774 0.9985352
000180 14 a8 7f 3f 4c 88 7e 3f d0 c9 7e 3f bd 08 80 3f
       0.9986584 0.9942672 0.9952669 1.0002667
000190 15 55 7f 3f 6c 7e 80 3f 91 53 7f 3f 7b d2 7f 3f
       0.997392 1.0038581 0.9973689 0.9993054
0001a0 b1 1e 80 3f 16 65 7f 3f fa af 80 3f 66 36 80 3f
       1.0009366 0.9976362 1.0053704 1.0016601
0001b0 86 96 7f 3f bb bb 7f 3f 92 26 80 3f 1a f7 7e 3f
       0.99839056 0.9989583 1.0011771 0.995958
0001c0 98 d3 7e 3f 97 c4 7f 3f 74 f1 7f 3f 1c c2 7f 3f
       0.99541616 0.9990935 0.99977803 0.9990556
0001d0 2a 52 80 3f f4 1e 80 3f e0 08 80 3f f3 d8 7e 3f
       1.0025074 1.0009446 1.0002708 0.9954979
0001e0 d6 af 80 3f 19 f5 7e 3f a8 43 7e 3f ad 3b 7e 3f
       1.0053661 0.9959274 0.99321985 0.9930981
0001f0 da 45 81 3f 75 59 7f 3f 9c e7 7e 3f dd e7 7f 3f
       1.0099442 0.99745876 0.9957216 0.9996317

bias f4 [128]
000000 35 9f 01 bc 04 7a 45 3c de 75 9f 3b e9 e6 4c bc
       -0.007911493 0.012053017 0.004866346 -0.012506225
000010 d7 f5 a7 bc 71 59 fd 3a 8a fc 2c 3c 9a e9 e3 3b
       -0.020502968 0.0019329024 0.010558257 0.0069553377
000020 8d 27 c0 ba 76 4b 55 bc 80 16 59 bc 95 83 cd bb
       -0.0014660225 -0.01301848 -0.013249993 -0.0062717893
000030 0d 19 0c bc 85 f6 12 3c 35 9e 89 3c f2 77 8f bb
       -0.008550894 0.008969908 0.016799072 -0.0043783123
000040 32 1c 92 bb 6f 5a 86 ba 52 ba 7d bc 1b 14 7f bc
       -0.0044589275 -0.001025034 -0.015486317 -0.015568758
000050 65 cc 8f bc 70 db 4f 3c 74 48 ae 3b 0b e3 a3 bb
       -0.017553518 0.012686595 0.0053186957 -0.005001431
000060 d8 7c 80 bc 00 f2 75 bc 24 ec 8d bc 95 d6 87 bb
       -0.01568453 -0.015011311 -0.017324515 -0.004145453
000070 b0 30 86 bc 60 12 fe 3b c4 ac 50 bb 84 27 7d ba
       -0.016380638 0.0077536553 -0.0031841258 -0.00096570724
000080 a7 14 97 bc 7d 1a 89 3a 01 62 12 ba e3 b5 2c bc
       -0.018442465 0.0010460165 -0.0005584062 -0.010541412
000090 04 81 bf ba d9 02 ab 3b fc 93 96 bc 08 19 2f bb
       -0.0014610593 0.0052188453 -0.018381111 -0.00267178
0000a0 8a 8e bd bb f2 61 d6 bb f0 f5 c9 bb 2f 7c 95 bb
       -0.0057848142 -0.0065424377 -0.0061633512 -0.004561923
0000b0 7f 55 9f 3c e1 d2 e7 bb 17 dc 3f bb fb ce 31 3c
       0.019449947 -0.0070746993 -0.002927547 0.010852571
0000c0 43 79 42 3c 24 bf 90 3c 24 15 9a bc c0 be d8 bb
       0.011869731 0.017669268 -0.018808909 -0.006614536
0000d0 80 ba 22 3c 3f b7 a0 bc d2 d8 b8 bb 10 b0 7b 3c
       0.00993216 -0.019618629 -0.0056410814 0.015361801
0000e0 6b 07 a8 3b 04 ce b5 bc c6 ec d6 3c 86 ce 3e bc
       0.0051278374 -0.022192962 0.02623595 -0.011645919
0000f0 f9 68 0b bc a0 8b 10 bc dc 21 e6 bb 02 6d dd bb
       -0.008508914 -0.008822352 -0.0070230793 -0.0067573795
000100 34 d3 d4 bb 1f 9d 6b bb 6c bb 52 bc 27 41 95 bb
       -0.006494904 -0.0035951806 -0.012862068 -0.004554886
000110 10 a9 39 bc 90 6e f5 3b b7 24 1a bc 2a 82 34 bc
       -0.011331812 0.0074899867 -0.009408168 -0.011017362
000120 4a 1d 11 bc 11 39 d0 3a f3 d2 89 bc f5 af 57 3c
       -0.008857081 0.0015886148 -0.016824221 0.01316451
000130 7d a0 bf bb 6a 3e 50 bc 0d 20 32 3c 8e d1 9f bc
       -0.005847989 -0.012710193 0.010871899 -0.019509103
000140 00 02 3b bc 13 0b 1f 39 5d 3d 2c 3c 3f fd d3 3b
       -0.011414051 0.00015167547 0.010512677 0.0064693983
000150 e4 e2 a1 bc be d3 9b bb c2 ca 15 3c 7a 98 dd bb
       -0.01976151 -0.0047554662 0.0091425795 -0.0067625614
000160 6a 30 8e bb 95 87 48 3c 8d 12 23 bc 68 4c bc 39
       -0.0043392675 0.0122393565 -0.009953153 0.0003591508
000170 1a f2 df bb ea 5b b2 bc 4c cd 52 bc c4 d4 98 3b
       -0.0068342807 -0.021772344 -0.012866329 0.0046640355
000180 22 ad 6d 3c d3 51 04 3c 69 18 4c 3b ce 2a 8a bc
       0.01450661 0.008076149 0.003114248 -0.016866114
000190 89 12 ad bb f3 fb 0e bc d3 b7 66 bc 26 11 8c 3c
       -0.0052817506 -0.008727062 -0.014081913 0.01709802
0001a0 03 4f 3f bc 5e 5f 02 bc 73 25 b0 3c d5 c0 2f bb
       -0.011676553 -0.007957308 0.021502232 -0.0026817818
0001b0 79 8c c2 3b 0f 89 64 bc a6 5d a0 bc c9 9d 18 3b
       0.005937156 -0.013948693 -0.019575905 0.0023287407
0001c0 72 66 d3 bb 87 b2 01 bb 82 a8 30 bc fe c0 ac 3c
       -0.0064514214 -0.0019790248 -0.010782363 0.02108812
0001d0 b2 85 7e 3c 17 b0 cb bb 12 ba 89 3c c5 ff 1f ba
       0.015534805 -0.00621606 0.016812358 -0.0006103481
0001e0 38 82 aa bb eb 6d c9 3b 74 b8 26 bc 25 3c 62 bb
       -0.0052035116 0.0061471364 -0.010175813 -0.0034520712
0001f0 ca d6 cc 3b 9b b9 62 bc 83 89 c5 3b 5d 4f 2d bc
       0.006251191 -0.013838197 0.0060283556 -0.010578004

running_mean f4 [128]
000000 9a 3f 8a 3e 23 8a 5b 3d 10 39 ed 3d 0b 8e d7 3d
       0.2700165 0.053598534 0.115831494 0.105251394
000010 a6 6b 41 3d c7 b3 17 3e d7 8b b2 3b 71 2a 4a 3c
       0.047221802 0.14814673 0.005448799 0.01233922
000020 59 8e a7 3d 81 ec 2c 3e e0 32 6a 3d 87 9f b2 3c
       0.081814475 0.16887094 0.057177424 0.021804584
000030 d9 6a e3 3d fb f7 ca 3e 19 66 42 3e ba 3d af 3d
       0.11104364 0.3964232 0.1898426 0.08556695
000040 ac 18 a7 3e 07 a7 44 3d 3b 4e 99 3c 2b af 28 3e
       0.3263601 0.048010852 0.018714061 0.16473071
000050 7b 1d 04 3d fa 42 ac 3d 56 ae 91 3c 12 f8 17 3e
       0.032254677 0.08411212 0.017783325 0.14840725
000060 99 65 de 3d e0 a5 4a 3d 45 09 4b 3c c9 2f 93 3d
       0.10859222 0.049474597 0.012392347 0.07186849
000070 cc 2d 2d 3e 86 76 d0 3d 6f f4 46 3e fc 32 80 3e
       0.16912001 0.101788566 0.19429182 0.25038898
000080 f9 34 c8 3d b5 43 ad 3c fe 81 3d 3d 68 dc de 3d
       0.09775729 0.02115045 0.04626655 0.10881883
000090 31 8c 59 3d 35 9a 7d 3c 8e c9 5c 3e 4e ee 6c 3e
       0.053112213 0.01547866 0.21561262 0.23137781
0000a0 39 17 24 3e 00 8c 2e 3e 22 8b 3f 3e 68 3a b6 3d
       0.16024484 0.17045593 0.18705419 0.08897859
0000b0 ed 37 34 3e fa 0b 0d 3e ba e4 df 3d 86 30 4d 3d
       0.17599459 0.137741 0.10932298 0.050095104
0000c0 b4 84 2c 3e 15 d5 04 3e e0 17 b8 3d bb b1 a1 3c
       0.16847497 0.1297191 0.08988929 0.019738069
0000d0 3a b8 2a 3e 49 9d ec 3c 23 cf 97 3d fb 7a 11 3e
       0.1667184 0.028883593 0.07412555 0.1420707
0000e0 f8 08 f1 3d 6f 3b 51 3e 03 44 ae 3d 05 68 15 3e
       0.11769289 0.20432828 0.08509066 0.14590462
0000f0 75 44 d9 3c 7a f0 bc 3e 84 e0 39 3d d0 20 ea 3d
       0.0265219 0.3690222 0.04538013 0.1143204
000100 ff e0 e8 3d a2 a3 73 3d 3f 69 75 3c 75 b7 98 3d
       0.113710396 0.059482224 0.014978706 0.07456867
000110 c9 5e 5c 3d 6d 7d 5a 3e 7b f1 94 3d 2b 95 a8 3d
       0.05380133 0.21336909 0.07272621 0.082315765
000120 db 51 e5 3d ea ee c5 3d d7 82 61 3d 14 8f e2 3d
       0.11197253 0.0966471 0.05505642 0.11062446
000130 83 b0 eb 3d da 59 8e 3d 2c 08 a7 3d 1a 07 72 3d
       0.11508276 0.069507316 0.081558555 0.059088804
000140 ed 44 34 3d 35 67 6f 3e 68 8d f6 3c 7e af 86 3e
       0.044011045 0.23379214 0.030096725 0.26305765
000150 5a c3 5d 3e dd 82 a4 3d e3 2f 96 3d e3 a7 58 3c
       0.21656552 0.08032773 0.073333524 0.013223621
000160 4c 4a 0b 3f 0f 1f 06 3e 8e e2 93 3e a6 e2 30 3e
       0.54410243 0.13097785 0.28883785 0.1727396
000170 57 6a 8c 3d 2c e6 7b 3d 8e 33 37 3e f8 48 0a 3e
       0.0685622 0.061498806 0.1789076 0.13504398
000180 52 8c 5e 3d 8a 36 fe 3d 50 9d 85 3e 3e 61 ce 3d
       0.05433304 0.12412746 0.26096582 0.10077141
000190 4e 66 6c 3d 6c fe 24 3d 93 8e 96 3d 88 50 83 3e
       0.057714753 0.040281698 0.073514126 0.25647378
0001a0 00 85 13 3e 19 4a f7 3c 3a a8 a8 3c b2 41 f0 3d
       0.14406204 0.0301867 0.02058803 0.117312804
0001b0 b3 1b 22 3e c7 dc 89 3c 8a 84 91 3d 7b ef 70 3e
       0.15830879 0.016828908 0.07105358 0.23528855
0001c0 24 4f 08 3e 2b b5 1c 3e fb fb 68 3d 67 d2 45 3d
       0.1331144 0.15303485 0.056880932 0.04829636
0001d0 43 25 71 3d df 48 a6 3d 5f 30 74 3e 1b 1e 68 3d
       0.058873426 0.08119368 0.23846577 0.056669336
0001e0 d6 57 d3 3c d7 a3 58 3e a9 86 aa 3e da e4 d9 3d
       0.02579872 0.2115625 0.33305863 0.10639353
0001f0 9e e2 4f 3c 48 01 06 3e 41 3a d6 3d 90 bc eb 3d
       0.012688307 0.13086426 0.1046033 0.11510575

running_var f4 [128]
000000 06 5f 11 3d ea 53 03 3c e4 35 9d 3d d5 c3 91 3d
       0.035491012 0.008015612 0.076762944 0.0711743
000010 ae f5 9b 3c ec 8a 07 3d 2a d4 2a 3b c5 2e 97 3b
       0.019038048 0.03309147 0.00260664 0.0046137297
000020 01 4d 42 3d a7 8a e7 3c c1 47 c4 3c ef 46 2a 3c
       0.047436718 0.028264357 0.023959996 0.010392888
000030 f9 75 08 3c 47 d0 bc 3d e5 c4 2d 3d e3 84 9d 3c
       0.008328908 0.09219413 0.0424241 0.019228404
000040 13 16 e3 3c a6 ac 13 3c 58 5d 18 3c f3 96 68 3c
       0.027720487 0.009013331 0.009299599 0.014196145
000050 c4 25 40 3c e1 49 02 3c 36 ea 3f 3c c0 aa c3 3c
       0.011727754 0.007952184 0.011713555 0.02388513
000060 88 5f 73 3d 66 4c ab 3c f6 7d 92 3b 4f b4 20 3d
       0.059417278 0.020910453 0.004470582 0.039234456
000070 94 66 37 3e 52 af 4a 3d 16 9e 45 3e 28 26 33 3d
       0.17910224 0.049483605 0.19298586 0.04373756
000080 a8 8f 8e 3d 89 dd be 3b 57 ef 0d 3c c1 1d 02 3d
       0.06960994 0.005824749 0.00866302 0.031766657
000090 36 68 a5 3c 50 90 f6 3b ce be 87 3c e6 20 cc 3c
       0.020191293 0.0075245276 0.016570475 0.024918031
0000a0 51 65 25 3e 7b 1a 60 3c c5 6d 39 3e 75 aa 4b 3d
       0.1615193 0.013678188 0.1810828 0.049723107
0000b0 2d eb b5 3c 4a 7e e0 3c 79 86 59 3c 3b b5 ac 3c
       0.022206867 0.02740397 0.01327669 0.021082511
0000c0 0d c2 2f 3e b0 1c c4 3c 61 6a 84 3c e0 81 15 3c
       0.17163868 0.02393946 0.016164007 0.009125203
0000d0 37 41 0c 3d 86 82 48 3c 13 dc 49 3c f8 c7 90 3c
       0.03424188 0.01223815 0.012320536 0.017673478
0000e0 44 d1 a3 3d db ba 58 3e c2 fd 59 3d bf 20 15 3e
       0.079988986 0.2116503 0.053220518 0.14563273
0000f0 a8 5c 46 3c d6 9c 91 3d c3 67 8a 3c 87 e2 b3 3d
       0.012107052 0.07109992 0.01689518 0.08783441
000100 7d 77 b6 3c 45 68 08 3c 4d 03 bf 3b ba ba 0f 3d
       0.022273773 0.008325641 0.005829251 0.035090186
000110 3c 79 b7 3c 88 e0 76 3e 4a e4 0c 3d f8 fa 39 3d
       0.022396676 0.2410909 0.0343974 0.045405358
000120 65 3b a7 3d 07 74 74 3d 5e 50 bd 3c 60 42 84 3d
       0.081656255 0.059680965 0.023109611 0.064579725
000130 88 12 ae 3d 6b d9 0a 3d 60 a7 4b 3c 6a ef c3 3c
       0.08499628 0.033898752 0.012430042 0.023917872
000140 3f cd 42 3c 25 51 93 3e a1 41 f6 3b f8 61 29 3d
       0.011889755 0.28772846 0.007515148 0.041353196
000150 a2 92 95 3e 2c c6 3f 3d c0 6e 0a 3d d1 d8 dd 3b
       0.29213434 0.04681985 0.033797026 0.0067702313
000160 b2 1d 56 3e 42 8e bf 3d 8c cf d7 3c 21 15 93 3c
       0.20909765 0.093533054 0.026344083 0.017954411
000170 53 67 01 3d 7e 76 e4 3c d4 be 52 3e 54 e4 af 3c
       0.03159268 0.027888533 0.20580608 0.02147118
000180 0a 85 48 3c 33 3e b8 3c 33 c1 41 3d d1 b0 8a 3d
       0.01223875 0.022490596 0.04730339 0.06772006
000190 dc f2 d5 3c a9 0d 1f 3c 9d df f0 3b 3e 31 76 3d
       0.026116781 0.009707847 0.0073508755 0.060105555
0001a0 27 4c a5 3c 44 64 0d 3c c2 69 45 3c 6e 0b b1 3c
       0.020177914 0.008629862 0.01204914 0.021611895
0001b0 08 0f 4f 3c 63 5b d1 3b 20 23 1c 3d 8b d0 97 3d
       0.012637861 0.006389068 0.038119435 0.07412823
0001c0 17 8d ed 3d 5b de 0e 3e 24 05 b0 3c a8 a3 29 3c
       0.115991764 0.1395201 0.021486826 0.01035396
0001d0 0f 5d 13 3c 2e a4 c5 3b 76 28 34 3d 32 9e f7 3b
       0.008994355 0.0060315346 0.0439839 0.0075567
0001e0 03 d4 79 3c 41 f2 e9 3c d3 d2 9b 3d 23 c2 ab 3c
       0.015248301 0.028557898 0.07608571 0.020966595
0001f0 a7 79 f5 3b 07 d0 b9 3d 60 f9 17 3c 30 de af 3d
       0.0074913087 0.09072881 0.009275764 0.08587301

weight f4 [64, 128, 9]
000000 af 3c 83 bc f3 f6 6a bb 65 f7 5e 3c ed 2b 9b bc
       -0.016020147 -0.003585276 0.013608788 -0.018941844
000010 87 d7 99 bc 34 a5 5b bc 66 7b 27 bb a7 b9 25 bc
       -0.01877953 -0.013406087 -0.002555573 -0.010115064
000020 b7 3e b1 3c dd c4 d3 ba a1 5c 1d 3a d0 68 cd 3c
       0.02163635 -0.0016156692 0.00060028775 0.025074393
000030 2a e7 98 3c d2 91 db 3c 30 0c 8c bc 43 9e dd bb
       0.018664915 0.026802931 -0.017095655 -0.006763251
000040 08 f8 bc bc 4d 8e b0 3c b1 bd d2 3c ea 12 85 3b
       -0.02306749 0.02155223 0.025725218 0.0040610926
000050 57 c2 46 3c d2 73 c1 3c 8f 47 80 bb 9d db d5 3b
       0.012131295 0.023614798 -0.0039147804 0.006526424
000060 9a f1 34 bb fa e9 cb 3b 00 0e 8f 3c cb 71 ad 3c
       -0.0027609826 0.0062229605 0.01746273 0.021172425
000070 e6 4f fb 3b eb 26 89 bc 8a 5c 88 3b ad 05 e8 bc
       0.0076694367 -0.01674219 0.004161422 -0.028323019
000080 35 68 06 bc 71 0c 99 bc d4 9e 98 bc 81 7e 0f bd
       -0.008203556 -0.01868269 -0.018630423 -0.035032753
000090 5f db b5 3b bc 8e 92 3c 43 3c 3b bc 1a 3d 03 bd
       0.0055498327 0.017890327 -0.011427942 -0.032040693
0000a0 eb 66 e1 bc 4d 64 00 bd 25 9b 5e 3c 9a 11 2a bc
       -0.027514895 -0.031345654 0.013586794 -0.010380173
0000b0 fd 1a 0e bd 83 36 c2 3c 1b 75 ad bc 83 17 0e bc
       -0.034693707 0.023707634 -0.021174004 -0.008672598
0000c0 2b 0f 22 ba ae c7 87 ba 11 51 29 3c cb 18 03 3b
       -0.000618207 -0.0010359192 0.010334269 0.0020003791
0000d0 b4 9a 68 bc 2c 9a b0 3b 49 61 d5 3c 77 13 a1 bc
       -0.01419704 0.0053894725 0.026047366 -0.019662602
0000e0 34 04 37 3b 34 3e 7c 3b 0a 71 8a 3b 80 c7 80 bc
       0.002792609 0.0038489224 0.004224901 -0.015720129
0000f0 9b 7b d5 3c 52 be 19 bc 3e 51 56 39 3c e7 bb 3b
       0.026059916 -0.009383755 0.00020438895 0.0057343524
000100 20 67 c9 3c f4 ac 8a 3a 02 5b 9e bc 6a 9c 72 bb
       0.024585307 0.0010580109 -0.019330505 -0.00370195
000110 52 5c e4 bc c2 d3 94 3a 46 8b 3f bc 18 1c d1 bc
       -0.027876053 0.0011354613 -0.01169092 -0.025526091
000120 51 ef c1 3c d4 51 02 3a ff ca b7 3c 3c 9d d4 3a
       0.023673685 0.00049713 0.022435663 0.0016221176
000130 d9 ac d2 bb c2 e3 8d bc 88 ce c9 3a a9 c2 2f bc
       -0.0064292965 -0.017320517 0.0015396634 -0.010727563
000140 1c 40 8c bc 1a 82 e7 bc d5 b7 87 3c db 47 8e b8
       -0.017120413 -0.02826028 0.01656715 -6.784472e-05
000150 e2 70 46 ba 37 9b 0e bc 84 94 87 3b 5d 68 ae bc
       -0.00075699214 -0.008703998 0.0041375775 -0.021289999
000160 a2 bc 60 bc 8c cb 0c bd c0 7f ad 3c fe c5 2a 3c
       -0.013716849 -0.034373805 0.02117908 0.010423182
000170 2f 9b be 3c 98 77 d7 bc 15 fc a2 bc c2 73 98 bc
       0.023267357 -0.026302144 -0.019895593 -0.018609885
000180 de 85 13 3c 00 0c ee bc e0 85 be bc 49 2b c1 bb
       0.009004084 -0.029058456 -0.023257196 -0.0058950526
000190 a1 52 8c bc 68 e6 a6 bc 4f 5c 24 bc fd 26 7b 3c
       -0.017129244 -0.020373538 -0.010031774 0.01532912
0001a0 b0 32 89 3c a9 19 29 3c f1 85 cf 3b 10 4a 69 3b
       0.016747802 0.010321059 0.0063331057 0.0035597123
0001b0 2d 05 5e 3c d0 e4 e1 3c dc 0d d9 bc d4 0d ea bb
       0.013551039 0.027574927 -0.026495866 -0.0071427617
0001c0 9d 66 f6 bc 8a 08 94 bb 13 3d 74 bc 6d fa 06 bc
       -0.030078227 -0.0045176195 -0.014907139 -0.008238417
0001d0 50 7c fd 39 ef 54 5e bc 9b c6 96 bc 10 f4 f9 3c
       0.0004834854 -0.013570054 -0.01840525 0.030511886
0001e0 a0 b3 75 3c 96 85 ca ba 98 f5 8c 3c 47 99 f8 3c
       0.014996439 -0.0015451189 0.017206952 0.030346526
0001f0 b9 57 cd bb 5d e2 68 bc 8b 73 dd bb 5b 8b cc 3c
       -0.006266561 -0.014214125 -0.0067581586 0.024968794
000200 3a e7 b2 bc 06 80 c3 bb 1a 28 1f 3b b7 ec 97 3c
       -0.021838773 -0.0059661893 0.0024285377 0.018545492
000210 29 1b 15 3b d4 61 80 bb da 93 a8 3c de 72 e0 3c
       0.0022751784 -0.003917912 0.020578314 0.027398523
000220 e0 42 bc bc 5f b6 d6 3c c5 fe aa bc 0f 9c cb bc
       -0.022981107 0.026210008 -0.020873437 -0.024854688
000230 9d 6b c7 3c 0e 62 f4 bc bb 42 2d 3c eb c5 04 ba
       0.024343306 -0.029831912 0.010574992 -0.00050648925
000240 d0 d4 09 bc e5 34 ad 3c 9d 8a f1 ba 55 96 0d 3c
       -0.008412555 0.021143386 -0.0018428151 0.008641799
000250 7e a7 85 bc 3f 5e 24 bc 53 0e 9c 3b 35 45 59 bc
       -0.016315218 -0.010032236 0.00476245 -0.013261129
000260 00 27 a8 3b 9e 72 55 ba d9 11 6a bc 79 04 25 b9
       0.0051316023 -0.00081423845 -0.014286482 -0.00015737292
000270 5f db 24 bd 3f a6 22 ba 20 0e 3e bc ec 93 5c bc
       -0.04024827 -0.0006204582 -0.011600047 -0.013463002
000280 c5 c7 fe b8 1a c5 9f bc 1d 6a 0e bc da c2 ed bb
       -0.00012148874 -0.019503165 -0.008692292 -0.007255894
000290 c2 f1 7a bc 64 b5 cc 3c ef b4 0b bc fc d6 88 bb
       -0.015316429 0.024988838 -0.008527025 -0.0041760188
0002a0 ac d8 ca 3b 8c 9b 8e bc 1f 54 c1 bb bf d7 09 3c
       0.00619038 -0.017408155 -0.0058999206 0.008413254
0002b0 bc 80 15 bc d9 66 78 3c ee 6e c9 3c 0f e7 89 3c
       -0.009124931 0.01516124 0.024589028 0.01683381
0002c0 c9 e6 d0 bc b1 b6 5d 3a f5 7d 6f bc 2a df 88 bc
       -0.025500672 0.0008457704 -0.014617433 -0.016707975
0002d0 49 94 20 bb 30 bc 1f bc 1c 89 c4 bc 2a bd fc bc
       -0.0024502447 -0.009749457 -0.02399116 -0.03085192
0002e0 cf e5 aa bc 67 b9 9c bc 6e 23 98 bb 54 50 05 3c
       -0.020861534 -0.019131375 -0.0046428954 0.0081368275
0002f0 3f b0 7f bb 02 1a ce bc 0a 41 60 bc 33 c6 1d 3c
       -0.0039014963 -0.025158886 -0.0136873815 0.009629774
000300 55 d6 96 3b 75 ea fa 3c 4e df e6 3c 81 c6 1d 3c
       0.004603187 0.030629376 0.028182652 0.009629847
000310 97 20 c3 3c 7f 73 c8 bc af 38 88 38 24 05 cf 3c
       0.023819251 -0.024469135 6.4955435e-05 0.025271006
000320 16 9c 58 3c d2 4e 77 3c c8 86 55 bb 1a 3c 7f 3c
       0.013220808 0.015094476 -0.0032581557 0.015578294
000330 ec b6 8c bb 63 02 bb 3c 1b 1b 18 bc 9c d6 9b bc
       -0.004294267 0.022828287 -0.009283806 -0.019023232
000340 7f 71 cd 3b 97 43 39 bb 9e 72 2a 3b 83 06 1c 3c
       0.0062696333 -0.0028269046 0.0026008259 0.009523037
000350 27 d7 f8 39 0e 28 b7 bc 87 1e 07 3a 02 6a 60 bc
       0.00047462547 -0.022357967 0.000515439 -0.013697149
000360 80 0b 95 ba 55 00 b1 3b a6 4d ef 3b 9d d4 f9 3c
       -0.0011371225 0.005401651 0.0073029576 0.03049689
000370 95 19 44 3b 6d c8 93 bc 6f 6e a9 3c 56 28 a3 bb
       0.0029922475 -0.018039906 0.020682542 -0.0049791737
000380 f5 69 b4 bc 18 73 8f bb 32 fa 90 bc 8e d6 d3 bc
       -0.02202318 -0.004377734 -0.017697427 -0.025859144
000390 3e 3e 47 b9 20 e5 86 3c d0 39 99 bc 0f df f9 38
       -0.00019001306 0.016466677 -0.018704325 0.00011914793
0003a0 ea 23 02 3c 5b 2f f0 bc 8a d0 d6 bb de d2 d5 bc
       0.007943133 -0.029319456 -0.0065556215 -0.026101526
0003b0 7d 36 4d bc 6c db 81 3c b5 9d 04 bd b2 5a 82 3b
       -0.012525198 0.015851699 -0.032376964 0.003978097
0003c0 f9 6f 06 bb 0f fa 12 bd 35 ba 89 bb a8 76 98 bc
       -0.0020513518 -0.035883006 -0.004203106 -0.018611267
0003d0 0b 0f 17 bc 63 4c 94 bb b1 b0 9f bc b4 f1 b9 3c
       -0.009219895 -0.0045257076 -0.019493433 0.02269826
0003e0 11 cc 94 3c 2e ae 5b 3c 36 b9 c5 3c 15 d6 db bc
       0.018163713 0.013408227 0.024136167 -0.02683548
0003f0 22 d9 c7 3c e9 9e 61 bb 48 af e0 bc 65 b4 b4 bc
       0.02439553 -0.0034426993 -0.02742733 -0.022058675

bias f4 [64]
000000 b8 a2 90 3c d8 e5 1b bd f7 a4 d3 bb d3 37 19 bc
       0.017655715 -0.038060993 -0.0064588743 -0.009351688
000010 b4 5b c4 3a a0 94 73 3c 46 96 6e bc 64 1e fc bc
       0.0014980943 0.014866978 -0.014562195 -0.03077621
000020 7b ce 24 bc 68 89 81 bc 02 c1 62 bc 20 cb 5f 3c
       -0.010058994 -0.01581259 -0.013839962 0.013659269
000030 8c bc b2 bc f8 3d 86 3a cf 69 95 bc 1e 7a 32 bc
       -0.021818422 0.0010241857 -0.01823893 -0.010893373
000040 3c e1 22 3c 84 fd 14 bc 3f 21 33 bc ff aa ca bc
       0.009941395 -0.009093646 -0.010933219 -0.02473974
000050 6a 0f ce bc 37 d3 fc bc 58 14 56 3c 9c c3 1c bb
       -0.025153834 -0.030862434 0.013066374 -0.0023920303
000060 3d d7 7c 3c ae 55 36 bc a5 45 61 3b e0 b4 b8 bc
       0.015432176 -0.011128826 0.0034373787 -0.022547185
000070 71 ae 1f 3c 7a 20 6a bc 90 86 13 3d 27 de d3 3b
       0.00974618 -0.01428997 0.036017 0.0064656916
000080 43 b4 14 3d d2 08 e6 3c ca 0c 33 bd 49 dc a3 3c
       0.036304723 0.028080378 -0.04371337 0.020002501
000090 ff c1 11 bc 97 73 75 bc 2b 73 c8 3b 10 01 a0 bc
       -0.00889635 -0.014981172 0.0061172447 -0.019531757
0000a0 49 22 cd bc 71 ff 07 3d b9 b9 93 bc 98 bc 45 bb
       -0.025040762 0.033202592 -0.018032895 -0.0030172225
0000b0 cb 9f 34 3a 97 af 8c 3c 57 29 b2 bc cb 7c a4 bc
       0.0006890266 0.017173572 -0.021748228 -0.020079037
0000c0 cd 30 34 3c 24 f5 4d 3c 8e 75 15 3c 20 77 6e bb
       0.010997963 0.012570653 0.0091222655 -0.0036386922
0000d0 44 7d 60 bb bc d6 80 bc 6b 04 0a 3d 8a 83 49 bc
       -0.0034254352 -0.015727393 0.03369562 -0.012299428
0000e0 d4 74 bc bb 91 f0 c0 3c 65 3e 85 bc 38 5b 5b bc
       -0.0057512317 0.023552211 -0.016265104 -0.013388447
0000f0 5b b5 67 3a ca 04 ca bc 72 c7 23 bc f6 08 ee 3c
       0.0008838975 -0.024660487 -0.009996282 0.029057007
