checkpoints/cnn1d/cnn1d.SBA.pt (torch, 671047 bytes, 20 tensors)

weight f4 [64, 1, 9]
00000000: f5b7 313d 61f9 d13d a1ef 8a3d b557 d43d
00000010: 99c6 943e 4084 b6be 1246 093e 7a7f 6f3d
00000020: 880e bcbe b564 efbd 98af 543e 7efa 42bc
00000030: e1c7 353e 5cda 1f3e 9859 e8bb 30d8 21be
00000040: a003 2e3d 3838 94be c212 923e b02a b9bd
00000050: 1208 07be 10b0 963e 384b 2bbb c5d9 afbe
00000060: 49e4 8fbe 33f7 013e 10a3 123e fc0a 473e
00000070: 2549 59be 8668 69be 9c60 9f3e 0e5b 183e
00000080: e27b 23be 0549 3a3d 3833 593d ef95 99be
00000090: 9587 6abe a36b 06be b928 e93d d149 4d3d
000000a0: 1e45 593e 270e 19bc 63fc 833e f581 49be
000000b0: 4b04 69bd 146a f5bc 11eb 9e3e 4628 c63d
000000c0: cb52 0e3e 7ec7 963e da90 40be ad5d 93be
000000d0: a407 70be 758b 4dbe 13d8 09be 66f1 a3be
000000e0: b33b 88be aaa9 a5be fef7 2fbe e88c 42bd
000000f0: 8251 023e 9857 7cbd e002 3f3c 115b 19be
00000100: 7192 0e3e f1e3 323e 18d3 9fbc 3d96 5f3e
00000110: 2ca9 f4bd bf04 48bd 40bd 27be 1c69 0c3e
00000120: ba4c 5c3e 4e74 953e 1d8c 81be 9391 1a3e
00000130: f380 603e 89ea b13d 452e 233e 45f8 9c3e
00000140: 220d 9bbe 4c2e 8fbd 8b11 a13e d8a0 453e
00000150: 8979 f3bd 2d44 88be e923 9abe 687b f5bc
00000160: 0efb 2f3d b5e8 05be 6dbe 5cbe 93f2 44be
00000170: 48ca 923e 0d41 87be 7568 703d 3219 a5be
00000180: 1869 0bbe fba9 2abe 4e67 65bd 024b 2a3e
00000190: eeab 16be fc8f 063e f14f 64be 9707 713e
000001a0: 6c92 6abd 1994 46bc 145a a2be ab7e 663e
000001b0: d3cf 8fbe 1157 51bc 7ed4 fcbc 153a 90be
000001c0: 6f09 f3bd 3d0c 033e 1445 8b3e 772c 2e3c
000001d0: b124 ddbd 9f93 da3d 0083 bfbc 5784 0cbb
000001e0: eb91 41be 4508 243e c1f9 42be 4370 513b
000001f0: 3547 22be 9605 0a3e c969 e3bc 3663 4dbd
00000200: 212b 8cbe d970 90be e73e 783e 7a9e a1be
00000210: 0c4b 873e 25ae 86be 12bc 043e 0b9a f9bd
00000220: 8b91 07be 794f 6cbd 8373 853d d374 6cbe
00000230: d874 313e 4cfb 96bd 4829 843d 31f6 903e
00000240: d744 1abe a28f b7be d2ab 653e f82b 1b3d
00000250: 6005 673e 9d3c 5bbe 6a55 13bd 233b 623e
00000260: 1c97 603d 7aba a33e 62ed ef3d 1806 f8bd
00000270: 9394 2abd 3741 9bbe e378 853e 107b 553e
00000280: b682 d33d 8977 a23e ce74 163e 7a34 74be
00000290: 9d62 9c3e e2b2 bc3c 0c80 a8be 1385 02bc
000002a0: 8246 8f3b dfc9 37be 55b5 8c3e 3be7 5bbe
000002b0: 7593 3e3c eaa2 6bbd d8f6 2cbe 7524 013e
000002c0: e2e0 3c3e 0c24 c43d d827 acbe f3d9 79be
000002d0: 00a8 993e 56bf 70be 790d af3b 85ed 9e3e
000002e0: a9d2 623e 0399 073e 80c8 e33c 480d 113e
000002f0: 560c a3bd 917e 623e 4a13 973e 3fa8 3f3e
00000300: 6dc1 af3d 3098 94be 07d6 36be 4f44 15be
00000310: 0669 6ebe 78dd 703d c816 633d a6fb f7bd
00000320: a60f 313e e8d7 05be 160e f8bd c0b6 2cbd
00000330: 0054 a9ba c0be 13be b0fe b73c a01b 30be
00000340: 6536 253e 1f09 e23c 123b 843b d952 4f3e
00000350: c8bc 163d 5c44 8bbe 3174 6dbe 590c 8a3e
00000360: c73c 1fbe 4352 a9be bfde 5bbe fb3f 863e
00000370: a140 ba3d 60fe 923e c9dd 11be 650a e3bd
00000380: 8646 21be ac98 e8bd 4843 89bc a16c 01bd
00000390: 3bbd a1bb 572c e8bc fa17 8abe ba5e 6fbe
000003a0: 2102 3dbe 6227 ca3c 33b9 9d3e fc12 94be
000003b0: 8cc9 90bd 7303 9d3e 80fe acbd d254 cebd
000003c0: d19f 7b3e 0161 97be 25a3 133e 16c3 393e
000003d0: 45c2 c4bc ebed 0b3d b411 71be a997 bf3c
000003e0: fcd5 e4bd 17c3 5d3e 828e 043e 8288 9c3e
000003f0: 4f71 23be 9f89 a5be 2647 a6be b761 93be
0.043388326 0.102526434 0.06783987 0.10368291 0.29057768 -0.35647774 0.13405636 0.05847118
-0.36729836 -0.1168913 0.20770109 -0.011900542 0.17752029 0.15610641 -0.0070907585 -0.15805125
0.042483926 -0.28949142 0.28529936 -0.09041345 -0.13186672 0.294312 -0.0026137363 -0.34345832
-0.28103855 0.12691955 0.14320016 0.19437784 -0.21219309 -0.22793779 0.31128395 0.14878485
-0.15965226 0.045479793 0.05302736 -0.29997203 -0.22903283 -0.13126998 0.1138472 0.050119225
0.21217772 -0.009341753 0.25778493 -0.19678481 -0.05688886 -0.029957809 0.31038716 0.0967565
0.1389877 0.29449075 -0.18805256 -0.28782406 -0.23440415 -0.2007273 -0.13461332 -0.3202011
-0.26608047 -0.32356006 -0.17184445 -0.04749766 0.12726405 -0.061606973 0.0116584 -0.14976145
0.1392305 0.17469765 -0.019509837 0.21834655 -0.119463295 -0.04883265 -0.16380787 0.13711971
0.21513644 0.29190296 -0.2530221 0.15094595 0.2192419 0.08687312 0.15935619 0.30658165
-0.30283457 -0.06991252 0.31458697 0.19299638 -0.11888415 -0.26614514 -0.30105522 -0.029966071
0.042964034 -0.13077052 -0.21557017 -0.1923316 0.28669953 -0.26416817 0.058693368 -0.32245785
-0.13614309 -0.16666405 -0.056006722 0.16630176 -0.14714023 0.13140863 -0.2229612 0.23538052
-0.057268545 -0.01212027 -0.3170935 0.22509257 -0.28088245 -0.012777106 -0.030863043 -0.28169313
-0.11867034 0.12797637 0.2720114 0.010630718 -0.10798014 0.10672688 -0.023377895 -0.0021441185
-0.1890332 0.1601878 -0.19040586 0.0031957782 -0.15847476 0.13478693 -0.027760403 -0.050143443
-0.27376655 -0.28211096 0.24242745 -0.3156622 0.26424444 -0.26304737 0.12962368 -0.121875845
-0.13239114 -0.05769298 0.06516173 -0.2309144 0.17329729 -0.0737215 0.06453186 0.2831283
-0.15065323 -0.3585177 0.22428825 0.03788373 0.22560644 -0.21409841 -0.03597013 0.22092871
0.05483161 0.31978208 0.11715199 -0.12110537 -0.041645598 -0.30323192 0.26068792 0.20847726
0.103276655 0.31731823 0.14692995 -0.23848143 0.30543986 0.023034517 -0.32910192 -0.007966298
0.004372419 -0.17948101 0.27482095 -0.21474926 0.011631836 -0.057528414 -0.16891038 0.12611564
0.18445161 0.09577188 -0.33624148 -0.24399547 0.30010986 -0.23510489 0.0053421822 0.31040588
0.22150673 0.13241963 0.027805567 0.14165223 -0.07961337 0.22118594 0.29506904 0.18716525
0.08581815 -0.2902236 -0.17855082 -0.14576839 -0.23282251 0.05880496 0.055441648 -0.12108545
0.17291126 -0.13070643 -0.12112062 -0.04216647 -0.0012918711 -0.14428234 0.022460312 -0.17198038
0.16134031 0.02759224 0.004035362 0.20246448 0.03680113 -0.27200592 -0.23188855 0.26962546
-0.15550528 -0.33070573 -0.2147169 0.26220688 0.09094358 0.28709698 -0.1424476 -0.11085967
-0.15749559 -0.11357245 -0.016755715 -0.031597737 -0.004935888 -0.028341455 -0.26971418 -0.23375979
-0.18457843 0.024676982 0.30805358 -0.28920734 -0.07069692 0.30666694 -0.084469795 -0.10074772
0.24572684 -0.29566196 0.14417703 0.18140826 -0.024018416 0.034162443 -0.2354191 0.023387747
-0.11173627 0.21656452 0.12944987 0.30572897 -0.15961193 -0.3233156 -0.32476157 -0.28785488

bias f4 [64]
00000000: 263d 723d a04d bc3d 45b9 ee3b f030 49be
00000010: 404a 1c3e 0655 74be 3e45 7cbe ed9e f9bd
00000020: 73c7 943e 6263 8ebe 30b6 52b7 34d8 053d
00000030: b9c1 c0bc 38ad f43d 519c 2abe c642 b3bb
00000040: 5047 893e c740 1fbe 0439 133b 7267 9d3c
00000050: df7e d1bd e968 573d 0398 75be c9b4 14be
00000060: f5b8 693e 9132 533e 3f05 20be 11b1 45be
00000070: 135d a7be 628c 223e 98d6 f23a 6091 3a3e
00000080: 3312 d6bd 7707 a93d 5893 b4bd 62fc 9cbe
00000090: 2007 21be a6d9 833e abd3 83bd 6110 c83d
000000a0: f867 8b3e 9017 513e 0319 a4be 94e5 ae3c
000000b0: 2c6e 0fbe 8dda 46bd 2823 7abd af2b 7c3e
000000c0: 14aa 20be 1b9c 943b 342d 5dbe 5827 10bd
000000d0: 5607 2c3e 687a 783e 3e1d 5f3e 8fd6 2f3e
000000e0: 8a69 3f3e f11e 44be 7b09 193e 484d 2c3d
000000f0: a51d ccbd d94f 15be 73e0 873e 7f7d c4bd
0.059140347 0.09194493 0.0072852694 -0.19647574 0.15262699 -0.23860559 -0.24635789 -0.12188516
0.29058418 -0.27810198 -1.2559394e-05 0.03267689 -0.023529874 0.11947101 -0.16661192 -0.0054706065
0.2681222 -0.15552054 0.0022464404 0.019214366 -0.10229277 0.052590284 -0.23983769 -0.14522089
0.22824462 0.20624758 -0.15627001 -0.19305827 -0.32688197 0.15873864 0.0018527089 0.18219519
-0.1045269 0.08253377 -0.08817166 -0.30661303 -0.15725374 0.2575199 -0.06436857 0.09768749
0.2722776 0.20419145 -0.32050332 0.021349706 -0.14006871 -0.04854827 -0.061068684 0.24626039
-0.1568988 0.004535211 -0.21599275 -0.03519377 0.16799673 0.24265444 0.21788499 0.17171691
0.18692604 -0.19152428 0.14945023 0.04206589 -0.09966592 -0.1458124 0.2653843 -0.09594249

weight f4 [64]
00000000: 8da1 793f d2c5 a93f 64ae 8d3f 5043 7e3f
00000010: 23a2 763f f485 7e3f 0000 803f fefc 7d3f
00000020: eab8 783f bff6 813f 1e6f 843f 2415 993f
00000030: 5b80 833f afdf 793f ab74 7c3f 7891 883f
00000040: 076d 793f 516b 743f d875 963f 1b1a 833f
00000050: 1820 783f f8df 8e3f 0000 803f 4e2e 813f
00000060: f2ce 753f d355 7a3f 2055 843f a036 733f
00000070: 7d42 803f 2210 7a3f e09d 933f eccd 7b3f
00000080: 5514 8a3f 2cbe 823f c21b 753f 3aff 7d3f
00000090: 17ea 7f3f e9e9 733f 3ab1 723f b294 823f
000000a0: 8056 733f 493c 7e3f 5460 7d3f 1f37 7a3f
000000b0: e077 763f d8b0 793f 8b82 793f 5617 763f
000000c0: 3ad0 763f 7b20 ae3f 9771 833f 7bd4 903f
000000d0: b73a 773f c899 743f b7e9 7c3f 63a9 aa3f
000000e0: ac61 883f 053f 793f 1db2 773f 0b64 773f
000000f0: c751 8a3f 943b 813f 5e96 7b3f 9068 8d3f
0.9751213 1.3263495 1.1068845 0.9932146 0.9634115 0.99423146 1.0 0.9921416
0.97157156 1.0153426 1.034641 1.1959577 1.0273546 0.9760694 0.9861552 1.0669394
0.9743199 0.9547625 1.1754713 1.0242342 0.9692397 1.11621 1.0 1.0092256
0.960189 0.9778721 1.0338478 0.95005226 1.0020291 0.97680867 1.1532555 0.98361087
1.0787455 1.0214286 0.9574548 0.9921757 0.9996657 0.95278794 0.94801676 1.0201628
0.95053864 0.9931074 0.9897511 0.9774036 0.96276665 0.9753547 0.9746482 0.9612936
0.9641148 1.3603662 1.026904 1.1314844 0.96573967 0.9554715 0.9879412 1.3332943
1.0654807 0.97361785 0.96756154 0.9663703 1.0806206 1.0096307 0.9827632 1.1047535

bias f4 [64]
00000000: 3ad3 86bc 1386 803c c9bc 9a3c b8ab 3d3d
00000010: 2ce3 2cbc be45 fabc 35d7 623d 572b 2f3d
00000020: dfc4 b23c 1035 713d 7a9a 21bd 2130 3e3b
00000030: e15e 553d 1e07 d73b 87d6 39bd d34b 1e3d
00000040: b2e0 ae3c a6c2 86bc 8c58 2f3d aa80 943c
00000050: a6a8 473c 376d cd3c 2b3d 69bd efc0 1f3d
00000060: 1d20 953c c555 013c 22a0 8d3c 38ea 333c
00000070: 7b12 44bd b4e2 903c 8d06 443d 5157 7d3c
00000080: ebe5 393c 17b5 a63b 80f5 59bc bad7 793d
00000090: 91d5 1b3d 2365 ef3a fa15 44bc a88c 9c3a
000000a0: 5bbe be3b 5595 14bc 4ea5 863b 4923 96bb
000000b0: ba81 05bd ae78 213c 4677 5ebd 6380 cd3c
000000c0: 82ec cd3c 9fa8 973c 5fe1 4f3d 9f23 5f3d
000000d0: 46fc e23c ca6d 143b a268 79bc f7eb 2ebc
000000e0: 745b ae3c 2c53 083d f42f a73b 18a3 bc3b
000000f0: d11d 5f3d 9bb0 2c3c 1c70 383d 25f3 4d3d
-0.016458143 0.015688932 0.018888848 0.046306342 -0.010552209 -0.030550834 0.05538102 0.04276594
0.021822391 0.058888495 -0.03945396 0.0029020386 0.052092437 0.0065621277 -0.045370605 0.03864653
0.021347377 -0.016450237 0.042809054 0.018127758 0.012186205 0.025076492 -0.0569431 0.039002355
0.01820379 0.007893984 0.017288271 0.010981135 -0.047869187 0.017686225 0.04785781 0.015462712
0.011346321 0.0050875056 -0.013303161 0.06099675 0.03804547 0.0018264394 -0.01196813 0.0011943774
0.005821032 -0.009068807 0.0041090613 -0.004581843 -0.03259442 0.009855432 -0.054312967 0.025085634
0.02513719 0.018513022 0.05075204 0.05447733 0.027708184 0.0022648447 -0.0152227 -0.010676376
0.021283843 0.033282444 0.005102152 0.005756747 0.054471795 0.010540153 0.04502879 0.05028071

running_mean f4 [64]
00000000: da22 ca3d cb5a bd3d 97b7 103c efe6 8835
00000010: bbd3 213e e503 f336 0000 0000 db6a 573b
00000020: 9d9d 3e3f 3fa1 2f34 e0ea d335 1e7c 093d
00000030: bc28 e336 d770 1f3d e98d 6531 b587 5639
00000040: fb57 8a3e 9391 963e 4352 703b 4545 7b38
00000050: 19c2 a73e 1082 5a3d 0000 0000 7d35 6d37
00000060: 12d7 0b3d d5e6 073c b4b7 fe38 25cc c13d
00000070: 5e9c 6433 d37a cb3c cd7f 153b dfb6 993b
00000080: 2e7f 9139 3de7 a83d 74d3 113f 96d9 9b32
00000090: fd0d 1d37 106e fa3c a8dd a83e d13e de3a
000000a0: 2798 a73e 8ec5 2f3d 3d93 aa33 d2c1 9f3d
000000b0: 2d32 8b3d 51f4 1a3f bd2c c12e 572d c73e
000000c0: 44bd d53d f146 a13b f978 d537 315a 063a
000000d0: 9c55 d53c 9108 7b3e 0e49 813c e0f6 2f3e
000000e0: 9ae0 3f3e 455e 133d 7d85 2b3f 24ac 583d
000000f0: 9802 1a39 b189 8a38 f653 173c efc5 0439
0.09869929 0.09245833 0.008832834 1.02e-06 0.15803425 7.2424177e-06 0.0 0.0032870087
0.7445925 1.6356806e-07 1.5789083e-06 0.033565633 6.7698693e-06 0.03892597 3.3404552e-09 0.00020459185
0.2702025 0.2940794 0.0036670126 5.9907576e-05 0.32765272 0.053346694 0.0 1.41387545e-05
0.034140654 0.008294781 0.00012145881 0.094627656 5.3227602e-08 0.02483884 0.002281177 0.0046909894
0.0002775131 0.0824723 0.56963277 1.8143322e-08 9.361186e-06 0.03057006 0.3298161 0.0016955977
0.3273327 0.042913012 7.9430244e-08 0.0780064 0.0679668 0.6052905 8.784571e-11 0.3890178
0.1043649 0.004921787 2.5447911e-05 0.0005125134 0.026041798 0.24514987 0.015781906 0.17184019
0.18738022 0.035978574 0.6700056 0.05289854 0.0001468755 6.606e-05 0.009236326 0.00012662237

running_var f4 [64]
00000000: 81b1 b339 adc4 8238 d9ee a738 0e0e e233
00000010: 086d a938 07cd 7f35 0400 0000 1cba ae38
00000020: 5654 0f3d 3eae 0532 4c80 2b33 5892 5638
00000030: 59c9 2735 0c9c 763a 9b49 ac2f 4bf3 4537
00000040: 2115 1439 11f0 ff3c f723 2c38 b159 d835
00000050: 3ff5 f33c b295 1839 0400 0000 bd1a c735
00000060: a6db 433b 2633 6b3a 62c7 8436 c1fa f53b
00000070: a99b bd31 5de5 c03a 6bfa 3d37 a2e4 123a
00000080: 2a08 0b38 8bb1 c238 4f3e 933d a459 8d30
00000090: f242 a135 9e31 523b cd37 d23c 568c e338
000000a0: 97b5 1e3a dc43 353b a05e 9631 9009 383a
000000b0: a88b 803b 419b 933d 4ebd 352b 8888 643b
000000c0: b316 f43b 799e 2138 7650 1436 24f6 0d38
000000d0: 7f8b d63a 3169 0739 05b4 cc3a 4360 4438
000000e0: 33fa a038 a244 143b b815 3c3d cdee ce38
000000f0: fb05 0a37 4305 2637 77bb b33a 77a0 1137
0.0003427379 6.235517e-05 8.0076694e-05 1.05265016e-07 8.0788566e-05 9.5293257e-07 6e-45 8.331632e-05
0.03499254 7.781237e-09 3.9930725e-08 5.115787e-05 6.250535e-07 0.0009407408 3.1338918e-10 1.1798761e-05
0.00014122251 0.031242402 4.104149e-05 1.6119358e-06 0.029780028 0.00014551615 6e-45 1.4834437e-06
0.002988556 0.000897216 3.9571178e-06 0.007506699 5.5183205e-09 0.0014716793 1.1323583e-05 0.0005603527
3.3147786e-05 9.283711e-05 0.07189619 1.0284578e-09 1.2014918e-06 0.0032073031 0.025661374 0.00010850343
0.00060542807 0.0027658856 4.376332e-09 0.0007020468 0.0039228983 0.07207347 6.456683e-13 0.0034871418
0.007448995 3.853298e-05 2.2100553e-06 3.3846256e-05 0.0016368477 0.0001291379 0.0015617615 4.6819692e-05
7.675998e-05 0.0022623916 0.04591915 9.8673256e-05 8.226833e-06 9.895596e-06 0.0013712485 8.680035e-06

weight f4 [128, 64, 9]
00000000: 1d72 d1bc aecb f23c 7ce5 553c 6786 d5bc
00000010: f94d fb39 88e5 6abc 778f 943a 768b 983c
00000020: d3b9 eabc 4c97 3dbd 8d7d 4f3c 25ff 67bd
00000030: 7a6c ff3c f21e 763d d6ed 6fbd 1925 83bd
00000040: c40d 22bc c667 133b d015 b3bc 96bb f63c
00000050: ba17 33bd 124e 2ebd 608c 173d dbaf 91bb
00000060: 5eaf c2bc 922a 41bd e5be 1b3d a180 243c
00000070: 07b2 85ba 9d53 99bc ec15 2abd 4039 7e3c
00000080: 1614 5abd ae53 d9bc 5147 1bbd a8f6 13bd
00000090: 4979 0c3c 6066 c5bb fe16 b03c 05e9 dabc
000000a0: 801c 0bbb f471 a9bb 7ed1 8e3c 7724 1d3d
000000b0: 9d67 80b9 50a8 0abd cd60 f73c 5546 973c
000000c0: 41b0 263d 0f21 d9bc a494 b7bc bb01 6a3c
000000d0: e88f 1bbb e9c8 24bb 3063 033a f942 4fbc
000000e0: d244 6fbc d887 0cbb 6988 8a3c c96e 663c
000000f0: 18ae 9e3a 163e adbc a1d9 73bc a256 79bc
00000100: 3803 20bd c770 85bc c6d2 a6bc f67b 80bc
00000110: 1dd0 a93c 8639 34bb 69f4 c03c 607b 223d
00000120: b530 0dbd 8cba 0cbd eaa9 e23b 7ecb d03c
00000130: fe42 1c3d 3d05 c53c 295b 05bd e7ef 9b38
00000140: 8f13 2fbc 7fc5 18bc 5207 93bc ea37 ccbc
00000150: 1652 c9bc c81e d4bc 3252 b7bc c00a 03bd
00000160: 5c5e d13c 555e adbb 8821 6dbc 7c05 903c
00000170: 981a a3bc 966b 1e3d 1df4 163d f04a 953c
00000180: 69fe f83c b608 d7bc cf41 aa3c ff4c 05bd
00000190: 5915 2e3c 8b5d c0bc 9322 823c 49ec 2fbd
000001a0: f077 80bc 0ad1 1f3d d160 4fbd b974 bbbb
000001b0: bba0 59bd ca75 843b 0be0 e6bc bb02 6ebd
000001c0: 5994 50bd 1ca2 26bd 213a ce3b 0367 1abd
000001d0: 150d 08bc c54f 14bd 4add 3b3c 0dff 89bc
000001e0: fbf4 873c c55a cdbb 5946 103d d00f 343d
000001f0: bc1c 4cbc a268 85bc c385 dabc 0300 12bc
00000200: acea 19ba 75aa 043d 37ba 19ba a669 1fba
00000210: dd26 bab9 d033 65bc 06de f23c fe14 b7bc
00000220: 8540 b7bc 9fce 8cbc 7295 14bd 6069 06bd
00000230: 6e84 83bc 8bf4 3fbd 419a eb3b a6d1 393c
00000240: 765e dbbc 4824 dbbc 9007 883b dbba 343c
00000250: e1da b13c 5d2c 6f3c 4925 8fbb 3ddf ec3c
00000260: d94b bbbc ebd5 f83c 9063 1c3d 27c0 0c3d
00000270: 93ac 1f3d 3ebe f23c 5b7c 14bd e71c aebc
00000280: 20fc 63bc 28ed 023d 4019 60bb e376 12bd
00000290: 7a74 1fbd 7bbe 25bb 8053 af3b b3ee 86bc
000002a0: 266d 163c e78f 03bd c0c4 723c 5cfe e63c
000002b0: be24 20bc c550 26bd dc91 07bd 340d b8bb
000002c0: 8e51 60bc f32d 9abc 6abc 88bc d0a6 32bd
000002d0: 81a2 273c 7b28 bd3c 325c 1cbd fd5d c53c
000002e0: 9316 653c ec87 1fbd ce9a 20bb b889 353b
000002f0: 69f1 b3bc 5497 d63b e326 7a3c 40db 53bd
00000300: 924c 023d 20c7 3b3d 8421 e23c c93b 10ba
00000310: 8d80 4bbd f33a ab3c 9d86 45bc ecf9 203c
00000320: 809a fb3c 3b45 4ebc 1228 013d 2010 353d
00000330: 0ea1 e9bc edcc f9ba 66a8 b43b 3624 df3c
00000340: 80c0 993b fe3c 52bd a2ea d03b 1743 483d
00000350: 2294 883c 25ec debb c046 613c cda7 07bd
00000360: f8b6 09bd e6c5 63bc 26d0 1dbb 22ea b73c
00000370: 762f 003c 7a9d 6b3c 83a4 433c 35f4 96bc
00000380: 1a70 923c 85ca 69bc 4758 65bd 3d8e 253c
00000390: 2dfd 3dbd 24f5 3cbc 3e35 8e3c e8c7 c73c
000003a0: 759e 32bd efb8 15bc a482 83bc 0cce 25bd
000003b0: 1ffe 08bd a3ae 083c 5bf4 ca3b 9e6f 94bb
000003c0: b0a2 d6bc 3f26 5ebc e62b 38bc fa5a feba
000003d0: 678c 0a3d dbc1 21bd aa9f 8b3c bb54 7c3c
000003e0: 5e25 0c3d 1b88 253c 3d08 c43c 2312 70bb
000003f0: 64fd ecbc 999a c83c 1eb0 87ba d7a1 613b
-0.025567109 0.029638138 0.013055202 -0.026065065 0.00047932545 -0.014336951 0.001133426 0.018621188
-0.028653061 -0.046286866 0.012664211 -0.05663981 0.031179655 0.060088105 -0.058576427 -0.0640356
-0.009890977 0.0022492274 -0.021860987 0.030118745 -0.0437238 -0.042554922 0.036999106 -0.0044460124
-0.023765262 -0.04715974 0.038023848 0.010040433 -0.0010200151 -0.018716628 -0.041524813 0.015516579
-0.05324181 -0.02652916 -0.03790981 -0.0361239 0.0085738385 -0.006024167 0.021495339 -0.02672244
-0.0021226704 -0.005171055 0.017433878 0.038364854 -0.0002449126 -0.03385192 0.030197525 0.018466154
0.040695433 -0.026505021 -0.022409745 0.014282639 -0.0023736898 -0.0025144166 0.00050120335 -0.012650245
-0.01460381 -0.0021443274 0.016910749 0.014064499 0.0012106327 -0.021147769 -0.01488343 -0.015218409
-0.03906557 -0.016289128 -0.020364176 -0.01568411 0.020729119 -0.0027500107 0.023554044 0.03966844
-0.03447028 -0.034357592 0.006917228 0.025487658 0.038149826 0.02405035 -0.03255764 7.435661e-05
-0.0106858155 -0.0093244305 -0.017947827 -0.024929006 -0.024575274 -0.025893584 -0.022378061 -0.031992674
0.02555769 -0.0052907863 -0.0144733265 0.01758074 -0.019910142 0.03867682 0.0368539 0.01822421
0.03039475 -0.02624927 0.020783333 -0.032544132 0.010625207 -0.023482105 0.015885627 -0.04294995
-0.01568219 0.039017715 -0.05062944 -0.0057207015 -0.0531318 0.004042362 -0.028183004 -0.058108073
-0.050922725 -0.040681943 0.0062935506 -0.037695896 -0.0083039 -0.036208887 0.011466334 -0.01684525
0.016596308 -0.006266924 0.03522334 0.043960392 -0.012458023 -0.016285244 -0.02667511 -0.008911136
-0.00058714557 0.032389123 -0.0005864235 -0.00060811115 -0.0003550564 -0.013989404 0.029646885 -0.022348877
-0.022369632 -0.017188368 -0.036275335 -0.032815337 -0.016054358 -0.046864074 0.0071900194 0.011341488
-0.02677844 -0.026750699 0.004151292 0.011030878 0.021710815 0.014597979 -0.0043684584 0.028915042
-0.022863315 0.030375442 0.038180888 0.03436294 0.03898294 0.02963173 -0.036251407 -0.021254016
-0.013915092 0.03196445 -0.0034194738 -0.03575791 -0.03892944 -0.0025290537 0.00535053 -0.016471243
0.009181296 -0.032119658 0.014817417 0.02819746 -0.009774385 -0.04060437 -0.033098087 -0.0056168083
-0.013691319 -0.018820738 -0.016691405 -0.043616116 0.010231615 0.023090592 -0.03817386 0.024092669
0.013982433 -0.038947985 -0.0024506333 0.0027700495 -0.0219657 0.0065488014 0.01526806 -0.051722765
0.031811304 0.045844197 0.027603872 -0.0005502073 -0.049683142 0.020902133 -0.01205602 0.009825211
0.03071332 -0.012589748 0.031532355 0.04420483 -0.02851918 -0.0019058265 0.0055132387 0.027238946
0.0046921372 -0.051327698 0.0063756267 0.048892107 0.016672198 -0.006803053 0.013749778 -0.03311901
-0.03362176 -0.013902163 -0.0024080365 0.02245051 0.007823816 0.014380807 0.011941078 -0.018426994
0.01787572 -0.014269476 -0.05599239 0.010104713 -0.046384025 -0.011533055 0.017359372 0.024387315
-0.043608148 -0.00913833 -0.016053505 -0.040479705 -0.033445474 0.008342418 0.00619368 -0.0045299074
-0.026200622 -0.013558923 -0.011240935 -0.0019405775 0.033825304 -0.039491516 0.017043907 0.015401061
0.034215324 0.010103251 0.02392971 -0.0036631904 -0.02892942 0.02448778 -0.001035217 0.003442874

bias f4 [128]
00000000: 11ae 003d 7f67 82bc 7b3e 2dbd f65f babc
00000010: 2bb9 a6bc b6fa 1d3c 3e4c c7bc b4c8 84bd
00000020: 25fd 1cbd 290d 2abc 6963 a93c 22d5 04bd
00000030: 3135 f13b 52e5 b53b 2305 fabc d78d 0cbd
00000040: 3db2 4a3c 5876 6ebd 0f9f 91bc d56f 14bd
00000050: 33bb 2bbd bf33 b43c 08c9 e4bc 2512 c43c
00000060: 9309 2bbc be16 fc3b c836 49bd 09f7 b7bc
00000070: 3a00 6d3c 8a0a cb3b 8ce8 18bd e073 ffbb
00000080: 9811 08bc ce79 2c3c 600e a53c c1b5 32bd
00000090: cd96 3bbd fe45 2dbd cb93 31bc 6c90 f1bc
000000a0: a8af cabc 2c8f 303c 0685 aebc 5e1a c3bc
000000b0: ed82 f5bb 2ebf b539 3848 503c e144 2abd
000000c0: 7b93 27bd b6ce 32bd cfe8 26bc 06e4 3dbd
000000d0: 094c 1e3d db98 babc 8f51 833c 309a 6dbd
000000e0: 4e9c 7c3a 6da3 883c 5fd3 8bbc a329 86bd
000000f0: f72a b3bc 862b 0f3c bd98 73bc 49e7 fe3c
00000100: 7c4a bdbc e616 c73c fe04 ecbc f047 04bb
00000110: 8e4a bdbc 6d18 21bd 3a2c 94bc 0042 88bc
00000120: 9299 27bd fdb3 903c 46d7 12bd 2cff 63bd
00000130: 51cc 6cbc 248f 18bd 4802 71bc b694 11bd
00000140: e65b d4bb 1b49 cbbc 8c92 33ba 0a6b 123c
00000150: 2944 0c3c b310 1abc f01a 073d bec7 48bd
00000160: bd5c 36bd 0541 17bd 1a89 06bb 9176 cd3b
00000170: b65a 403c 92be 40bd 53b6 3bbc 1ca2 0bbc
00000180: 5288 eabb 3a83 70bd e603 983c e279 533c
00000190: bdfa 8abc d8f2 59bd 00af 16bd d028 a3bc
000001a0: fc97 b1bc 226e 8fb8 8595 44bd 8e69 18bd
000001b0: 8065 fd3b 9f72 32bd d821 65bc 4ea4 33bd
000001c0: 8726 05bd 3303 3f3c 6cc9 b7bc 453c 0bbd
000001d0: 2ed6 523c 9852 6dbc 1dae 0ebd 38cf e1bb
000001e0: 868d 29bb 202f 8fbc 2cb6 e73b 5198 943c
000001f0: 9e23 2fbd 06fe 04bd 9724 28bd a129 ed3c
0.031416003 -0.015918491 -0.042295914 -0.022750836 -0.020351967 0.009642294 -0.024328347 -0.064835936
-0.038327355 -0.010379114 0.020677285 -0.03242982 0.0073610772 0.0055510188 -0.030520028 -0.034314957
0.012371597 -0.05821833 -0.01777604 -0.036239464 -0.041926574 0.02199733 -0.02792789 0.023934433
-0.010439294 0.007693141 -0.04912451 -0.022456663 0.014465386 0.0061963247 -0.03733115 -0.007795796
-0.008304976 0.010527087 0.020148456 -0.043630365 -0.04579811 -0.042303078 -0.010838459 -0.029487811
-0.024741963 0.010776322 -0.021303665 -0.023816284 -0.007492414 0.0003466545 0.012712531 -0.041569594
-0.040912133 -0.043654166 -0.010187342 -0.04636004 0.03864673 -0.022777965 0.016030101 -0.058008373
0.00096363283 0.01667949 -0.017068563 -0.0655091 -0.021871073 0.008738404 -0.014867959 0.031116145
-0.023106806 0.024302911 -0.028810974 -0.002018448 -0.02310684 -0.039329935 -0.018087495 -0.016633034
-0.04091794 0.01766395 -0.035849832 -0.055663273 -0.01445301 -0.037245885 -0.014710017 -0.035542212
-0.0064806817 -0.024815133 -0.00068501453 0.008936653 0.0085611725 -0.0094033955 0.032984674 -0.049018614
-0.044522036 -0.03692724 -0.0020528496 0.0062702377 0.011740377 -0.047056742 -0.011457044 -0.008522537
-0.007157364 -0.058718897 0.018556546 0.012907477 -0.016965264 -0.05321011 -0.036787987 -0.019916922
-0.021678917 -6.839285e-05 -0.047994155 -0.03721004 0.007733047 -0.043566342 -0.01398512 -0.043857865
-0.032507446 0.011658478 -0.022434913 -0.033993024 0.012868447 -0.014485024 -0.034834016 -0.0068911575
-0.0025871708 -0.017478526 0.007071277 0.018139036 -0.042758577 -0.032468818 -0.04105052 0.028950514

weight f4 [128]
00000000: 2d4a 793f 0867 763f 7706 793f 6a6c 753f
00000010: 04b7 823f 3649 723f 2a72 803f 1da0 833f
00000020: a77e 743f feed 803f df9c 6e3f 781b 793f
00000030: 749c 843f 20f7 723f 3104 793f a788 723f
00000040: d1bf 723f 57c4 813f 4659 833f 4797 753f
00000050: 2033 743f f8ea 7d3f ed51 783f 4e6c 843f
00000060: d8ef 743f a6ff 7e3f 5077 853f b145 823f
00000070: 7447 733f f821 7b3f 230d 7f3f 8aa1 7e3f
00000080: 52eb 723f 559b 7a3f dc57 863f 9e38 753f
00000090: 2086 7b3f 8b82 893f 3a96 773f 8c7c 793f
000000a0: 2c11 7f3f 23bb 753f c6bd 733f be00 7e3f
000000b0: b47a 703f 7641 783f aaa6 823f 35f2 743f
000000c0: cb62 753f f76e 723f fd5b 7d3f e888 863f
000000d0: 57b4 783f 7a22 743f eafd 813f df0b 743f
000000e0: c6cc 833f 6e50 7c3f 1dad 7f3f 842a 7b3f
000000f0: 73bb 7e3f 0d07 743f 4a47 7a3f 14d9 743f
00000100: ee14 813f 04b3 773f 97f7 723f ce71 783f
00000110: d977 7b3f 0334 773f 9e25 813f 3fc4 763f
00000120: 96e7 733f 28be 723f 4b89 853f 0082 843f
00000130: 1ea1 743f 447e 763f 9e2e 753f c5e5 733f
00000140: 5c11 863f c084 723f 1aa2 803f 7787 7b3f
00000150: 9ef8 723f f2d0 773f ce6b 753f 1748 773f
00000160: 20f5 7d3f 2991 783f 5940 773f 3538 793f
00000170: 7253 703f 1cb7 7b3f ab26 773f f38d 733f
00000180: fa31 7c3f f362 7f3f 815c 773f 352d 783f
00000190: 5be5 793f 6149 733f 7a62 863f 9988 7d3f
000001a0: 1713 7a3f c02a 863f 9c38 863f 0587 7d3f
000001b0: b2dc 753f 75a7 773f 5e89 743f 2cd0 703f
000001c0: 6899 843f 8190 823f d451 813f 8c21 823f
000001d0: 2c01 823f 0bb2 773f bd40 7f3f bcf5 813f
000001e0: e43b 833f 28ea 743f 4b3e 833f 586c 703f
000001f0: 3f0e 863f 4cb4 843f d04b 7c3f 4fd2 763f
0.9737881 0.96250963 0.9727549 0.9586855 1.0212102 0.9464296 1.003484 1.0283238
0.95505756 1.007263 0.93208116 0.9730754 1.0360246 0.9490833 0.9727202 0.94739765
0.9482394 1.0138043 1.0261619 0.95933956 0.9539051 0.9918666 0.9700001 1.0345552
0.9567847 0.9960884 1.0427036 1.0177518 0.95030904 0.9809871 0.9962942 0.9946524
0.9489032 0.9789327 1.0495563 0.95789516 0.98251534 1.0742964 0.967136 0.9745567
0.9963558 0.9598867 0.95211446 0.9921988 0.9393723 0.96974885 1.0207112 0.9568208
0.9585387 0.9470057 0.9896849 1.051053 0.97150177 0.9536511 1.0155613 0.95330614
1.0296867 0.98560226 0.99873525 0.9811175 0.99504775 0.9532326 0.9776503 0.95643735
1.0084512 0.9675753 0.9490904 0.9704865 0.9822975 0.9656374 1.0089605 0.963932
0.9527525 0.94821405 1.0432523 1.0352173 0.95558345 0.96286416 0.9577426 0.95272475
1.0474048 0.9473381 1.004947 0.9825358 0.9491061 0.968032 0.9586762 0.96594375
0.99202156 0.97096497 0.9658256 0.9735139 0.9387733 0.9832628 0.9654338 0.9513847
0.9851376 0.9976036 0.96625525 0.9694398 0.97615594 0.9503384 1.0498803 0.99036556
0.9768538 1.0481796 1.0486026 0.9903415 0.9603988 0.96739894 0.95522106 0.94067645
1.0359316 1.0200349 1.0103097 1.0166488 1.0156608 0.96756047 0.9970816 1.0153117
1.0252652 0.95669794 1.0253385 0.9391532 1.0473098 1.0367522 0.9855318 0.96414655

bias f4 [128]
00000000: a5bb 6dbd 6dca 373e 8484 babd 8cb6 29bd
00000010: e9cc 073d 115f fa3d 153e 153e 36af a73d
00000020: ec93 c03d e6ce 263e df56 5a3d ae57 ab3c
00000030: 0db6 e73d 3582 323e 5ce0 933b 32b2 15bd
00000040: 080f 693e f9f3 2cbd af66 f73d 7569 053e
00000050: 5aef f23d cc4b 573d 3f83 083c 7a1e e03d
00000060: f7b4 02bc eb66 21bd 22ab f43d 6936 a0bc
00000070: e850 e03d 97ae 2a3e f76f b93d 096b bc3c
00000080: f02c 2e3e 518c 1fbd 257f c43d fa8f 7dbd
00000090: 641e c93d cc4e 153e 587d acbc 9513 be3d
000000a0: 44e2 803d a09f 413c 1af8 123e f1ce a83d
000000b0: 88a9 fb3b 5152 64bd 2c32 0e3d ef82 043e
000000c0: 7c0b fabd bfc2 9ebd 7ac7 053d bde2 7f3c
000000d0: 9cc6 1a3e c5e8 51bd cf2a 1a3e af97 2d3c
000000e0: 0692 513c 71a5 233c 36b6 683d 8734 ccbc
000000f0: f70a 393e ace4 933c 89d6 823d 837f 8dbd
00000100: e484 7bbd ebf2 8bbc ac5d d43d 2a03 ee3d
00000110: 08f6 ea3d f878 dcbd 561b ae3d 48cd cc3d
00000120: 5de2 22be 7815 4a3c 3ee6 8a3d 2cc8 613d
00000130: 497f d63d 0ace 473e 0670 e03d a5c5 583e
00000140: 7e0e 973d 5eec 3bbc 03ee 943b a972 c5bd
00000150: 30a6 a3bd 12e0 063e 745d 2d3d ca8c 0a3e
00000160: ced8 6abd 40cf a23d 0c34 cdbd 7f91 143e
00000170: 3ae4 8b3d 5db9 463c c4e6 293e 1a1c 83bd
00000180: 4290 d83d d5fe fa3d a564 e93d f480 22bd
00000190: bee7 37bc e67b 98bd 1811 ad3d 0214 ee3d
000001a0: 6dec 2f3e 4e0e cf3d e0b0 003e 2e28 4a3e
000001b0: 67ab f73d d4dd ed3d ae01 31bd 3784 b83d
000001c0: e141 aa3b cc3b 73ba 3c53 353e 0a14 ba3c
000001d0: c25d 92bd 0bea 723e 8250 bb3c 6612 82bb
000001e0: a6bc 563d a241 88bd 2e89 4e3d c4db b03d
000001f0: 6934 993d 611d af3b b145 253d 0c4f 0d3d
-0.05804028 0.17948313 -0.091073066 -0.041433856 0.033154402 0.12225164 0.14574464 0.08187716
0.09403214 0.16289863 0.053305503 0.020915832 0.1131402 0.17432483 0.0045128297 -0.036546893
0.2275964 -0.042224858 0.12080132 0.1302851 0.11862059 0.05256252 0.008332073 0.10943313
-0.007977716 -0.03940479 0.119467035 -0.019557195 0.10952932 0.16668163 0.09054559 0.023000257
0.1700933 -0.038952176 0.095945634 -0.061904885 0.0982025 0.1458084 -0.021055862 0.09281079
0.06293157 0.011817843 0.14352456 0.08242596 0.007680122 -0.055742566 0.034715816 0.12940572
-0.12209222 -0.077519886 0.03266094 0.015618023 0.15114826 -0.051247377 0.15055393 0.010595246
0.012791162 0.009988175 0.056814395 -0.02492739 0.18070589 0.018053375 0.063885756 -0.069090866
-0.06140603 -0.017083606 0.10369429 0.11621697 0.11472708 -0.107652605 0.08501308 0.10000092
-0.15906663 0.01233422 0.067821965 0.05512254 0.104734965 0.19512191 0.10958867 0.21169145
0.07375811 -0.011469929 0.004544975 -0.0964101 -0.07990682 0.13171414 0.042325452 0.1353027
-0.057335667 0.07949686 -0.10019693 0.14508627 0.0683064 0.012129155 0.16591936 -0.06401844
0.1057439 0.122556366 0.113961495 -0.03967376 -0.011224685 -0.07445507 0.08450526 0.1162491
0.17180033 0.1011015 0.12567472 0.1974189 0.12093239 0.11614576 -0.043214492 0.09009593
0.0051958417 -0.0009278625 0.17707533 0.022714633 -0.07146789 0.23722093 0.022865538 -0.0039694784
0.052426003 -0.066531435 0.050423793 0.08635667 0.074806996 0.0053440784 0.040349666 0.034499213

running_mean f4 [128]
00000000: 2b86 1e3e ddd5 c43d f1a0 023e 95cd 273e
00000010: 62e7 0f3d 1ef1 fe3d e5af cc3d c718 d43c
00000020: 6e1a 5d3e 6e11 eb3d 64cb 133e 73e5 e43e
00000030: 1cca d63d d86a 843e 633b 5e3d f462 a83d
00000040: 1682 163e 7dfd 623d 6320 103e 35eb eb3d
00000050: 5a5e 2f3e e348 173e 9645 543e 8a30 473e
00000060: 0609 9a3d ae23 263e 9756 803d 5c89 d63d
00000070: 432a ee3d 7c93 b43d b393 bf3d 45a0 c23d
00000080: 9406 433e eac2 1e3e 26da 0f3e 2cf4 613e
00000090: 350b bc3d 44f0 bd3d cb55 163e 1bde a43d
000000a0: ab03 df3d b638 153e 9320 093e a237 773d
000000b0: bfa9 103e 055e 843e d5b6 1b3e e362 8a3d
000000c0: 6a5e 923d 35d7 953d 9ec5 033e cf1d 6a3d
000000d0: 1a89 be3e 7256 283e b1ee 0e3e 52ed 003d
000000e0: a2a0 0e3e 7eff d93d 1e79 e03d 78a2 e93d
000000f0: af78 f43d 6c85 783e b646 363e b3a8 023e
00000100: abc7 853d 9e00 de3d 63ec 233e 3db5 713e
00000110: c872 943d 208e 493e 7cf7 223e 85df 6d3e
00000120: e905 1e3e 3128 163e 9402 383d 9a8c d63c
00000130: 4fce 823e 55bc 0d3e 4de0 033e dadd 043e
00000140: 6919 223d 0750 933d ed5c bc3d 0a0f b73d
00000150: 3f70 4d3e 408f ef3d 1b58 0c3e 29e3 663e
00000160: 0ea0 973d a43b 563e 670a b53d 2a71 b23e
00000170: 766b f63d 5707 d33d 0e8f 263e c09f f63d
00000180: ddf4 bb3d 5f28 703d d523 3e3e 99a3 533e
00000190: 968e 403e 420d 863d 22f2 d03d 0e42 0e3e
000001a0: bfe8 b63d 6fd0 dd3d c8a0 e23c 3a5d 683d
000001b0: fd8e 143e a080 c33d 01c2 013e 2483 353e
000001c0: 7add cc3d 251a 133e 6be4 8b3d 9b4e 633d
000001d0: 29f4 c73d 1d13 2f3d 40fe 633d 370e 423d
000001e0: db15 033e 8903 193e b5da 163e dc98 183e
000001f0: 537b 663d 8030 fe3d b5d7 5e3d b472 4d3e
0.15480869 0.09611104 0.12756707 0.16387017 0.035132773 0.12448333 0.09994487 0.025890721
0.21592113 0.11477934 0.14433056 0.44706306 0.10487768 0.25862765 0.054255854 0.08221999
0.14698061 0.055417527 0.14074855 0.115194716 0.17125836 0.14773898 0.2072967 0.1945211
0.07521252 0.16224548 0.06266516 0.10475418 0.116291545 0.08817193 0.09354343 0.09503225
0.19045478 0.15504041 0.14048061 0.220658 0.09181825 0.09274343 0.14681165 0.08050176
0.108893715 0.14572415 0.13391332 0.06035579 0.14127253 0.2585298 0.15206464 0.067571424
0.07146914 0.07316438 0.12868354 0.057157334 0.37213975 0.16439226 0.13958241 0.031476326
0.13928464 0.106444344 0.10960601 0.114079416 0.11937081 0.24269646 0.17800412 0.12759666
0.06532224 0.108399615 0.16008143 0.23604293 0.07248455 0.19683123 0.1591472 0.23229797
0.15431942 0.1466377 0.044924334 0.02619009 0.25548026 0.13841374 0.12878533 0.12975255
0.039575014 0.071929984 0.09197412 0.08938415 0.2006235 0.11697245 0.13705485 0.22547592
0.07403575 0.20921189 0.08839875 0.34851962 0.12032215 0.10304134 0.16265509 0.12042189
0.09177563 0.05863225 0.18568356 0.20667876 0.18804392 0.065454975 0.10202433 0.13892385
0.089311115 0.10830771 0.027664557 0.056729533 0.1450767 0.09546018 0.12671663 0.17725807
0.10003181 0.14365442 0.06830677 0.055494886 0.09763367 0.042742837 0.055662394 0.047376838
0.12801306 0.14942755 0.14731868 0.14902061 0.056269955 0.124115944 0.054404933 0.20063287

running_var f4 [128]
00000000: a225 813d 51ed 8f3d b4c9 8d3d eb81 2e3e
00000010: 1343 a13c 2af4 853e 7562 ea3d 22e8 423c
00000020: 1b0c a23e 2729 e93d 21a0 483e 67b8 203f
00000030: c69e d03d 0a6c d13e a8a0 803d 85cf b13d
00000040: fb55 4c3e b49c 5e3d 16f3 2f3e 04a6 183e
00000050: 97cf 783e 3da8 5e3d b336 8e3e e49b 9e3e
00000060: 3b19 b13d 1484 683d 5d2a 4e3d 82b5 bf3d
00000070: 6ddf 223e d66b aa3d ff04 db3d 1bb8 8c3d
00000080: e66f a83e 7789 9b3d 29f3 143e 47be da3e
00000090: adf8 6b3d 99ce bb3d 561e 473e cbaa 5e3d
000000a0: bfc0 fc3c 85de 173e 4d06 1d3e 1d85 ae3c
000000b0: 56a6 ad3e 6ea9 563e 5e28 203e e700 9b3d
000000c0: 636d 893d 56e2 be3d b2d2 113e d893 373d
000000d0: be19 843e 6d05 753e 9293 523e 4fa2 463d
000000e0: 4b99 173e 3b70 b13d 913e 893d cd37 bb3d
000000f0: 7ce2 cf3d 9df7 723e dd23 3b3e 6e01 653e
00000100: 3d0d 253d 95d8 013e 6d63 e63d e2a1 463e
00000110: f9cc a63d 8e18 163e 6b4f 503e ab98 b53e
00000120: b7df 983e 226c 283e b3f3 ef3c 531f 5d3c
00000130: f709 0b3f 9bf7 cf3e eda3 033e 8043 133e
00000140: 9680 993c 0fdf ad3d 8a73 de3d 933d 9c3d
00000150: f405 2d3e 66f1 843e 0a89 253e abce e93e
00000160: 76a3 b93d bd1c 5f3e d6b6 143d ae15 6a3e
00000170: e62a 4c3e 92c5 bc3d 5b2b 243e 6ade 9e3e
00000180: 3cef ad3d e50f 373d c2c3 9a3e 7bec 3b3e
00000190: 320b bb3d 34a3 653d 1941 bd3d b22f 0f3e
000001a0: 9aaf d33d 40eb dc3d fc69 e53c 47f0 333d
000001b0: 4f31 413e de55 c43d 6ee1 193e 91f9 7d3e
000001c0: bf99 c43d 26b1 203e d65a 683d 2a5a 223d
000001d0: c3da be3d 1877 2c3d c8b9 d13c 8eac fa3c
000001e0: bcfa 4f3d 7b99 763d 9b89 323e 9505 fe3d
000001f0: fd91 203d 58a4 fa3d 3bf6 663c 1ce9 9b3e
0.06306006 0.070276864 0.069232374 0.17041747 0.019685304 0.26162845 0.114445604 0.011896165
0.3164986 0.11384802 0.19592334 0.62781376 0.10186534 0.4090274 0.06280643 0.08682159
0.19954674 0.054348662 0.17182574 0.1490708 0.24297939 0.054359663 0.27776107 0.3097831
0.086473905 0.056766585 0.05033337 0.09360792 0.15905543 0.08321349 0.10694312 0.06871053
0.32897872 0.07594579 0.14545883 0.42723295 0.057610203 0.09170265 0.19445166 0.0543621
0.030853627 0.14830978 0.15334435 0.021303708 0.33915967 0.2096307 0.15640399 0.075685315
0.06710317 0.09320514 0.1424053 0.04481873 0.2580089 0.23927851 0.20564106 0.048494633
0.1480457 0.086639844 0.06701387 0.091415025 0.1015062 0.2372727 0.182754 0.22363827
0.040295828 0.12680276 0.11249433 0.19397691 0.08144564 0.14657804 0.20342796 0.3546804
0.2985818 0.164475 0.02929101 0.013496238 0.5431208 0.40618595 0.12855501 0.14381218
0.018738072 0.08489811 0.10861881 0.07628932 0.16896802 0.25965422 0.16165558 0.45665488
0.09064381 0.21788307 0.03630718 0.22859833 0.1993824 0.09217371 0.16032164 0.31029063
0.08492896 0.044692893 0.30227476 0.18351929 0.09132995 0.056063846 0.09240932 0.13983038
0.10336228 0.10787058 0.028004639 0.04393032 0.18866466 0.0958669 0.15027401 0.24802233
0.09599637 0.15692577 0.056727253 0.03963677 0.09319069 0.042105764 0.025601283 0.030599859
0.05077623 0.060204964 0.17435305 0.124034084 0.039201725 0.12238377 0.014096792 0.30451286

weight f4 [64, 128, 9]
00000000: 444d 9abc 704e 00bc 426f 473c 075b e4bc
00000010: 3553 bebc 2537 b2bc 7bbc 92bc 1a67 b9bc
00000020: 201f 713c ff8f 103b 9a38 1639 6520 bc3c
00000030: d002 7a3c dbad fc3c ebdc b6bc 06bf 66bc
00000040: cf47 f6bc 7f40 8a3c 3dc2 b73c c48d 58bb
00000050: bf48 e73b 4ad0 8a3c 4949 f7bb d567 c9ba
00000060: 1fdb e3bb 56ad 16bb c1b0 273c e612 e83c
00000070: f4a1 6f3c 56e9 e0bb c036 413c 63f3 97bc
00000080: 2f46 30bb 60ed fabb acd7 18bc e848 debc
00000090: 6f79 f03c 8f47 f73c ed41 af3b bd03 74bc
000000a0: 5999 f2bb b53b c1bb 076c e33c 2636 adbb
000000b0: 870a 1abd 1037 b23c f6ef abbc b4a2 2dbc
000000c0: 63cd 77bb bb5f 4abc 32c9 f43b a122 a3b9
000000d0: 860f b7bc 8005 8d3b 2f62 ef3c 4084 6bbc
000000e0: 7ad5 b83b 76b0 d63b fb6f aa3b 940c 79bc
000000f0: fc38 5f3c f5c1 59bc 78f8 0e3c 970c e23c
00000100: a5ba 383d 51aa 153d ab41 163b e721 5d3b
00000110: e173 85bc b561 0bbb 7559 823b ab23 f3bc
00000120: 2b99 f23c 2d74 5a3b bf1b bf3c 7229 d73b
00000130: debb 22bb ab3a 65bc 32dd 933b bc49 87bb
00000140: 5191 54bc 46f9 b4bc e910 0b3d 04ad 703b
00000150: 9aed b23b 7b5a 66bc 9327 85bc 215d 07bd
00000160: 69fd b4bb 7cae c5bc 9173 d03c 260d 8d3c
00000170: 01d2 e73c debe a7bc 14ac 58bc d071 81bc
00000180: 2c77 373c b7d0 bfbc cfca 94bc 319e e8bb
00000190: 4cbe 92bc 9bb7 b4bc a64f 40bc 3af2 7f3c
000001a0: e976 953c f325 463c 60a0 0d3c 2cc4 6e3b
000001b0: ae95 593b b774 e23c 297e a4bc b4d4 33bb
000001c0: ede6 a7bd 5da9 14bd be45 2fbd 9c8c 2abd
000001d0: 21c1 c2bc 781c abbc dc47 c1bc 2d6d c33c
000001e0: ea7a e53b 2c34 dabb 1c35 d43b 31fe b43c
000001f0: 0635 71bc f7c1 ccbc b6fd d8bb dfa7 ca3c
00000200: 3771 eabc 6ecd 23bc 5411 8f3b edef 543c
00000210: 72b7 54bb 6f3b a0bb aa3d 7c3c 0d84 f03c
00000220: a384 b9bc e478 f23c 8df5 90bc eacc a3bc
00000230: 709a d73c 024f f7bc 5137 533c b912 9d3a
00000240: 6ddd 22bc bedb d03c 3436 07bc 73f0 403c
00000250: 74fd b3bc b1ed 36bc f3c8 2bbb 701f b7bc
00000260: f420 13bb 0ed3 b73c d785 d83a b747 293d
00000270: 4520 cfbc 1762 973c 4795 78bb 4793 583c
00000280: 2e02 9d3c b136 9738 1777 853b 9728 61bc
00000290: 8fc4 77bc 0f5b 4a3c 4008 75bc 154e 4abd
000002a0: 4def 5bbc d0bb 29bd 0d2c 2dbc c896 2f3c
000002b0: cc3e a6bb 3cdc 823c 5889 ef3c 1f0f b03c
000002c0: 6fcf c5bc eacb 99bb 9955 92bc 6978 b4bc
000002d0: d397 0b3c e559 333b 5691 65bc 0d75 c9bc
000002e0: fce4 4cbc 0417 44bc 0c77 28bb 2f7b 3b3c
000002f0: 34c5 4a3b 91e2 9fbc 2646 4dbc 1e66 803c
00000300: dc52 063c e7ea 1c3d 9abf 0c3d b71c 873c
00000310: 8472 f93c 29ee 9abc 4f25 073c eca1 ee3c
00000320: 2f90 6e3c f091 933c c8cb 463a 194d a33c
00000330: 5b67 473b 4dc1 c83c ae60 1dbb 088e 1dbd
00000340: 83f9 02bd ff5c 22bc 48fe 4fbd 8cc2 9bbc
00000350: 92e7 3ebd e766 a2bd c035 2bbd d502 39bd
00000360: 8dca f139 f29d 993b 6e75 d43b 2c48 f33c
00000370: 5d1e 70bb 77db afbc ca03 a23c 8098 19bc
00000380: 00cb c4bc dd82 ec3b 6470 56bc dba1 85bc
00000390: 70f4 7d3a f3a4 023d 333d a4bc 1fc2 d33b
000003a0: fad4 3d3c 7da2 fdbc f521 e73c 9407 bbbc
000003b0: ba11 80bc c238 6d3c df4a 37bd 7654 373b
000003c0: 1dcd d4bc 1554 36bd 78d3 17bc 6bec bebb
000003d0: 79aa 56bb b7ad 6f3c 715e ccbb 79cd 433d
000003e0: 9888 d73c dab5 933c ec4d 1a3d 3ce0 88bc
000003f0: f16e e93c 53f1 0d3b 4111 d4bc 162e 80bc
-0.018835671 -0.007831201 0.012172522 -0.027875436 -0.023233036 -0.02175481 -0.01791214 -0.02263217
0.014716893 0.0022058485 0.000143262 0.022964666 0.01525946 0.03084462 -0.022322139 -0.0140836295
-0.030063538 0.016876457 0.022431487 -0.0033043483 0.0070582326 0.016945023 -0.007546578 -0.0015366027
-0.0069536115 -0.00229915 0.0102350125 0.028329324 0.014626015 -0.0068637533 0.011792839 -0.018548673
-0.0026897301 -0.007657692 -0.009328764 -0.027134374 0.029354779 0.030185489 0.005348435 -0.014893469
-0.0074035344 -0.00589701 0.027761472 -0.005285996 -0.037607696 0.021754771 -0.020988446 -0.0105978735
-0.003781163 -0.0123519255 0.0074702734 -0.00031115583 -0.02234627 0.004303634 0.029221622 -0.014374793
0.0056406828 0.0065517975 0.0052013374 -0.015200753 0.013624426 -0.013290872 0.008726232 0.027593894
0.045099873 0.03653938 0.0022927325 0.0033742131 -0.016290607 -0.0021267955 0.0039779493 -0.029680094
0.029614052 0.0033333406 0.02332866 0.00656622 -0.0024831216 -0.013991038 0.0045124525 -0.004128663
-0.012974099 -0.02209152 0.033951674 0.003672422 0.005460453 -0.014059658 -0.016254222 -0.0330478
-0.005523373 -0.024131052 0.025445731 0.017218184 0.02829838 -0.020476755 -0.01322462 -0.01580134
0.011197846 -0.023414953 -0.018163113 -0.007098936 -0.017913006 -0.022060206 -0.01173774 0.015621716
0.018245177 0.012094009 0.008644193 0.0036432846 0.0033200788 0.027643545 -0.02007969 -0.0027440013
-0.081983425 -0.03629433 -0.04279112 -0.041638 -0.023773732 -0.020887598 -0.023593836 0.02385577
0.007003178 -0.0066590514 0.0064760577 0.022093864 -0.014722114 -0.024994833 -0.0066220416 0.02473825
-0.028618438 -0.009997709 0.0043660793 0.012996656 -0.0032457975 -0.0048898975 0.015395561 0.029359842
-0.022646254 0.02959866 -0.017695213 -0.019995172 0.026318759 -0.030189041 0.012891606 0.0011983729
-0.009940487 0.025495406 -0.008252669 0.011776078 -0.021971442 -0.0111650685 -0.0026212304 -0.022353858
-0.0022450062 0.022439506 0.001651938 0.04132816 -0.025283942 0.01847939 -0.0037930773 0.013218707
0.019166078 7.210428e-05 0.0040730345 -0.0137425875 -0.015122547 0.012350812 -0.01495558 -0.04939087
-0.013423753 -0.041438878 -0.010569585 0.010717101 -0.005073404 0.015974157 0.029240295 0.021491585
-0.024146764 -0.004693498 -0.017863082 -0.022030072 0.008520084 0.0027366814 -0.014011702 -0.024591947
-0.012505766 -0.011968378 -0.0025705723 0.0114429435 0.0030940296 -0.019517215 -0.012528932 0.015673693
0.008198466 0.038309958 0.034362413 0.016493184 0.030450113 -0.018912392 0.008248641 0.029129945
0.014560743 0.018013924 0.00075834664 0.019934224 0.0030426595 0.024506235 -0.0024013924 -0.03846553
-0.031976234 -0.009909867 -0.05077961 -0.019013666 -0.04660756 -0.07929783 -0.041799307 -0.045168716
0.00046118014 0.004688018 0.0064837253 0.0296975 -0.0036639192 -0.021466954 0.019777197 -0.009374738
-0.02402258 0.0072177486 -0.013088319 -0.01631253 0.0009687608 0.03189559 -0.020048713 0.00646235
0.011586422 -0.03096127 0.028214434 -0.022830762 -0.015633453 0.014478864 -0.044749137 0.0027973927
-0.025976712 -0.04451378 -0.009266727 -0.005826523 -0.0032755418 0.014628819 -0.006236844 0.047803376
0.02631025 0.01803105 0.03767197 -0.016708486 0.028495284 0.0021658733 -0.025887134 -0.015646975

bias f4 [64]
00000000: ff4e 3abd d14d 9abd 26ac cabd f55c 83bd
00000010: e143 d4bc d6c8 00bd d818 8fbd 5536 b2bd
00000020: a061 b4bd 2333 2abd 9260 70bd d733 8abd
00000030: bbe1 b2bc 2913 5ebc ce60 dbbd 429e 99bd
00000040: dd6d fabc f0d2 aabd 6f4e 77bd 22eb b9bd
00000050: be87 7ebd 48fc b7bd aa12 01bc d320 03bd
00000060: 2af6 2bbd 97c2 46bd 76a3 1ebd 5ff4 18bd
00000070: be56 22bd e00a 87bd e560 c5bc 3802 19bd
00000080: 4d5f d2bc bae8 94bc f6c0 c3bd a896 d9bc
00000090: 42cc 62bd 7a01 68bd 6acc 4bbd 6f51 86bd
000000a0: c269 74bd 4097 28bd 54b6 a6bd dd1c 52bd
000000b0: 6b63 3ebd ac3b 46bd 16c3 80bd de8d cabd
000000c0: 65d2 66bd d76a 0dbd faa4 57bd c46f 6cbd
000000d0: da4d 85bd 4c2e b8bd b52d 7abd 8d03 68bd
000000e0: a734 70bd a139 87bd e148 3cbd 36b0 8fbd
000000f0: c664 7abc 77a2 5ebd c7eb 38bd ff9b 27bd
-0.045485493 -0.075343736 -0.09896116 -0.064142145 -0.025911273 -0.031441532 -0.069871604 -0.08701769
-0.08807683 -0.041552674 -0.058685847 -0.06748169 -0.021836152 -0.013554373 -0.107118234 -0.075008884
-0.030569965 -0.083410144 -0.060377534 -0.09078051 -0.062141173 -0.08983666 -0.007877985 -0.032013725
-0.041982807 -0.04852542 -0.038730107 -0.037342425 -0.039633505 -0.06593871 -0.024094054 -0.03735563
-0.025680209 -0.018177379 -0.09558289 -0.026561096 -0.055370577 -0.056642033 -0.04975549 -0.06558501
-0.05967117 -0.04115987 -0.08140245 -0.051297057 -0.04648153 -0.04839675 -0.0628721 -0.0989034
-0.05635299 -0.03452572 -0.05264757 -0.057723776 -0.0650899 -0.089932054 -0.061078746 -0.05664401
-0.058643963 -0.06602789 -0.04596794 -0.070160314 -0.015282815 -0.054354157 -0.04514673 -0.040920254

weight f4 [64]
00000000: 0962 803f 3551 8a3f 152c 823f e6b4 833f
00000010: e7ac 833f c34a 823f ad59 873f 5fa0 8f3f
00000020: ddf1 813f 6b76 853f 4dd3 7f3f 650c 823f
00000030: 5c96 813f 3a54 833f f161 833f 6a9a 883f
00000040: 29db 843f 5ec6 853f 9624 833f 46c1 8b3f
00000050: 62d2 823f f779 843f 9840 7b3f 0ed3 853f
00000060: 6190 883f 4baf 853f f173 813f 0574 7e3f
00000070: 7a79 873f 64fb 873f fc63 833f dc5d 843f
00000080: 434b 843f 6217 7f3f 80e1 853f 5d5c 853f
00000090: 7a1f 883f 1d2f 8a3f 95e5 833f ddb9 843f
000000a0: ec06 893f fede 823f a240 833f e3fa 823f
000000b0: a077 863f c476 813f 6255 843f 1f07 8d3f
000000c0: 3814 853f 91cd 863f 7b4e 813f 1842 853f
000000d0: aedf 863f c360 853f 524b 843f 4912 843f
000000e0: dcf3 873f aec6 853f 1e50 853f 3c4b 8b3f
000000f0: 67e3 863f db51 7c3f e89d 883f b678 823f
1.0029918 1.0806032 1.0169703 1.0289581 1.0287141 1.0179065 1.0574242 1.1220816
1.0151936 1.0426763 0.99931794 1.0160033 1.0124011 1.0260079 1.0264264 1.0672123
1.0379382 1.0451162 1.024554 1.0918357 1.0220454 1.0349721 0.9814544 1.0455034
1.0669061 1.044412 1.0113508 0.9939578 1.0583947 1.0623593 1.0264888 1.0341144
1.0335468 0.99645054 1.0459442 1.0418812 1.0634606 1.0795628 1.0304438 1.0369221
1.0705237 1.0224302 1.0254099 1.0232815 1.0505257 1.0114369 1.0338557 1.1017798
1.0396795 1.0531484 1.0102075 1.0410795 1.0537012 1.0420154 1.0335486 1.031808
1.0621295 1.0451257 1.0415075 1.0882335 1.0538148 0.985624 1.0673189 1.0193088

bias f4 [64]
00000000: 2347 abbd 06a0 dfbd 1ec9 003d ed2f 633d
00000010: 0c78 fdbd 1a99 84bd 19f3 cfbd 1a27 ffbd
00000020: 21c7 cc3d 0ebc 95bd 1ae8 73bd a2a5 fb3d
00000030: acda f73d 233f 45bd 12e9 0c3e d2e9 ca3d
00000040: 0ecd b93d e09a 333e ebde 613c 429a 073e
00000050: 7d7a f1bd 4315 f93d 1749 33be c468 283e
00000060: b6a4 213e f790 8bbd 2b3a 94bd bc13 22be
00000070: 76a3 b83d b2c0 80bd 440e b1bd e506 3f3e
00000080: 18cd b03d 5ea5 48bd d0b6 12be 6eb8 a43b
00000090: 777e 08be 2412 9fbc 364b 80bd 05fd 0abd
000000a0: 242f dcbc ba41 27be 4ae5 2a3e a716 73bd
000000b0: 3a9e e63d 0304 64bd be14 223e 8ceb f7bd
000000c0: c7d4 2b3e 8901 e13d 8998 2c3e 37e7 bbbd
000000d0: ceb2 03be 634d ddbd 28f0 323b dc39 0ebe
000000e0: aaa6 233e 32c9 513d 4ffd a03c 2278 cabd
000000f0: a846 a93d a8ea 0ebe 5e3f a93d 9424 dcbd
-0.083631776 -0.10919194 0.0314418 0.055465627 -0.12376413 -0.06474514 -0.10153789 -0.1245863
0.09998918 -0.07311259 -0.05954752 0.12287451 0.12102255 -0.048155915 0.13760784 0.09907879
0.09072314 0.17539549 0.013786058 0.13242438 -0.11790941 0.121622585 -0.1750835 0.16446215
0.15785488 -0.06814759 -0.07237657 -0.1582784 0.09015553 -0.06286754 -0.08645299 0.18654974
0.086328685 -0.04898583 -0.1432755 0.0050268685 -0.13329493 -0.01941783 -0.06264345 -0.033932704
-0.026877947 -0.16333666 0.1668903 -0.059347775 0.11260648 -0.05566789 0.15828225 -0.12105474
0.16780387 0.10986621 0.16855063 -0.0917496 -0.12861177 -0.10805776 0.0027303789 -0.13889259
0.15981546 0.051217265 0.019652037 -0.09886195 0.0826543 -0.13956702 0.082640395 -0.10749164

running_mean f4 [64]
00000000: 6420 5d3e fcfe 273d 8d58 e13d 088c a43d
00000010: fd02 113e 1ed9 d63d b621 1c3c 6c63 ba3c
00000020: 94a9 7a3e 5aa6 dd3d 38cc 853c 4747 b53d
00000030: 07f2 a03d c4f5 843e a6f8 1d3e a4e8 223d
00000040: af23 2f3e 2968 ab3d 1ca0 803d 6a1e 8f3c
00000050: 83fa 463d d52b 293e 48b5 a23e 9ccd e13d
00000060: eb08 203d c43e a03d 44ed 1d3e 1284 853e
00000070: d0e5 553d 5691 a53d ee9e aa3d 23a8 b73d
00000080: da95 8d3d 8e77 443e 7293 0d3d 0ad0 a53d
00000090: 7917 2a3d d2ac d13d f2d7 a83d 4b94 373d
000000a0: e95e db3d 062a 093d 129b 5a3d b037 0b3d
000000b0: 1536 533d 94e3 813d e3df 973d b700 fb3c
000000c0: f903 e13d 874a 6e3d 8d61 583e 0abd 023e
000000d0: 8d02 e23b 9ffe 663d 31f5 363d 4a35 ac3d
000000e0: cca4 be3c 87f0 c63c 8bb3 2e3e c021 873c
000000f0: 6d66 103e 21b2 933e 9485 173d be95 803d
0.21594387 0.041014656 0.11003218 0.08034521 0.14161296 0.104906306 0.009529522 0.022752486
0.24478751 0.10822745 0.01633273 0.08851486 0.07858663 0.25968754 0.15426883 0.039772645
0.17103456 0.08369476 0.062805384 0.017470557 0.04857875 0.16520627 0.31778932 0.11025545
0.039071005 0.078244716 0.15422541 0.26077324 0.05222112 0.08084361 0.08331095 0.089676164
0.069133475 0.19186231 0.034564443 0.08096321 0.04152629 0.10238041 0.08244313 0.044819158
0.10711462 0.033487342 0.053370543 0.033988655 0.05156525 0.06342235 0.0741575 0.03063999
0.10987086 0.058176544 0.21130963 0.12767425 0.0068972767 0.05639517 0.044667426 0.084086016
0.02327194 0.024284614 0.17060678 0.016495585 0.14101572 0.2884684 0.036992624 0.06278561

running_var f4 [64]
00000000: a87e 8f3d f8ac f53c 8cce 673d a98a 693d
00000010: e5e6 d03d aa56 3b3d bc4e 943b 3e00 413c
00000020: abbd bd3d a639 9c3d 8ef5 f43b 47b0 e03c
00000030: 9bfe 323d 311d a93d 1ca2 363d b02e 543c
00000040: 6aea aa3d 374c ca3c 7d4b 2e3d e11e e93b
00000050: 3050 173c 5087 7d3d 643a ea3d 7475 333d
00000060: 115b 713c b15b 4f3d 33a9 283d 3c03 963e
00000070: 1193 b13c 11b4 833d 1fae b63c 3be5 183d
00000080: 4cf3 263d 6a27 b53d 6372 df3c 4929 273d
00000090: 60d6 c33c 2504 433d a0f4 963c ad8f 543c
000000a0: f4cb 393d 96b2 a23c 3a5f 343d e3bd 673c
000000b0: 90f4 a73c 8101 4c3c be0f 963c 3ff0 593c
000000c0: cc4c 0b3d afb8 3d3d 1b50 cf3d 0295 353d
000000d0: 6bc5 443b f13d a53c 58e9 f93b f29c 823d
000000e0: 6aef 0a3c 0e19 0c3c e4ca 743d 4447 0d3c
000000f0: aa99 123e 6279 c13d 04d4 c63c 27e0 983c
0.0700658 0.029989704 0.056593463 0.057017002 0.1020029 0.045736946 0.0045259874 0.011779843
0.09264692 0.07628183 0.0074755615 0.027427806 0.043699842 0.08257521 0.044588193 0.012950584
0.08345492 0.024694545 0.04255246 0.0071142768 0.009235427 0.061896622 0.114369184 0.043813184
0.014731185 0.050624553 0.041176986 0.29299343 0.021676572 0.06430829 0.022299824 0.037327986
0.04075937 0.08845408 0.027276224 0.040810857 0.023905933 0.047611374 0.018427193 0.012973708
0.04536052 0.019860547 0.044036128 0.014144394 0.020502359 0.01245153 0.018318053 0.013301908
0.034008786 0.046318706 0.10122701 0.044331558 0.0030024897 0.020171138 0.0076266937 0.06377591
0.008479932 0.008550895 0.059763804 0.008622948 0.1431643 0.0944698 0.024271019 0.018661572
