checkpoints/cnn1d/cnn1d.twentyfour.pt (torch, 671236 bytes, 20 tensors)

weight f4 [64, 1, 9]
00000000: a764 a83d ebee 1f3e 5a11 f13d 2231 223e
00000010: 4c32 a83e f45c 9bbe 1198 403e b7be d63d
00000020: 0fb3 a3be 074f f1bd d378 533e 10ea 52bc
00000030: f304 353e 81ab 1f3e de78 a2bb f747 21be
00000040: 04c9 383d 471b 94be 288f 9b3e 2712 97bd
00000050: 50ae ebbd f769 9e3e 6765 4e3c 70c4 a5be
00000060: 5c20 87be 787b 173e 8443 243e f655 453e
00000070: a6a3 52be 78c3 6dbe d58b 9d3e f667 183e
00000080: 5658 25be 88d1 0c3d 4068 343d 50f6 9dbe
00000090: b296 3abe de55 b1bd 381e 213e f856 be3d
000000a0: 9095 763e 4aea 0b3d 6efc 9c3e 09dd 1ebe
000000b0: 453d 49bb 0151 0ebd fbaf 9f3e 6ff8 c53d
000000c0: 513b 0a3e 29b7 953e 91ab 46be 909b 96be
000000d0: d2ff 78be db12 51be 13d8 09be 66f1 a3be
000000e0: b33b 88be aaa9 a5be fef7 2fbe e88c 42bd
000000f0: 8251 023e 9857 7cbd e002 3f3c b487 15be
00000100: 307c 113e 7910 353e caa7 8cbc 1303 623e
00000110: a37e ecbd 58bc 39bd 04c4 24be f905 0f3e
00000120: a929 8e3e 7ed5 963e 19df 73be 5d73 2d3e
00000130: f69d 583e 4274 8a3d 563b 113e 28a6 973e
00000140: 1599 9abe ec0f b9bd 63d6 963e 063c 333e
00000150: 0ea8 06be f670 90be 1baf 9ebe e031 0ebd
00000160: 908b fb3c 7814 1abe beb5 6fbe ee99 4cbe
00000170: cf2b 823e b075 88be b8f0 1a3d 3b50 a7be
00000180: 3cb5 f6bd 8bbd 2cbe 481e 01bd 4ad7 1f3e
00000190: af3e 21be 7259 fc3d 5179 6bbe ecdb 663e
000001a0: 7df0 88bd 5271 abbc 5f6a a7be 33b5 5b3e
000001b0: 222f 99be 1066 d7bc 803a 25bd 22de 9dbe
000001c0: 6324 03be cc3a d63d 4a12 7e3e 0092 2dbc
000001d0: 6cdc d5bd 77cd d63d 443f c0bc 642d 38bb
000001e0: 9919 41be 4aa4 253e ba49 44be 273f 503b
000001f0: cfeb 21be 243d 0b3e a0ae 6bbc 388f 11bd
00000200: 2074 83be 7776 89be 3197 853e 8487 99be
00000210: 6d3e 8f3e ca52 86be 6a18 123e 9e0b 33be
00000220: db86 44be 1cff cebd 10fa d43c 234b 95be
00000230: b065 d93d 68bf 09be 00f7 203c aed9 6a3e
00000240: becf 02be 7bec a9be c8bc 823e 05b8 6e3d
00000250: f8e5 783e 7dea 45be 3639 68bc fd0a 7d3e
00000260: 6167 a63d 3336 9f3e 8f5e f43d 31f7 e5bd
00000270: 44ce 1dbd 3125 9ebe b96b 843e edae 523e
00000280: ca73 cd3d c239 a03e 4dbc 2e3e 60be 5fbe
00000290: 267b a83e 7a97 4a3d 8a16 9bbe b4cf a83c
000002a0: 2992 ef3c 9666 26be 3eca 953e 6ba3 4abe
000002b0: 80e4 753c 28f9 6cbd a6f2 22be 1c76 fb3d
000002c0: 8eab 3c3e 3c2b be3d 4a5b a3be d32a 6bbe
000002d0: 8b3e 993e 0cbc 6bbe 7a81 f5bb 4c83 933e
000002e0: 21db 5f3e 7b6f f83d c814 9e3c 5131 0b3e
000002f0: 835d b4bd 092a 7a3e 33eb 9f3e cf6c 593e
00000300: b492 df3d 718f 8bbe cd78 1fbe 960b fabd
00000310: 100a 53be c5ff b13d c816 633d a6fb f7bd
00000320: a60f 313e e8d7 05be 160e f8bd c0b6 2cbd
00000330: 0054 a9ba c0be 13be b0fe b73c bc70 36be
00000340: 9da0 0f3e 3f74 443c 6083 4ebb 82f9 473e
00000350: 6052 4b3c 368c 8ebe a199 76be ba6a 873e
00000360: c5bb 1ebe e8a9 a7be 3aa7 59be 0150 863e
00000370: 9db4 b83d 69d5 923e 0e50 10be 4e80 ddbd
00000380: 28c6 20be 90b8 ebbd 50c4 94bc e080 08bd
00000390: c085 cabb 00a6 eebc 8e72 8abe fe10 70be
000003a0: b6b6 3ebe 9027 b23c 5592 943e 0f68 9ebe
000003b0: 02d9 b8bd f008 963e e269 bfbd ef81 e0bd
000003c0: 2545 6c3e fef2 9fbe 4963 fd3d 7e44 3a3e
000003d0: 902b ccbc 077e 093d c50c 70be 5850 c23c
000003e0: 58fb e6bd a552 5c3e c54c 023e f0a7 9b3e
000003f0: a087 1abe cfe2 a6be 46e7 a1be f025 94be
0.08222323 0.15618484 0.11770888 0.15839055 0.32850873 -0.30344355 0.18808009 0.10485595
-0.31972548 -0.117826514 0.2065156 -0.012873188 0.17677669 0.15592767 -0.004958256 -0.15750109
0.04511358 -0.2892706 0.30382657 -0.07376509 -0.11507857 0.3094022 0.012597418 -0.32376432
-0.26391876 0.14793193 0.1604138 0.19271073 -0.2057024 -0.23219097 0.30770746 0.14883408
-0.16146979 0.034379512 0.044044733 -0.30851984 -0.18221548 -0.08658956 0.15734184 0.09293932
0.24080491 0.034158982 0.3066134 -0.15514006 -0.0030706686 -0.03474522 0.3118895 0.096665256
0.1349919 0.29241303 -0.19401385 -0.2941556 -0.24316338 -0.20417349 -0.13461332 -0.3202011
-0.26608047 -0.32356006 -0.17184445 -0.04749766 0.12726405 -0.061606973 0.0116584 -0.14602548
0.1420753 0.17682065 -0.017169852 0.22071485 -0.115475915 -0.045345634 -0.16090399 0.13967122
0.2776616 0.29459757 -0.23815574 0.16938539 0.21154007 0.06760456 0.14182791 0.29618955
-0.30194917 -0.0903624 0.2946044 0.17503366 -0.13150045 -0.28211182 -0.3099297 -0.034715533
0.030706197 -0.1504687 -0.23409173 -0.19980595 0.25424048 -0.26652288 0.037827224 -0.32678398
-0.120462865 -0.1686918 -0.03152302 0.1560947 -0.15746568 0.12321748 -0.22995497 0.22544831
-0.066864945 -0.020928059 -0.32698342 0.21455841 -0.29918772 -0.026293784 -0.040338993 -0.30833536
-0.12806849 0.10460433 0.24811664 -0.010593891 -0.10442433 0.10488408 -0.023467667 -0.0028103227
-0.18857421 0.16175953 -0.1916875 0.0031775923 -0.1581261 0.13597542 -0.014384896 -0.035536975
-0.25674534 -0.26848194 0.26091912 -0.29986203 0.27977315 -0.26235038 0.14267126 -0.174849
-0.19192068 -0.10107252 0.025998145 -0.29158887 0.106150985 -0.13451922 0.009824514 0.229346
-0.1277456 -0.33188233 0.25534654 0.058280963 0.24306476 -0.19327731 -0.014173796 0.24711223
0.08125187 0.31096038 0.11932098 -0.11228789 -0.03852679 -0.3088775 0.25863436 0.20574541
0.10031851 0.31294066 0.17064019 -0.21849966 0.32906455 0.049460866 -0.30290633 0.020606853
0.0292445 -0.16250071 0.2925586 -0.19788902 0.015008092 -0.0578548 -0.15912876 0.12278387
0.18424818 0.0928559 -0.31905586 -0.22965555 0.2993053 -0.23020953 -0.0074922414 0.2881111
0.21860935 0.12130638 0.019297019 0.13593031 -0.088068984 0.24430098 0.3123413 0.21232913
0.10916653 -0.27257875 -0.15573426 -0.12209241 -0.20609307 0.08691362 0.055441648 -0.12108545
0.17291126 -0.13070643 -0.12112062 -0.04216647 -0.0012918711 -0.14428234 0.022460312 -0.17816442
0.14026113 0.011990606 -0.003151141 0.19528773 0.012409776 -0.27841347 -0.24082042 0.26448613
-0.15501316 -0.32746816 -0.21255198 0.26232913 0.09018824 0.28678444 -0.14093038 -0.10815488
-0.1570059 -0.11509812 -0.018160015 -0.03332603 -0.006180495 -0.02913189 -0.27040523 -0.23443982
-0.18624386 0.02174738 0.29017892 -0.30938765 -0.09025766 0.29303694 -0.093463674 -0.10962283
0.23073252 -0.31240076 0.12372453 0.1819019 -0.024923116 0.033567455 -0.23442371 0.023719952
-0.11278409 0.21515901 0.12724598 0.30401564 -0.150908 -0.32594916 -0.3162176 -0.28935194

bias f4 [64]
00000000: 85d1 173d fe2e 993e d1b5 df3c e6b5 4ebe
00000010: ac09 363e fd53 71be 3e45 7cbe 0aec f6bd
00000020: d599 a03e 06b0 98be 4031 99bb 7388 283e
00000030: 0006 73bd 2441 e13d 131d 12be 00d4 98bb
00000040: ed93 983e 16be 24be 3f54 81bb 40eb 9e3c
00000050: 6f19 ecbd 754f 763e 0398 75be a4de 20be
00000060: 273f 6e3e 9ecc 513e 2ac7 35be 8940 47be
00000070: ab77 a4be 0f58 273e cf29 47bc fde5 473e
00000080: 68a7 1dbe aa5d 373e 25a8 d6bd 1c1f 95be
00000090: d080 36be 2062 823e 2d4e ccbd 2c2d da3d
000000a0: ec0b 923e 549b 513e dbb1 9fbe a69d 223d
000000b0: 5ff6 00be 325f 62bd a03c 10bd 7e98 863e
000000c0: 1c8d 28be 66a2 363e 6ebb 6dbe f636 e8bd
000000d0: bbd4 2e3e ade9 8b3e 229e 663e 16c2 a53e
000000e0: 83fd 8d3e 043d 3fbe 47a7 3b3e 4722 773d
000000f0: 79c5 f0bd c2da 32be e772 873e 68f9 c8bd
0.037065048 0.29918665 0.027308377 -0.20186576 0.17777127 -0.23567195 -0.24635789 -0.1205674
0.31367365 -0.29821795 -0.0046750605 0.16458301 -0.059331894 0.10998753 -0.14268903 -0.0046639442
0.29800358 -0.16088137 -0.0039468105 0.019399285 -0.115282886 0.24053748 -0.23983769 -0.1570993
0.23266278 0.20488212 -0.17751756 -0.19458212 -0.3212255 0.16342185 -0.012155964 0.19521327
-0.15395892 0.17906824 -0.1048129 -0.29125297 -0.17822576 0.25465488 -0.09975848 0.10653147
0.2852472 0.20469409 -0.3119038 0.039701127 -0.12593983 -0.055266567 -0.035214067 0.26288217
-0.16460079 0.17835388 -0.2321603 -0.11338608 0.17073338 0.27326718 0.2252126 0.32374638
0.27732477 -0.1867562 0.1832553 0.060335424 -0.11756415 -0.17466262 0.2645485 -0.098131955

weight f4 [64]
00000000: 3681 7e3f cb29 833f ec2e 803f 0000 803f
00000010: d20a 7f3f 1336 7f3f 0000 803f 8969 803f
00000020: 8bdd 7f3f 0000 803f 0000 803f ddd7 7e3f
00000030: 0000 803f 0b1f 7f3f 0000 803f 0000 803f
00000040: 9dae 7f3f 0d3e 7f3f 0793 7f3f 0000 803f
00000050: e13f 7f3f 4cdd 7f3f 0000 803f 4ac6 803f
00000060: 0b4f 803f 0000 803f 9a75 7f3f f70f 803f
00000070: 0000 803f 5576 803f 03c7 7f3f 99b7 813f
00000080: fdce 7f3f 1883 7f3f bd86 7e3f 0000 803f
00000090: 0000 803f 9425 823f 3d6b 7f3f 0000 803f
000000a0: 72e5 7f3f 1847 7f3f 0000 803f 5927 7f3f
000000b0: 54d9 7f3f d464 7f3f 0000 803f a1d3 7f3f
000000c0: caf7 7f3f 31b8 803f 3a78 7f3f 0000 803f
000000d0: 0105 803f 2f2a 7f3f f292 823f e048 823f
000000e0: 0efc 7f3f 80cd 7f3f 5807 7f3f 4476 7e3f
000000f0: 0bc4 803f 6f74 7f3f 0000 803f c299 813f
0.9941591 1.0247129 1.001432 1.0 0.99625885 0.99691886 1.0 1.0032207
0.9994742 1.0 1.0 0.9954813 1.0 0.9965674 1.0 1.0
0.99875814 0.99704057 0.9983372 1.0 0.99706846 0.9994705 1.0 1.0060513
1.0024122 1.0 0.9978882 1.0004872 1.0 1.0036112 0.9991304 1.0134155
0.99925214 0.9980941 0.99424344 1.0 1.0 1.0167718 0.9977301 1.0
0.9995948 0.99717855 1.0 0.99669415 0.9994099 0.99763227 1.0 0.99932295
0.9998747 1.0056211 0.99792826 1.0 1.0001527 0.9967374 1.0201094 1.017849
0.9999398 0.99922943 0.9962058 0.9939921 1.0059828 0.9978704 1.0 1.0125048

bias f4 [64]
00000000: b159 f6bb d381 293c ed04 0b3c ce4f 8dbc
00000010: 5af6 39bb 717e f33b 4e34 af3c 943b 29bc
00000020: 507c 463c 6ec1 14bc cec9 853c 3a95 b7ba
00000030: 1f1c 9ebc 6fff 513b 07c7 80bc 3563 7fbc
00000040: 11ec 88bb 4235 c93a 10ab 283c 3938 77bc
00000050: 74b8 133a cfb1 4d3c bf31 193c 2e83 993c
00000060: 0d9e d1bb bc56 6bbc 2c8a 87bc 9638 983b
00000070: 9a67 01bc 63c9 6fbb 3787 653b 4ff8 89bc
00000080: b772 ae3b a202 473b 27ac 4ebb db43 57bc
00000090: c6c9 813c 1746 2fbc fad3 1aba 2159 9d3c
000000a0: 9b21 3f3c fc8f ec3b 7ee7 89bc fcac ee39
000000b0: 8d62 22bc 1868 15bc c2e7 5cbc 60a6 be3b
000000c0: bc5a 033c caf1 413b ecfb 803b 2a60 c13c
000000d0: 59e7 c6bb fdad d6bb 529c e3bb 41af 92ba
000000e0: 37fb 96ba abba 0a3c 2001 113c 48f5 2a39
000000f0: 917f 253c 0974 3bbc 96e9 473c f80f 1b3c
-0.0075180163 0.010345894 0.008485061 -0.017249968 -0.0028375597 0.0074308445 0.021387246 -0.010329146
0.012114599 -0.00907932 0.01633158 -0.0014006265 -0.019300519 0.003204312 -0.015719904 -0.015587618
-0.004178532 0.0015350955 0.010294691 -0.015089088 0.00056350906 0.0125546 0.009350239 0.01873931
-0.006397015 -0.014363941 -0.016545378 0.0046454174 -0.007898236 -0.0036588542 0.0035023221 -0.016842036
0.0053237337 0.003036656 -0.0031535716 -0.013138737 0.015843283 -0.010697863 -0.0005906221 0.019207539
0.011665727 0.0072193127 -0.016834017 0.0004552378 -0.009911192 -0.009119056 -0.01348299 0.0058181733
0.008017238 0.002959358 0.0039362814 0.023605425 -0.0060700593 -0.0065515027 -0.006946125 -0.0011191146
-0.001151896 0.008467357 0.008850366 0.00016303838 0.010101215 -0.011441239 0.012201687 0.009464256

running_mean f4 [64]
00000000: e509 a63e e9f1 993e f9ba ed3d 0000 0000
00000010: 6f0b cf3e 9ebe 2a33 0000 0000 9d24 2a39
00000020: 9604 543f 0000 0000 0000 0000 6253 f23d
00000030: 0000 0000 3f2a ad3c 0000 0000 0000 0000
00000040: 202a d73e e6f3 a03e a23d e63d 0000 0000
00000050: 0c04 9e3e 093e b73e 0000 0000 6312 3834
00000060: 8702 e03b 0000 0000 4e56 cc34 6e6b be3d
00000070: 0000 0000 e289 db3b 5d64 fb3c e3f3 3133
00000080: a031 1736 28f4 bf3e f8be 083f 0000 0000
00000090: 0000 0000 577e b63a 566f 573e 0000 0000
000000a0: ab51 b43e d5f4 c03c 0000 0000 d4c0 c13e
000000b0: c3a5 9c3d 1880 223f 0000 0000 2694 1a3f
000000c0: c8fc 983d 0593 443e f635 8335 0000 0000
000000d0: 0576 cb3b 571a d03e 3b81 4a37 cf6e a53e
000000e0: 68fe 6b3e 220a 423d 2710 1e3f 1e82 4d3e
000000f0: 94c0 0738 0bdf 9134 0000 0000 1935 7b38
0.32429424 0.30067375 0.11607928 0.0 0.4043841 3.9754575e-08 0.0 0.00016226103
0.828195 0.0 0.0 0.1183231 0.0 0.021138309 0.0 0.0
0.42024326 0.3143608 0.11242224 0.0 0.30862463 0.35789517 0.0 1.7143024e-07
0.006836239 0.0 3.8060756e-07 0.09297834 0.0 0.0066997865 0.030687505 4.1432838e-08
2.252964e-06 0.37490964 0.53416395 0.0 0.0 0.001392315 0.21038565 0.0
0.35218558 0.023554245 0.0 0.3784243 0.07648804 0.63476706 0.0 0.60382307
0.07470089 0.19196709 9.775965e-07 0.0 0.0062091374 0.40645096 1.2070227e-05 0.32311103
0.23046267 0.047372945 0.61743397 0.20069167 3.236586e-05 2.717064e-07 0.0 5.9892514e-05

running_var f4 [64]
00000000: efb7 a73a ed83 2137 be83 1339 0400 0000
00000010: 7e54 513a 35f2 1731 0400 0000 783c 4f36
00000020: 6f7a 853b 0400 0000 0400 0000 d86e 2e38
00000030: 0400 0000 69e6 0139 0400 0000 0400 0000
00000040: 4730 8239 c4e2 633b ba92 6439 0400 0000
00000050: 5737 353b c948 7739 0400 0000 b319 ee31
00000060: 1063 a439 0400 0000 75ea f432 bc3c a63a
00000070: 0400 0000 0c4b 8639 2df9 0038 f7ed c830
00000080: 27aa 6334 a0bc 1d3a 5c39 cd3b 0400 0000
00000090: 0400 0000 4088 8e37 498d c23a 0400 0000
000000a0: 166c ac38 bb1d 043a 0400 0000 779f e93a
000000b0: 06e1 273a 056e ef3b 0400 0000 5f15 ea3a
000000c0: eaed 663a 647a 6037 583b 8033 0400 0000
000000d0: f450 7a39 8bb2 9739 a8e5 8734 d432 eb36
000000e0: 70e7 4038 5030 e139 cb6a 3e3b 2055 a439
000000f0: 6b27 f735 0a76 0b33 0400 0000 2689 1c36
0.0012795905 9.627064e-06 0.0001406809 6e-45 0.00079853076 2.211107e-09 6e-45 3.08806e-06
0.004073433 6e-45 6e-45 4.1588064e-05 6e-45 0.00012388233 6e-45 6e-45
0.00024831502 0.0034772614 0.00021798434 6e-45 0.0027651393 0.0002358287 6e-45 6.9296333e-09
0.00031354325 6e-45 2.8511957e-08 0.0012682895 6e-45 0.00025614386 3.074964e-05 1.4619549e-09
2.1202924e-07 0.0006017182 0.0062629413 6e-45 6e-45 1.6991165e-05 0.0014843132 6e-45
8.221732e-05 0.00050398306 6e-45 0.0017824013 0.00064040755 0.0073068165 6e-45 0.0017859152
0.00088092557 1.3379937e-05 5.971259e-08 6e-45 0.00023872015 0.0002893399 2.5312806e-07 7.009463e-06
4.599191e-05 0.0004295134 0.0029055353 0.0003134394 1.8414406e-06 3.2470815e-08 6e-45 2.3325642e-06

weight f4 [128, 64, 9]
00000000: a14e bdbc 918c 073d dec2 8d3c e2a3 b8bc
00000010: e307 fc3a 7709 11bc 4047 d73b 275d ba3c
00000020: aaf6 cebc 0642 2dbd 98a6 1f3d d787 11bd
00000030: 082b 913b f72b c83c 75f9 15bd 019d fcbc
00000040: 5cc6 853b d28c 1ebc 5123 00bd 0389 a13c
00000050: ca09 0fbd 427d 59bc f57a 813b 4f85 913c
00000060: f1c6 29bd d196 1dbc 786b 223d f3e7 d23c
00000070: 58bf 543c c3cd 8cbb 0625 edbc 9caa 043d
00000080: 2cda 15bd 56a9 6abc 9300 a8bc 53b5 98bc
00000090: 2a0d 853c fc1a 83b9 6230 d23c d242 d6bc
000000a0: 0393 ba3b efdd 653b 9908 bd3c 67c2 1b3d
000000b0: e029 d13a 0f95 24bd 8076 b03c 09e6 b33c
000000c0: 813e 143d 0c7f a8bc 24da d2bc 7501 e53b
000000d0: eced 89bb 9301 fc3a b339 563c 86b4 9fb8
000000e0: 1805 05bb 90e1 2a3c 2d8a f13c 2c39 da3c
000000f0: 47d9 613c dd78 0cbc 6558 17bb 2b23 9cbc
00000100: f118 20bd 0252 66bc cc18 aabc 2261 90bc
00000110: 292a a73c 8a68 e1ba b164 a23c 7f13 193d
00000120: 7d74 febc c868 02bd 5f5f 1c3c e0d2 f23c
00000130: f96d 273d 0b28 e33c 38f9 edbc d1b5 543b
00000140: b0ea 08bc 0722 023b 2473 dfbb 9391 39bc
00000150: e7cb 7ebc ac8c 6bbc 3f4d 4cbc a046 b2bc
00000160: c8a6 1e3d 4eec f43b 5134 c7bc 79ca d63b
00000170: fcd9 f6bc b197 0d3d 01b1 d93c dcb6 fe3b
00000180: a1dc c73c 9ba3 0abd 85e3 0d3c d97e 03bd
00000190: 79ba a2ba 4981 bdbb 1754 153b ebb8 0ebd
000001a0: 08a3 e9bb ea5e 113d eb42 fcbc e214 1cbc
000001b0: faab 19bd 32e1 a13c 34b5 c7bc 2a33 20bd
000001c0: a00d 0ebd f21c d0bc a280 533b 529d c9bc
000001d0: 9c0f 5cba fad0 26bd 9ce1 ee3b bd71 a3bc
000001e0: 0b06 833c 8d1a 52bc ac17 033d b7e9 173d
000001f0: c1e3 48bc 5ff3 a3bc 066a 0fbd f59e 9cbc
00000200: daab 41bc 7de0 ac3c d4b0 46bc 9ca4 50bc
00000210: 8860 12bc 45ea c7bc 412a 9e3c 5807 e13b
00000220: 13c8 30ba 0742 843b 9734 af3c fcef f6bc
00000230: c660 bf3b 5d77 ffbc e738 a53c 2747 b43c
00000240: 0958 73bc 28c0 a4bc 387b 023b 179b bc3c
00000250: 716d 9c3c 8d7f ee3c 7533 b9bb 97c0 ff3c
00000260: a306 97bc 93ad 0c3d fb59 263d b1f0 1a3d
00000270: 938d 333d 0e0b 0d3d b30e 09bd 0595 92bc
00000280: e42c 2ebc 7e30 0e3d c77a c4bb ce48 c9bc
00000290: dfac 07bd 3c79 033c db06 283c 46c6 95ba
000002a0: 7e3b 293c e672 04ba 9f17 933c de54 bb3c
000002b0: d26d 023b fb56 14bd d9b9 f0bc 7259 37bc
000002c0: 566c 72bc c796 8bbc f140 f0bc c15e 11bd
000002d0: 9ace 793c dce6 d93c e19f 0ebd 7fa2 e73c
000002e0: 438f 883c 80f3 06bd 8f0c c8b9 0506 f23b
000002f0: f0b4 a0bc 0695 12bb 247f de3c 7fb7 dabc
00000300: 16b2 2f3d 4fa6 1f3d 9539 a73c 23a6 d13c
00000310: eb13 01bd 5676 173d bc7c c1bc 3dc8 e3ba
00000320: 32e1 9c3c 04dc c5bc b296 a33c 69b3 053d
00000330: 322d 24bd 83ac 5cbc 6c3d c6bb fcc2 1f3d
00000340: 09cb b83c 4398 22bd c6e0 b63c b3ce 223d
00000350: 105d af3c 45d3 473b e5cc af3c 873b adbc
00000360: 3921 13bd 432e 6abc ef89 f9bb f5a3 773c
00000370: 8090 c93b fa31 493c 18c4 943b 2c9a c1bc
00000380: e0b7 523c b472 763b b230 0fbd 420c e53c
00000390: fbef 0dbd 6f51 443a f159 093d 9fff 1c3d
000003a0: e0fb dabc 2ab5 1c3c 7207 afbc c6c1 cebc
000003b0: 19e3 bdbc fa5c 093d f4a2 253c 770c ddbc
000003c0: 2915 b4bc 918b b6bb ded4 f2bc 9177 bf3a
000003d0: 9adb 113d c9f8 1abd 51ca b63c 4347 933c
000003e0: 89e9 143d ccbb 473c 5e8a d43c 034d eaba
000003f0: 6589 11bd 451a 903c e701 1ebc 0313 9cbb
-0.023108782 0.03309304 0.017304834 -0.022539083 0.0019228425 -0.008852354 0.006569773 0.022749497
-0.025264103 -0.042299293 0.038977236 -0.035529938 0.0044301786 0.024435027 -0.036614854 -0.030836584
0.004082484 -0.009677129 -0.03128368 0.019718653 -0.034921445 -0.013274493 0.003951425 0.017763762
-0.04144949 -0.009618477 0.03965327 0.025745368 0.012985073 -0.0042969896 -0.028948318 0.03238927
-0.036585018 -0.014322599 -0.020508086 -0.01864115 0.016241629 -0.00025006372 0.025657836 -0.02615491
0.0056937947 0.003507491 0.023075389 0.038027193 0.0015957914 -0.040181216 0.02154088 0.021960275
0.03619242 -0.020568393 -0.025738783 0.006988699 -0.0042092707 0.0019226543 0.01307528 -7.615336e-05
-0.0020297226 0.010429755 0.029484833 0.02663859 0.013784713 -0.008573738 -0.0023093459 -0.019059738
-0.039086286 -0.014057638 -0.020763777 -0.017624442 0.020405846 -0.0017197293 0.019823404 0.03737211
-0.031061405 -0.03183821 0.009544223 0.029641569 0.040876362 0.027729055 -0.0290495 0.0032457004
-0.008356735 0.0019856708 -0.0068191458 -0.0113262115 -0.015551544 -0.0143768005 -0.012469589 -0.021762192
0.038733274 0.007474459 -0.024316939 0.0065548983 -0.03013324 0.034568492 0.02657366 0.0077732634
0.024397196 -0.033847433 0.008660202 -0.032103393 -0.0012415192 -0.0057832343 0.0022785717 -0.03484432
-0.0071300305 0.035490908 -0.030793628 -0.009526463 -0.037517525 0.019760702 -0.024378397 -0.039111294
-0.034680963 -0.025404427 0.0032272716 -0.024611149 -0.000839466 -0.04072664 0.0072900783 -0.019951696
0.015994092 -0.012823713 0.032004997 0.037088122 -0.012261332 -0.02001351 -0.03501322 -0.019118765
-0.011820758 0.021103138 -0.01212712 -0.012734558 -0.008934148 -0.0244037 0.019307258 0.0068673305
-0.00067436806 0.0040361914 0.021387381 -0.03014373 0.0058403937 -0.031184847 0.020168735 0.022006584
-0.014852532 -0.020111158 0.001990987 0.023023171 0.019095154 0.029113555 -0.005651886 0.031219764
-0.018435782 0.03434522 0.040613156 0.037827197 0.043836188 0.03443437 -0.033461284 -0.017893324
-0.01063082 0.034714215 -0.0059960815 -0.024570849 -0.033123847 0.00802451 0.010255541 -0.0011426888
0.010329125 -0.00050525216 0.0179556 0.022867616 0.0019901884 -0.036215764 -0.029385494 -0.011190759
-0.014796337 -0.01703967 -0.029327841 -0.035490755 0.015247012 0.02659934 -0.03482044 0.028275726
0.016669875 -0.032947063 -0.0003815633 0.0073859715 -0.019617528 -0.0022366657 0.027160235 -0.026698826
0.042894445 0.038976964 0.0204132 0.025591915 -0.031513136 0.03697809 -0.023619048 -0.0017378401
0.01915035 -0.024152763 0.019969318 0.032641802 -0.040082164 -0.013468864 -0.0060498025 0.03900431
0.022557752 -0.03969599 0.022323977 0.039747905 0.02140668 0.0030490917 0.021460006 -0.021146549
-0.035920355 -0.014293256 -0.00761532 0.015114774 0.006151259 0.012279982 0.0045399778 -0.023633085
0.012861222 0.003760499 -0.03495855 0.027959947 -0.03465269 0.0007488941 0.03353304 0.038329717
-0.026731431 0.009564677 -0.021365855 -0.025238883 -0.023179578 0.033535935 0.010109652 -0.026983483
-0.021982746 -0.005570837 -0.029642519 0.0014607777 0.03560982 -0.037834916 0.022313269 0.017978316
0.03635553 0.01219077 0.025944885 -0.0017875734 -0.03553142 0.017590651 -0.009644008 -0.0047630086

bias f4 [128]
00000000: 9bb6 303d ec13 e8b9 ceff 1ebd a506 c139
00000010: 6fba 313a b856 ec3c 7962 58bc 8cbc 37bd
00000020: fe77 dbbc f551 a3b9 465a fa3c 876e 0ebd
00000030: 2b4f 263d 42d7 643c 03ce 6e3b 6c68 86bc
00000040: 9eb6 023d 931b 19bd c47c 4ebc 0b6d 1fbc
00000050: 1f4f 02bd f418 d73c a364 e1bc 5f46 293d
00000060: 100c c73c d597 ac3b f38e 1cbd 3a76 8fbb
00000070: a417 fd3c 5e23 e63c a05b 8dbc 5522 e43c
00000080: 5766 6c3c b23f 773c fece 1b3d c6f3 14bd
00000090: 9b64 27bd 71c1 dcbc 4220 a73b 2555 343b
000000a0: 9bb1 9dbc 321c d93c df12 2a3b 4f4d 2dbc
000000b0: 8857 c03b 3a0a 983b d595 793c c6d1 05b8
000000c0: 5f2b 85bc bb13 dabc 866e 3d3c 6430 d7bc
000000d0: f519 923c f9c1 46bc b03c b93c e7cd 55bc
000000e0: 5c39 593c f4e3 db3c 6a8f 19bc 2c0c 13bd
000000f0: 2d36 48bc 49b4 c93c ede5 8ebb ce74 e13c
00000100: 1780 d9bb f518 ed3c eecf d1bc 8ff3 e1bb
00000110: de92 a43c 0375 11bd e5bb 93bc 1c8c 71bc
00000120: 5ed9 9ebc f159 373d 9ffb 8ebc 03b3 3fbc
00000130: b011 dabb fd79 9dbc 85b4 b0bb 30d4 18bc
00000140: 3d01 823c 391f 2dbb 0bb1 b23c 7fea e73c
00000150: de6a 9b3a 3294 a03a 0014 1a3d 8dd3 26bd
00000160: 6555 bcbc 386b e7bc aed1 f23c 3d16 793b
00000170: bc37 fb3c 4775 bfbc 3c42 4a3c 5934 613c
00000180: c23b bf3b 082b 05bd f389 b83c fe71 a13c
00000190: aa92 eebc 3b3a 8bbc 5f39 c7bc db4a b8bc
000001a0: d5ef 14bc 360d 313c 0c67 dabc c995 b2bc
000001b0: ee45 b83c 2355 99bc 1627 2ebc 6dcf 14bd
000001c0: 5925 a0bc ae52 cf3c a13c 4ebb 890f d5bc
000001d0: 89d1 a63c 24be a63b 07ba 9abc 4727 a43c
000001e0: b449 bdba e8af a8bb 43a9 023d e1d3 d33c
000001f0: c693 0bbd 27c0 b2bc d992 8a3b f820 0b3d
0.043142896 -0.0004426533 -0.038818173 0.0003681678 0.0006779795 0.028849944 -0.013207071 -0.044857547
-0.026790615 -0.00031150845 0.030560624 -0.034773376 0.040602844 0.013967337 0.003643871 -0.016407214
0.03191244 -0.037379812 -0.012602989 -0.009730588 -0.031813737 0.026257016 -0.027513808 0.041326877
0.024297744 0.005267123 -0.038222264 -0.0043781074 0.030895062 0.028093036 -0.017255604 0.027848402
0.014428697 0.01509087 0.0380392 -0.036365293 -0.04086743 -0.026947709 0.005100281 0.002751657
-0.019249728 0.026502702 0.002595119 -0.010577514 0.0058698095 0.004639891 0.015233477 -3.1905038e-05
-0.016256033 -0.026620736 0.011561995 -0.026268192 0.017834643 -0.012131208 0.022611946 -0.013049579
0.013258304 0.026842095 -0.0093725715 -0.03590028 -0.012219948 0.0246221 -0.0043609054 0.027521517
-0.006637584 0.028942565 -0.025611844 -0.0068954895 0.020089563 -0.03551198 -0.018033931 -0.014742877
-0.019390758 0.04476351 -0.017453967 -0.011700395 -0.0066549405 -0.019223208 -0.0053926134 -0.009327933
0.015869731 -0.0026416315 0.021812936 0.028310059 0.001185741 0.0012251197 0.03761673 -0.040729094
-0.022989938 -0.028249368 0.029640999 0.003800764 0.030666225 -0.023371352 0.012344893 0.013745391
0.005835981 -0.03251174 0.022526717 0.019707676 -0.02912267 -0.01699554 -0.024319349 -0.022496631
-0.009090384 0.010806372 -0.026660465 -0.021799939 0.022494283 -0.018717354 -0.010629436 -0.03633063
-0.019549059 0.02530798 -0.0031469243 -0.026008384 0.020363586 0.0050885845 -0.018887533 0.02003826
-0.0014441521 -0.005147923 0.0318997 0.025857868 -0.034076475 -0.021820141 0.0042289314 0.03396699

weight f4 [128]
00000000: 03b1 7e3f 2b46 7f3f 661f 803f 6bb8 7f3f
00000010: dc19 803f 3844 803f d6c8 813f 910c 813f
00000020: bc39 803f ae14 803f 4b14 7f3f f5cf 7f3f
00000030: a102 823f 52ce 7e3f 40df 7e3f ff95 7f3f
00000040: aa1b 803f bbd9 813f 8ed2 803f 98b3 7f3f
00000050: 20a2 803f 58f4 7f3f cd83 803f 30fd 7f3f
00000060: 6366 7f3f 6e43 803f 529e 7f3f 2d08 803f
00000070: a764 803f 214b 7e3f 044c 803f 669d 7d3f
00000080: 2508 803f 3cca 7f3f e768 7f3f 2d9c 803f
00000090: 6f39 7f3f 5443 803f 734b 7f3f b9ed 7e3f
000000a0: 08c8 7f3f 5c27 803f f14a 7f3f 706f 803f
000000b0: 100a 7f3f 4436 7f3f 064a 803f 4a5a 803f
000000c0: 77ca 7f3f 94b1 7d3f 192e 7f3f 32a7 813f
000000d0: f1f8 7d3f dde9 803f f8fe 7f3f cc41 7e3f
000000e0: a910 803f c2fe 7d3f 9781 7f3f 2309 803f
000000f0: cf44 7f3f d44b 7f3f 070b 813f f73b 7f3f
00000100: 0a80 7f3f 75cc 7f3f 5a9d 803f 9226 833f
00000110: 1746 803f f3cd 7f3f e63e 7f3f 91b2 7f3f
00000120: 16ee 7f3f b043 7f3f 426c 7f3f 123b 7f3f
00000130: 06f4 7f3f 951c 803f 2e8a 7f3f d2c2 7f3f
00000140: e034 833f 08a0 7f3f b876 803f b70b 803f
00000150: 9b44 7f3f e0b7 7e3f 4c5e 7e3f fe17 823f
00000160: 8820 7f3f 3e50 7f3f a786 7f3f 0f23 7f3f
00000170: e1e1 7f3f 6e56 7f3f a733 803f 883f 7f3f
00000180: c279 7f3f 94f1 7d3f be39 7e3f 4b2d 803f
00000190: d2b6 7e3f 65a6 803f c6b3 7f3f eba2 7f3f
000001a0: 5f0c 803f 5193 7f3f c2a5 803f 691f 7f3f
000001b0: 316d 7f3f 005d 7f3f c818 803f 6b1a 7f3f
000001c0: 5ed2 7e3f be9b 7f3f 0615 803f 741c 7f3f
000001d0: e177 803f ed07 803f c3e9 7f3f 6106 7f3f
000001e0: b8c8 813f 54e0 7e3f 2172 7e3f d91f 7f3f
000001f0: 1f67 823f db5d 7f3f 4ea1 7f3f 00f1 7f3f
0.9948885 0.9971644 1.0009582 0.99890774 1.0007892 1.0020819 1.0139415 1.008196
1.0017619 1.0006311 0.9964034 0.9992669 1.0157052 0.9953357 0.995594 0.9983825
1.0008442 1.0144571 1.0064256 0.99883413 1.0049477 0.99982214 1.0040222 0.9999571
0.99765605 1.0020578 0.9985095 1.0002495 1.0030717 0.9933339 1.0023198 0.99068296
1.0002486 0.9991796 0.99769443 1.0047661 0.9969701 1.0020547 0.997245 0.99581486
0.999146 1.0012012 0.99723727 1.0034008 0.9962473 0.9969218 1.002259 1.0027554
0.9991831 0.9909909 0.99679714 1.0129149 0.9920798 1.007137 0.99998426 0.9931915
1.0005084 0.99216855 0.99807113 1.0002788 0.9971437 0.9972508 1.008149 0.99700874
0.9980475 0.9992135 1.004802 1.0246146 1.002139 0.9992363 0.9970535 0.99881846
0.99972665 0.9971266 0.99774563 0.9969951 0.99981725 1.0008723 0.9982022 0.9990665
1.0250511 0.99853563 1.003623 1.0003575 0.9971406 0.9949932 0.99362636 1.0163572
0.99659014 0.99731815 0.9981484 0.9966287 0.9995404 0.99741256 1.0015763 0.99706316
0.9979516 0.99196744 0.9930686 1.0013822 0.9949771 1.005078 0.9988369 0.9985797
1.0003775 0.9983416 1.0050585 0.99657303 0.9977599 0.9975128 1.0007563 0.99649686
0.99539745 0.9984702 1.0006416 0.9965279 1.0036584 1.0002419 0.9996607 0.9961911
1.013938 0.9956105 0.99392897 0.9965797 1.018772 0.9975259 0.99855506 0.9997711

bias f4 [128]
00000000: 875f acbb ff15 1f3c 7b88 973b dca7 5cbc
00000010: 602e 90bc 9f02 8f3b e598 5e3c 4ecc 913b
00000020: d1f7 adbb 5431 4cbc 25a1 53bc 2967 95bb
00000030: e623 60bb 8379 cb3b cb28 8d3c 6c4a d6bb
00000040: 2dfe d1bb 2780 80bb af43 26bc 2b53 3abc
00000050: 053e 88bc e9a8 0e3c 3010 f7b9 c741 c6bb
00000060: 5bca 8bbc a23e 8dbc 7a2a 7bbc 75d9 aebb
00000070: 74f5 70bc 49e0 b73a 3d66 1339 599c 43ba
00000080: f18a 83bc c9dc 2fbb 9b87 873b d0ef 4cbc
00000090: b678 a6bb 2e7e 653b f70f 83bc c7f4 a4bb
000000a0: 1814 03bc dd16 b4bb 6465 aabb ae8b d2bb
000000b0: 2caa 843c 74fc 82bb 8524 9cbb bbd7 963b
000000c0: c8a7 263c 6e84 773c db21 90bc bc2e 0cbc
000000d0: 7e65 793b b216 a1bc f11c e2bb d562 3c3c
000000e0: b195 88ba c181 83bc ebfa a63c c45d 54bc
000000f0: 39b2 07bc 964a a6bb 2aa8 0abc 4730 b1bb
00000100: 71c6 c7bb a78b 82bb 86b3 78bc d918 03bc
00000110: 2434 43bc d44f 0f3c 1d39 16bc 28f6 3abc
00000120: 1a75 03bc 4bdd 663b 11f2 7abc 7c0b 693c
00000130: 41f8 00bc 7807 43bc 9dba 4b3c 077d 9abc
00000140: 93e9 35bc d0cb 95bb 4e62 183c 49ba eb3b
00000150: 6968 66bc aeb7 b4bb 5d2e 843b 8daa b9bb
00000160: 1697 31bb 8c5b 483c 935f 75bc 0dc1 793b
00000170: 7859 dfbb dddd 76bc 1df8 2abc fc09 0c3c
00000180: 2482 2b3c 5d65 083c c69a 9d3b e744 93bc
00000190: 23d4 c8bb dcfd 28bc 0270 33bc 680d 9d3c
000001a0: 711b c6bb 8004 f8bb d0a4 7b3c 1415 1bbc
000001b0: 63ab 923a 8db7 5abc 9a40 b1bc 6971 ba3b
000001c0: 8f01 bcbb 1c00 7bbb 848f 19bc 6852 c23c
000001d0: 8e94 1a3c 846d afbb 6fe3 463c e89f 99ba
000001e0: 3ee3 b4bb d9ed e63a 51bd ddbb a690 7ebb
000001f0: dbb9 a03b 278d 5dbc 64b6 1a3c d086 25bc
-0.005260411 0.009709834 0.004624424 -0.013467755 -0.017600238 0.004364326 0.013586258 0.004449404
-0.005309083 -0.012462933 -0.012916838 -0.004559417 -0.0034201085 0.0062095537 0.017231366 -0.0065396335
-0.006408474 -0.003921527 -0.010147973 -0.011372368 -0.016631136 0.0087072635 -0.00047123572 -0.0060503217
-0.017064264 -0.01724178 -0.015329951 -0.0053359815 -0.014706958 0.0014028634 0.00014057099 -0.0007461957
-0.016057463 -0.002683448 0.0041360385 -0.012508348 -0.005080308 0.0035017836 -0.015998824 -0.0050340625
-0.008000396 -0.0054958896 -0.005200075 -0.0064253425 0.016194426 -0.00399738 -0.0047650957 0.004603354
0.010171838 0.015107257 -0.017594269 -0.008556064 0.0038054879 -0.019664142 -0.0069004227 0.011498173
-0.0010420588 -0.016053082 0.020383319 -0.012961809 -0.008282238 -0.0050748093 -0.008462945 -0.0054073664
-0.006096654 -0.003983933 -0.0151795205 -0.00800153 -0.011914287 0.00874706 -0.00916889 -0.011411227
-0.008023525 0.0035227116 -0.015316502 0.0142239295 -0.007871688 -0.011903636 0.012434629 -0.018858446
-0.011103052 -0.0045714155 0.009300781 0.007193838 -0.014062979 -0.0055150604 0.0040338472 -0.005666083
-0.002709811 0.012228858 -0.0149764 0.0038109452 -0.0068160854 -0.015067545 -0.010435131 0.008547302
0.01046804 0.008324948 0.00480971 -0.017977191 -0.0061288043 -0.010314431 -0.010951998 0.019171432
-0.0060457517 -0.007568896 0.015359119 -0.009465475 0.0011189993 -0.013349426 -0.02163725 0.005689789
-0.0057374905 -0.0038299626 -0.009372596 0.023720935 0.009434832 -0.0053536315 0.012139185 -0.0011720629
-0.0055202534 0.0017618492 -0.006766953 -0.0038843541 0.004904968 -0.013522423 0.009442899 -0.010102943

running_mean f4 [128]
00000000: 55fe d43e e71a ba3c edcf 5d3d 6258 c93d
00000010: 1672 213e dcf0 7d3d 0059 e03b 2806 5c3c
00000020: 8043 193e 2767 103e c4e4 4b3e c291 6e3c
00000030: ccec c63d c76f ba3e cdfb 143e 0f54 e53c
00000040: 54ec af3e d566 9a3d 99e9 953c a56f 833e
00000050: 1d42 683d f301 e53d 5c76 663d 5760 e03d
00000060: d2e7 863d 07b9 6a3e 8dea 0c3e a466 c73d
00000070: 50a2 9e3d 2d69 8d3e 4353 2b3e d1b2 4b3e
00000080: 28c5 a13d d7fd 213e b0fa e23d 83d3 8d3d
00000090: 5f44 953d f124 463d 0991 683e 5da9 bf3e
000000a0: 6ed5 9e3e b981 073e 2f41 433e eab6 8c3d
000000b0: f2d0 003e 5f82 133e 842f 003d 9314 fb3c
000000c0: d77c ab3d ff40 243e 53a7 6b3e 706d 9d3c
000000d0: d88b 113e 0225 ed3c e5e4 a63d b512 153e
000000e0: b902 dc3d febf 553e 01e8 6f3d 6c37 203e
000000f0: f6aa 183d 1092 b93e 6301 083d 9856 e83d
00000100: 8c3a c33d b3d4 8c3d 5121 f33d 574c 843c
00000110: 3ebe b83d f78d 793e cb79 cb3d c329 5e3d
00000120: cfe1 d73d c178 ab3d ae67 533d 840e 083d
00000130: 40b2 3d3e e73a 653d 36b3 9f3d 83f2 713d
00000140: f76a ed3c b9a3 a63e 5b85 903d 7687 623e
00000150: a449 b23d ba0e a23d 1310 5e3e fe2e 213c
00000160: 62a1 053f 9f96 1f3e 8ba5 9b3e a80c 663e
00000170: 199b 7c3d 351d 9b3d b3ea 8b3d fa26 013e
00000180: 327a 503d 971d bf3d c03a 233e e61c c33d
00000190: 3e89 443e a14a 4b3e 1cf9 d43c 8e88 743e
000001a0: 8981 fc3d 288c dc3c 6676 7b3c 7f7b 053e
000001b0: 63a8 b93d 4ebd dc3d f546 f83d e117 7b3e
000001c0: 0156 ac3d de3e 3d3e 9274 883d 5cd1 4d3d
000001d0: 6766 0d3d bca7 d93d 8a78 703e f803 483d
000001e0: 48e5 bf3c e324 733e 8e0f 933e d890 073e
000001f0: 27fa 443c 1f80 1a3e 61cb 133e 476e 1a3e
0.4160029 0.022717906 0.05415337 0.09831311 0.15766177 0.06199728 0.006846547 0.013429202
0.14967155 0.1410185 0.19911486 0.014561119 0.09713134 0.36413404 0.1454918 0.027994184
0.34359992 0.07539145 0.018299865 0.25671116 0.056703676 0.111820124 0.05626522 0.10955875
0.06587185 0.22922145 0.13761349 0.09736374 0.077458024 0.27619305 0.1673098 0.19892432
0.07898933 0.15819488 0.11082971 0.06925108 0.072884314 0.048375074 0.22711577 0.374339
0.3102221 0.13233079 0.19067834 0.068708256 0.12579706 0.14405201 0.031295314 0.030649459
0.08373421 0.16040419 0.23013048 0.019217223 0.14213502 0.02894831 0.08149127 0.14557917
0.10742707 0.2087402 0.058570866 0.15646142 0.037272416 0.3624425 0.033204447 0.113446414
0.09532651 0.06876507 0.11871589 0.016149683 0.09020661 0.24370562 0.099353395 0.054239046
0.105411164 0.08372641 0.05161255 0.03321697 0.18525028 0.055964377 0.07797854 0.059069168
0.028981669 0.32546785 0.070566855 0.22121987 0.08705452 0.07912965 0.2168582 0.009837864
0.52199376 0.15584801 0.30399737 0.22465765 0.06167135 0.0757393 0.06831875 0.12612525
0.050897785 0.09331816 0.1594038 0.09526996 0.19192979 0.19852687 0.02599769 0.23880216
0.12329394 0.0269223 0.015348053 0.13035391 0.0906532 0.107782945 0.12122909 0.24520828
0.084148414 0.18481013 0.06662859 0.05024849 0.034521487 0.10627696 0.23483482 0.04883191
0.02342476 0.2374454 0.28722805 0.13238847 0.012022532 0.15087937 0.14433052 0.1508113

running_var f4 [128]
00000000: fa12 c93d 1736 d93b a33a 9a3c f60a 313c
00000010: 12c8 223e 0cad 6d3c 82f1 4c3b 0703 843b
00000020: 36eb 123e 0eb9 b53c 3d92 803e 3035 173c
00000030: cbbb ee3b 4e98 993d 8aca db3c 37d6 113c
00000040: 1cd5 f13c d1a5 2d3c bd9d 253c 4540 063d
00000050: edfc c13c d9fd ba3b c75c f53c 0b38 943c
00000060: 4d78 b63c 44a7 ab3e c649 bd3c 58bf 813d
00000070: 4e0c 273d a1f2 5f3d 2729 0e3e cad3 cd3c
00000080: 63ae 383d 30a5 243e 8179 563d e8d7 1e3d
00000090: 2937 063d 7dec 953c e27e 813c 2edc 913d
000000a0: b83c b13d 0746 2f3c aa13 443e 2f42 043d
000000b0: 5e85 433c 80eb b43c ab17 003c 8f2c 433c
000000c0: 7a4f ab3c cc44 ff3c 3703 af3e 40fc e93b
000000d0: 6eb0 e03c bf35 483c 2304 493c 7603 9c3c
000000e0: 77a0 883c 6fe5 6a3e a4db 063d cd3f 2a3e
000000f0: e356 8f3c 39e6 7d3d 3cab 513c 7b8e af3d
00000100: db1f 933c 54fa 0e3c 2f70 9d3c 7658 ae3b
00000110: b45a 7f3c abe3 9f3e fec3 7a3d a9f6 9e3c
00000120: c5c4 933c ea73 d13b 46ee aa3c a2f3 153c
00000130: 95af 593e 4982 c53c 2712 473c a473 c03c
00000140: 359b 243c c6dc 103f 6f50 df3c dbad ea3c
00000150: d9e7 4b3d cabe 343d a373 0b3d 3a82 903b
00000160: afb7 473e e37f 043e 00d6 e83c fb79 8b3e
00000170: 0702 c83c 0eca 1f3c 1442 023d 82c4 963c
00000180: d8d6 383c 935a 793c f9ae ca3c 8544 743d
00000190: a347 673e 538c 763e 934d a33b 51d0 503d
000001a0: d54f d33d 6b14 103c c522 393c e1bd f93d
000001b0: 451b ce3b b6cf 873d 21ae cb3d 63cf a43d
000001c0: 0bda 4c3d 48bf 4e3e ab50 ed3c f536 513c
000001d0: 7c26 013c 465f 6a3d a524 3c3d 8095 db3b
000001e0: b356 423c 288d 083d bd15 5f3d 78db ce3d
000001f0: 4600 d83b a8d5 fe3d aef5 6b3c 0045 123e
0.098180726 0.0066287625 0.018826788 0.010805836 0.15896633 0.01450659 0.003127188 0.004028681
0.14347538 0.022182968 0.2511157 0.0092289895 0.0072855703 0.07499753 0.026829977 0.00890117
0.029520564 0.010598616 0.0101084085 0.032776136 0.023680175 0.0057065305 0.029951466 0.01809313
0.02227416 0.3352605 0.023106467 0.06335324 0.04078322 0.05467475 0.13882886 0.025125403
0.045088183 0.16078639 0.05236197 0.038780123 0.03276745 0.018301243 0.015807573 0.07122074
0.08654159 0.010697848 0.19148126 0.03228968 0.011933653 0.022084951 0.007818143 0.011912479
0.02091192 0.031160735 0.3418214 0.0071406662 0.027427878 0.012219845 0.012269053 0.019044619
0.016678078 0.22939084 0.03292431 0.166259 0.017497486 0.061987136 0.012797173 0.08572098
0.017959526 0.008726675 0.019218532 0.005320604 0.01558559 0.31228384 0.06122207 0.019404726
0.018038163 0.006391992 0.02086557 0.009152325 0.21258385 0.024109976 0.012150324 0.023492642
0.01004677 0.56586874 0.027260033 0.028647354 0.049781654 0.044127263 0.034045827 0.0044100555
0.19503663 0.1293941 0.028422356 0.272415 0.02441503 0.009752763 0.0318013 0.01840425
0.0112816915 0.0152193485 0.024741637 0.059635658 0.22585921 0.24076967 0.004983613 0.050979916
0.10317961 0.0087939305 0.011299794 0.1219442 0.006289872 0.066314146 0.09945322 0.080473684
0.05001263 0.20190156 0.02896913 0.01276945 0.007882711 0.057219766 0.045933384 0.0067011714
0.011861491 0.033337742 0.05446409 0.10100454 0.0065918295 0.124430954 0.014401836 0.14284134

weight f4 [64, 128, 9]
00000000: 9aaf 80bc 2d1e 55bb cacd 623c 3750 99bc
00000010: 05b5 97bc 9d4e 57bc d65e 17bb 80a4 20bc
00000020: dbf6 b23c 5e1b 08bb 3f2b c139 7102 ce3c
00000030: 390b 9a3c 0986 d73c d543 92bc 5189 dfbb
00000040: 8ae5 c4bc 9e08 ad3c f3d0 d93c db26 a83b
00000050: 2039 5b3c a4c7 cb3c 713e 36bb 8a24 003c
00000060: a098 a2ba 4a1b fd3b 0f1e 9d3c 8e9a e13c
00000070: 5a7a 5b3c c0b1 24bc e662 fb3b aa16 aabc
00000080: 5c26 49bb afff 3fbc 5c2d 4abc 658c eebc
00000090: e3f6 1f3c ffd5 973c 5d5b dbbb c2b1 d9bc
000000a0: 2ad0 bbbc 5431 d9bc c4f7 8c3c 7e2e d4bb
000000b0: 0240 04bd f91f c53c 3313 aabc 76f5 08bc
000000c0: cba6 bcb9 5794 4fba 057e 2f3c 6e98 0b3b
000000d0: 57d0 60bc feb4 b53b 4d0f e63c 3dbb a0bc
000000e0: eb44 243b 5a53 a03b 5359 7f3b a11d 88bc
000000f0: ba1e e03c 9608 19bc 462b dd3a c60b f63b
00000100: 441a ca3c 8750 2939 d8fc a6bc a04c a6bb
00000110: 600a f2bc dbd9 363a d21c 52bc 9a3d ddbc
00000120: 4a23 af3c a21b b4b9 d5d3 a53c ca09 143a
00000130: 3d8e fcbb 1e0f 95bc 8764 533a 16da 44bc
00000140: 708c 98bc 6ba8 debc e365 903c 8f45 843a
00000150: ad51 6939 9876 12bc 8e0f 9f3b fa36 acbc
00000160: 9432 5dbc d144 0abd c229 ac3c 25be 343c
00000170: 44b0 c23c dea3 d0bc 58e3 a0bc 0b23 87bc
00000180: db98 313c 567e ebbc 898e b6bc 4896 fcba
00000190: a077 4dbc addb 91bc ef8a dbbb f238 8e3c
000001a0: 301e 9b3c 6790 503c 8b22 0f3c 6d00 d53b
000001b0: ce65 663c c4aa e23c f0aa d4bc 8c53 f1bb
000001c0: b8ae f1bc 7811 9ebb 9e36 75bc 2a70 0cbc
000001d0: 2229 833a aee5 57bc 5c02 94bc 4716 fb3c
000001e0: 3b05 7b3c 06c3 acba 0419 8f3c 1ea1 fa3c
000001f0: 2d73 c9bb a06a 63bc ad41 d2bb e4c5 cd3c
00000200: 2e9a b1bc 3cde bcbb 0f00 2d3b cbd9 983c
00000210: 677e 263b a187 76bb 5aea aa3c 7f7c ce3c
00000220: e761 bebc 7319 df3c 74e7 acbc 6d60 cbbc
00000230: d4b7 cc3c 3274 f0bc 7076 3d3c a90d 5eb9
00000240: 36bf 1dbc 4f67 a43c 55a7 16bb 4039 fc3b
00000250: 0cfb 8abc 7215 30bc 8525 6a3b 7e9e 65bc
00000260: 110f 953b 7b28 33bb 7d4f 86bc 90bd 48bb
00000270: 5322 2bbd fd74 57bb d24d 81bc 589e 86bc
00000280: 4953 5bbb 96ac b3bc e5a7 f8bb a715 74bb
00000290: a5c3 67bc 9c2f d53c 12c3 f1bb 4a82 e5ba
000002a0: d736 d73b 6f97 77bc aea3 b1bb 0665 ab3b
000002b0: a7ae 52bc 1b37 423c ecaf ae3c 561c 653c
000002c0: b772 edbc f994 2bbb be6d 97bc 0084 a6bc
000002d0: cfa1 06bb 9618 05bc 3849 b8bc 217b f8bc
000002e0: b926 99bc 5227 95bc 8cbf 59bb 2f01 263c
000002f0: 7601 f5ba 5180 e6bc aa18 85bc 525b d33b
00000300: d08a 8a3a 1034 e03c 8f6c cb3c a7ba d43b
00000310: c5bc a73c f547 dfbc 5d8c 9dbb 8328 a73c
00000320: 4b61 163c 6dec 653c a2cc e5bb 74be 4b3c
00000330: 91b8 f7bb e6b1 a93c 80a2 5dbc dbbd 9fbc
00000340: 061e db3b a286 61bb 1850 0b3b 0758 163c
00000350: dec3 03b9 c9fa b8bc 53ab 8f37 e2d3 68bc
00000360: a405 22ba 1bb5 b23b f7ff fc3b 4ece f83c
00000370: 595a 473b edff 92bc c8b3 a63c ab13 aabb
00000380: 1be0 b1bc 2cbf c8bb c648 8dbc df2e e0bc
00000390: 5003 ccba 95db 7a3c 05a3 a4bc 3e3d 8b3a
000003a0: db46 e43b c1a7 f7bc c41f e4bb 484f d9bc
000003b0: b27b 42bc 16e1 993c 4b29 03bd 796b 9a3b
000003c0: 808a 8bba 1bec 04bd c2cc 9cbb a8e6 a1bc
000003d0: 3641 24bc b429 c5bb 6dbd b1bc 6033 ae3c
000003e0: f843 8a3c e6b6 553c df85 bc3c 888e ddbc
000003f0: cb16 cf3c 1895 41bb f633 e9bc 863c c4bc
-0.015708733 -0.0032519207 0.013843009 -0.018715007 -0.018518934 -0.013141301 -0.0023097298 -0.009804845
0.021846225 -0.0020768265 0.0003684405 0.025147649 0.01880418 0.02630903 -0.01785461 -0.0068217893
-0.024035234 0.021122273 0.026588893 0.005131585 0.013380319 0.02487547 -0.0027808214 0.007821212
-0.0012405105 0.0077242004 0.019179372 0.027539518 0.01339587 -0.0100521445 0.0076717017 -0.02076276
-0.003069303 -0.011718675 -0.012339916 -0.02911968 0.009763452 0.018534658 -0.006694241 -0.02657402
-0.022926409 -0.02651278 0.017207988 -0.006475269 -0.032287605 0.024063097 -0.020761108 -0.008359304
-0.00035982425 -0.00079185277 0.010711198 0.0021300572 -0.013721547 0.0055452576 0.028083468 -0.019620532
0.0025065492 0.004892749 0.0038963153 -0.01661569 0.027358402 -0.009340426 0.0016873858 0.0075087277
0.024670728 0.00016147095 -0.020384237 -0.0050750524 -0.029545963 0.0006975212 -0.012824254 -0.027006913
0.021379132 -0.00034352863 0.020242611 0.00056472106 -0.007707386 -0.018195685 0.0008063991 -0.012014886
-0.018621653 -0.027179917 0.017626708 0.0010091531 0.00022251038 -0.008939408 0.004854149 -0.021022309
-0.013500828 -0.033757035 0.021016005 0.011031662 0.02376569 -0.025468763 -0.019639656 -0.016496202
0.010839666 -0.028746765 -0.022284763 -0.0019270862 -0.012540728 -0.017804945 -0.006699912 0.017361138
0.018935293 0.012729741 0.008736263 0.006500295 0.014062358 0.027669318 -0.025960416 -0.007364696
-0.029502258 -0.00482386 -0.014966635 -0.008571664 0.0010006765 -0.0131773185 -0.018067531 0.030650271
0.015321071 -0.001318068 0.017467983 0.030594405 -0.006147763 -0.013880402 -0.0064165206 0.025118776
-0.021679964 -0.005763797 0.002639774 0.01865854 0.0025404932 -0.0037617462 0.0208637 0.025205849
-0.023240043 0.027233815 -0.02110646 -0.024826253 0.02499 -0.029352281 0.011563882 -0.00021176659
-0.009628108 0.020068793 -0.0022987921 0.0076972544 -0.016965412 -0.0107473 0.003572793 -0.014014838
0.004548915 -0.002733736 -0.016395325 -0.0030630566 -0.04178078 -0.0032876127 -0.015784178 -0.016432926
-0.003346639 -0.021932881 -0.007588374 -0.003724435 -0.014145766 0.026023678 -0.0073779905 -0.0017510143
0.0065678167 -0.015111788 -0.0054211235 0.005230549 -0.012859023 0.0118539585 0.02132412 0.013983807
-0.028985364 -0.0026181324 -0.018484946 -0.020326614 -0.0020543223 -0.0081235375 -0.02249585 -0.03033215
-0.018695222 -0.018207226 -0.0033225743 0.010132118 -0.0018692452 -0.028137358 -0.016247112 0.006450095
0.0010569934 0.027368575 0.024832038 0.0064919773 0.020475755 -0.027255991 -0.0048079924 0.02040506
0.00917847 0.014033419 -0.0070129195 0.012435544 -0.007559844 0.020714711 -0.013527513 -0.01949971
0.0066869287 -0.0034412523 0.0021257456 0.009176261 -0.000125661 -0.022580521 1.7126707e-05 -0.014210673
-0.000618065 0.0054537184 0.007720943 0.030371811 0.0030418842 -0.0179443 0.020349398 -0.005190333
-0.021713307 -0.006126305 -0.017246615 -0.0273661 -0.0015564952 0.0153111415 -0.020097265 0.001062311
0.0069664544 -0.030231358 -0.0069617946 -0.026527062 -0.011870312 0.018784087 -0.032021802 0.004712519
-0.0010646135 -0.03245173 -0.004785151 -0.019763306 -0.010025313 -0.0060169343 -0.02169677 0.021264732
0.016878113 0.013044095 0.023013053 -0.027045503 0.025279423 -0.002953833 -0.02846716 -0.023954641

bias f4 [64]
00000000: d442 993c 5482 20bd ddc8 12bc b421 3dbc
00000010: 3eaa 0d3b f5f8 813c eaa6 6dbc beb2 f9bc
00000020: 5c12 e2bb 4b58 82bc 763a 8cbc ed9c 603c
00000030: 34d4 8ebc 0cb6 9a3b 19ca babc 9030 1fbc
00000040: 3c19 1b3c 3bcb 33bc 77c7 c4bb 0834 d5bc
00000050: 1f8f d0bc e1fb ffbc 468c 623c 5d2d 15bb
00000060: acde 673c 5d43 f3bb 10a3 943b 078c d2bc
00000070: 64cc 083c 5e84 bbbc 074d 1a3d 525f fb3b
00000080: c617 193d 498b c33c 6861 19bd a838 993c
00000090: 2e13 2bbc b9e1 56bc f006 c73b 3f75 a3bc
000000a0: c1f4 c1bc b8db 093d c34b 94bc 9568 abbb
000000b0: b283 f738 0cf8 923c 5f87 e2bc 4a34 b4bc
000000c0: 6f57 353c 5dcb 4b3c c8cb 3f3c 93ad 6bbb
000000d0: 9567 cebb 2588 89bc ee6c 033d 2156 60bc
000000e0: 092d 5cbb 165c c23c 72e9 86bc 07c9 47bc
000000f0: 3955 7e3b 3be2 82bc d650 00bc e401 d23c
0.018708624 -0.03918679 -0.008959022 -0.01154368 0.0021616365 0.015865782 -0.014505127 -0.030480739
-0.0068991613 -0.015911242 -0.01711772 0.013709289 -0.01743517 0.0047214087 -0.022801446 -0.009716168
0.009466466 -0.010973747 -0.0060052234 -0.026025787 -0.02545887 -0.031248035 0.013827389 -0.0022762634
0.01415221 -0.007423802 0.00453604 -0.025701536 0.008349512 -0.022890266 0.037671115 0.007671275
0.037376188 0.023870127 -0.03744641 0.018703774 -0.0104415845 -0.01311534 0.006073825 -0.019953368
-0.023676278 0.033656806 -0.018102532 -0.005230973 0.00011802408 0.017940544 -0.02765244 -0.02199759
0.011068209 0.012438622 0.0117063 -0.0035961613 -0.006298969 -0.016788552 0.032086305 -0.01369241
-0.003359618 0.02372555 -0.016468737 -0.012193925 0.003880812 -0.015977016 -0.007831773 0.025635667

weight f4 [64]
00000000: 51c0 813f 0096 813f ea57 803f 170d 813f
00000010: 020a 833f d26b 823f 16b2 803f d496 823f
00000020: a95c 823f cc0f 823f a401 833f 37c4 823f
00000030: d40e 833f de9b 833f 70d3 823f 6404 823f
00000040: 6960 823f 113b 823f a046 823f 5e3e 823f
00000050: 636c 823f d72b 823f a84a 823f 683e 813f
00000060: bc9c 823f 5d0b 833f b8b7 813f 1b71 803f
00000070: 8c80 803f 5cac 823f d23c 813f 660c 813f
00000080: 783a 813f 371c 823f 3d2d 843f 90f9 833f
00000090: 48b2 813f e191 823f fb15 833f b612 823f
000000a0: 0755 833f 3da7 803f 8f17 813f 2561 813f
000000b0: 4c43 823f 2066 823f 1fb6 823f e2cb 813f
000000c0: 8302 813f a353 823f 90d2 813f 89af 823f
000000d0: 387b 803f 4e03 833f e0ab 813f d472 833f
000000e0: 77ce 803f d99f 823f 8c5c 813f 759e 823f
000000f0: eb51 823f 7609 833f 276c 813f 6910 823f
1.0136815 1.0123901 1.0026829 1.008212 1.0237429 1.0189154 1.0054348 1.0202279
1.0184528 1.0161071 1.0234876 1.021613 1.02389 1.0281942 1.0220776 1.015759
1.0185672 1.0174276 1.0177803 1.0175283 1.0189327 1.0169629 1.0179033 1.009717
1.0204082 1.0237843 1.0134192 1.0034517 1.0039229 1.020885 1.0096686 1.0081909
1.0095968 1.016486 1.0326306 1.0310535 1.0132532 1.0200769 1.0241083 1.016196
1.0260323 1.0051037 1.0085315 1.0107771 1.0176787 1.0187416 1.0211829 1.0140345
1.0078892 1.0181774 1.0142384 1.0209819 1.0037603 1.0235384 1.0130577 1.0269418
1.0063008 1.0205032 1.0106368 1.0204607 1.0181249 1.0237262 1.011113 1.0161258

bias f4 [64]
00000000: 4dfc 993c 7b71 ccbc d8d6 e53c 4253 e93c
00000010: 16ac d1bc a024 e0bc a093 e43c 7455 aebc
00000020: 10f8 aebc 0b08 6bba 1546 9fbc f47c d9bc
00000030: b89b dfbc 174c ccbb 27a5 c6bc 19d9 a2bc
00000040: 488a b8bc ef79 c93c 2153 a5bc 705f cebc
00000050: 6b89 e4bc aee7 97bc 48fc d7bc d2ac 953c
00000060: 9c12 783c 2e0a 163c fe58 a23c cec8 32bc
00000070: 6886 6a3c ff4c d8bc e398 953c 7ad5 f5bb
00000080: 1ca1 883c 7b69 2b3c 0320 d3bc 6dfc 863c
00000090: 50ab cebc 0ffb b1bc 14c4 d9bc 2f63 9b3c
000000a0: 1aed dabc 79a1 8a3c 639d b23c d651 6b3c
000000b0: 900c afbc 5ab8 d2bc 48e9 dbbc 68d1 93bc
000000c0: 717b be3c 623e c33c e964 aabc 031c debc
000000d0: bc96 4c3c 6831 eabc d693 9c3c 8827 d1bc
000000e0: 5c6e f53c fc3c d4bc 2a60 b33c ddaf e1bc
000000f0: 08a9 c7bc fa03 b4bc d468 2ebc 6e51 dd3c
0.018797064 -0.024956455 0.028056547 0.028482083 -0.025594752 -0.027361214 0.027902424 -0.021280982
-0.02135852 -0.0008965737 -0.019442597 -0.02654884 -0.027295932 -0.0062346566 -0.024248673 -0.01987891
-0.022526875 0.024594275 -0.02018124 -0.025191993 -0.027897557 -0.01854309 -0.026365414 0.018270884
0.015141156 0.0091577 0.019817825 -0.010912133 0.0143142715 -0.026403902 0.018261379 -0.007502255
0.016678385 0.01046216 -0.0257721 0.016477788 -0.025228173 -0.02172616 -0.026582755 0.018968193
-0.026724387 0.0169227 0.021803563 0.014362773 -0.021368295 -0.025722671 -0.026844636 -0.018044189
0.02325222 0.023833457 -0.02080007 -0.027112966 0.01248711 -0.028588012 0.019113462 -0.025531545
0.02995985 -0.025907986 0.02189644 -0.027549678 -0.024372593 -0.021974552 -0.01064511 0.027016368

running_mean f4 [64]
00000000: 3380 d63e 6028 3b3e 6b65 573e 6eea 163f
00000010: e5d9 eb3d 91ed d23e 2f3f 113f 2e2f ad3d
00000020: 48ec 3b3e dc24 c43d b2ad d43d 5d5c 063e
00000030: 3c3e 563e 4f83 2a3e c3b2 133e 7188 0f3e
00000040: 8904 533e 2f41 8c3e 4238 243e 1b14 1e3e
00000050: f228 043e 1e17 dd3d 7f13 003f 22c6 eb3e
00000060: cd4b ee3d b05e 1c3e 8778 e63e 829c 1e3e
00000070: 518d 893e 6095 633e 6c01 2b3f 8bdb f73d
00000080: 3e62 3e3f 11dd 0f3e 4afd c53d 142f 6c3e
00000090: 09a2 313e 9a80 0e3e cc93 9e3e ce57 bd3e
000000a0: 6719 143e 1990 d93e 64bd b43e 5688 e43e
000000b0: 4672 d93e c0bd 9e3e cc08 bf3d 1202 403e
000000c0: 0d6a f13e 1438 0c3f 1097 a53e 472d 343e
000000d0: 2a57 043e 1c2f f63d 6dde 0d3f 3925 483e
000000e0: eec5 e53e 29aa 843e c87a 5a3e 7162 7d3e
000000f0: 66ba be3d 09d5 283e 9a52 eb3d 7fae fd3e
0.41894683 0.1827712 0.21034782 0.5895146 0.115161695 0.41196874 0.56737036 0.084562644
0.18351853 0.09577343 0.10384692 0.13121171 0.20922178 0.16651653 0.14423661 0.14016892
0.20607199 0.2739348 0.16037086 0.15437357 0.12906244 0.10795425 0.5002975 0.460496
0.116355516 0.15270495 0.4501383 0.1548939 0.26865628 0.22224951 0.66799045 0.121024214
0.74368656 0.14049174 0.09667452 0.23064834 0.17346968 0.13916245 0.30972135 0.36981052
0.14462815 0.4249275 0.35300744 0.44635266 0.42469996 0.31004143 0.0932785 0.1875079
0.47151223 0.5477307 0.32341814 0.17595397 0.12923875 0.12020704 0.5541752 0.1954545
0.4487757 0.25911072 0.213359 0.24744584 0.093128964 0.16487516 0.114903644 0.49547192

running_var f4 [64]
00000000: 0cdb 6f3d 1f00 4f3e 2271 753d 3c69 003e
00000010: 0767 993d 1775 803f 53d3 da3d ca6c 1b3d
00000020: fd6b 333e 7e6f f43c 6b13 693d 3314 d83d
00000030: 1ebd c13d c279 b33d d992 ac3d 28f5 013e
00000040: 9526 a23e 9b51 8f3d 42b6 153e 2af8 353e
00000050: f09f 303d 9187 603d 5ed3 8d3f 23ec a43d
00000060: 3070 863d 07e2 853d 4df6 8f3d e9a7 9b3d
00000070: ec3f 8a3d 7457 c23e f8f9 683e 5912 8c3d
00000080: d085 313e 0ba6 ce3d 1018 9e3d cbd9 2b3d
00000090: 9736 703d cbe8 033e a6e0 073f 5f19 723d
000000a0: 6b8b 013e 3b9e 7d3d 6de0 a73d 03cc 983d
000000b0: 5abd 8b3f 2189 113f c177 423d e6fa 833e
000000c0: 0e12 fd3d 6266 c73d 0e2c 2c3f 8d57 473e
000000d0: d9c4 433d 3c6b e73d f5bf dd3d d32d 413e
000000e0: 2a9c 8d3d aa94 d03e f15c 593d f420 d13e
000000f0: c30e af3d 5a3d 043e 3064 f93d f0d4 a33d
0.05855851 0.2021489 0.059922345 0.12540144 0.07490354 1.0035733 0.10684838 0.037945546
0.17521663 0.02983832 0.056903284 0.10550728 0.09459899 0.08763458 0.084264465 0.12691176
0.3167006 0.06997987 0.14620307 0.17770448 0.04312128 0.054816786 1.1080129 0.08052852
0.06564367 0.06537252 0.070294 0.07600386 0.067504734 0.37957346 0.22751606 0.06839437
0.17336202 0.10090264 0.07719433 0.04195575 0.05864581 0.12881772 0.5307716 0.059106227
0.1265084 0.06191848 0.08197103 0.07460787 1.091716 0.5684987 0.047477487 0.25777358
0.12356959 0.09736325 0.6725472 0.19466992 0.04779515 0.1129975 0.108276285 0.18865137
0.069145516 0.40738422 0.05306715 0.40845454 0.085477374 0.12914029 0.121773124 0.07999599
