checkpoints/cnn1d/cnn1d.combined_data.pt (torch, 671381 bytes, 20 tensors)

weight f4 [64, 1, 9]
00000000: 8035 58bc ed17 db3d ed9c 483d 5817 053e
00000010: c094 8d3e c46b b6be c3fa e83d 59ab 913d
00000020: be05 c0be 9057 eabd 615f 573e 545a 40bc
00000030: d194 353e 47c2 1e3e 159c 07bc ab19 22be
00000040: 6c8b 2a3d 4138 95be c524 913e f662 b9bd
00000050: 26a3 04be 0dbe 963e 080e 27bb 085c afbe
00000060: 55e2 91be fb4f 063e e068 123e 7a50 253e
00000070: 0700 69be c1cc 85be e53d 913e e60f 043e
00000080: 4339 4ebe 92c2 f33b 3342 103d b9ff a1be
00000090: 1e1e 73be 9051 0bbe 7d46 f23d 2dd6 843d
000000a0: 2e91 463e f35a edbb cc06 813e 4eae 47be
000000b0: 0cac 5bbd 4a24 023c 2fc9 b23e 5e27 043e
000000c0: 8e58 263e 12f0 9d3e 2991 23be f17e 86be
000000d0: 49a0 5dbe d5e4 50be 13d8 09be 66f1 a3be
000000e0: b33b 88be aaa9 a5be fef7 2fbe e88c 42bd
000000f0: 8251 023e 9857 7cbd e002 3f3c 36f0 17be
00000100: 154a 0f3e 81db 323e 4e3a 97bc 5e4b 603e
00000110: 7618 f2bd 7b52 46bd 73fc 27be 96c5 0c3e
00000120: fb99 383e b170 593e 67de a9be 450b 153e
00000130: cce3 223e 2dc9 133d e5e1 a53d 03a2 873e
00000140: 7f65 b6be 92f1 4bbd b7d2 ae3e f95e 683e
00000150: 5593 b4bd eaec 6dbe fa38 81be 643c 0f3d
00000160: 1a27 e43d 59ee a4bd 4961 58be b974 22be
00000170: f91c b13e e3c5 68be 21d1 943c 0c4d b0be
00000180: d0cb 1fbe cfde 15be e9fa e7bc 9952 293e
00000190: e708 1bbe 0a7a 053e 17e3 62be 71cb 733e
000001a0: e484 71bd 0d9e 33bc f1be a2be 1810 683e
000001b0: 29e4 87be 1179 703c 7688 a33b c13d 86be
000001c0: 0365 9abd 4de9 233e e015 993e d387 503d
000001d0: 8ef9 fabc 12d3 033e 1d1d 8abb 86fd b93c
000001e0: 577d 32be 205b 383e d193 33be 88c0 ad3c
000001f0: c94b 17be 17d7 163e 9c64 6bbd fe5e 84bd
00000200: 8ce1 9bbe 5f10 97be 7e46 563e e2a1 acbe
00000210: c78f 683e b815 92be 5ee2 c03d 6824 e8bd
00000220: dcea 07be b47e 34bd 21c6 a73d f0ba 68be
00000230: fb94 263e 75cf a3bd 5fa4 873d 61a4 913e
00000240: 8a45 19be 52f7 b9be af36 603e 01c0 0b3d
00000250: c589 623e 685b 57be 3ebe 15bd 8fdc 6b3e
00000260: 40fa 653d b3e0 ab3e c2f7 143e 840a debd
00000270: 8e45 ccbc 560c 9bbe 0a1b 963e 5f2f 7e3e
00000280: 340d 2c3e 1938 bb3e 7c2e 153e 1600 77be
00000290: 49a8 9d3e fc43 ae3c 5a3e a9be 9544 02bc
000002a0: 2985 c53b 9055 35be c699 8c3e dd27 54be
000002b0: 06cf e63c 95bb 65bd 3ff8 34be 3426 f63d
000002c0: c6e0 503e 732d e83d 2b0c adbe 1f83 68be
000002d0: 1693 ad3e 17b5 54be 4491 143d fce3 ab3e
000002e0: 48df 863e d5d4 1a3e c4ce 513d 3fde 223e
000002f0: fb64 98bd db0e 633e 3667 963e 6e19 423e
00000300: 7f72 b03d 8326 95be ae31 38be aa36 13be
00000310: 8065 6fbe a2b5 673d c816 633d a6fb f7bd
00000320: a60f 313e e8d7 05be 160e f8bd c0b6 2cbd
00000330: 0054 a9ba c0be 13be b0fe b73c e82b 18be
00000340: 91bb 283e 5eb7 a43c e370 7e3b 5b41 573e
00000350: b1f1 0d3d 5f8b 91be 5f90 7bbe 3556 903e
00000360: 19e0 1ebe 66fd a7be a09b 59be 4378 863e
00000370: 19c8 ba3d 6b17 933e 8b4b 10be 572d ddbd
00000380: 6673 1fbe ac6d e2bd 30e4 5dbc 2af9 f3bc
00000390: 0bdd e4ba 9e08 debc c81a 8abe b247 70be
000003a0: adb6 3ebe 06e4 be3c 0c67 983e 5275 96be
000003b0: 8c7b b1bd be82 953e 94cd b9bd f691 cdbd
000003c0: 4f52 783e 9d4d 96be 46c5 e33d 996c 383e
000003d0: a398 d0bc 7970 053d a74d 74be 07e7 a73c
000003e0: 3ba9 ebbd 1da7 5f3e 49b4 053e 1dae 9d3e
000003f0: f3a8 f5bd 09b6 93be 7ec6 96be df59 89be
-0.013196349 0.10697923 0.04897778 0.12997186 0.2765255 -0.35629094 0.11375954 0.0711276
-0.3750438 -0.114424825 0.21032478 -0.011740286 0.1773255 0.15503798 -0.008276959 -0.15830104
0.04163687 -0.2914448 0.28348365 -0.090520784 -0.12952861 0.29441872 -0.002549054 -0.34249902
-0.2849299 0.13116448 0.14297819 0.1614398 -0.22753917 -0.26132777 0.28367534 0.1289669
-0.20139031 0.007438966 0.035219382 -0.31640413 -0.23741958 -0.13605332 0.11829851 0.06486163
0.19391319 -0.007243508 0.25200498 -0.19500086 -0.053630874 0.007943222 0.34919116 0.12905642
0.16244718 0.30847222 -0.15973343 -0.26268724 -0.21643175 -0.20399792 -0.13461332 -0.3202011
-0.26608047 -0.32356006 -0.17184445 -0.04749766 0.12726405 -0.061606973 0.0116584 -0.14837727
0.13993104 0.17466547 -0.018460419 0.2190375 -0.11821072 -0.048418503 -0.16404895 0.13747248
0.18027489 0.21234395 -0.33177492 0.1455508 0.1590721 0.036080528 0.080997266 0.26490793
-0.3562431 -0.049790926 0.34145138 0.22692479 -0.08817164 -0.23234907 -0.25238782 0.034969702
0.111402705 -0.08053274 -0.21130861 -0.15864839 0.34592417 -0.22731738 0.018166127 -0.34433782
-0.15605092 -0.14635776 -0.028317885 0.16535415 -0.15140115 0.13034835 -0.2215694 0.23808075
-0.058964625 -0.010962975 -0.31786302 0.2266239 -0.2654126 0.014677302 0.0049906326 -0.2621899
-0.07538798 0.16006966 0.29899502 0.050910782 -0.030636575 0.12873486 -0.0042148964 0.022703897
-0.17430626 0.18003511 -0.17536856 0.02120997 -0.14775003 0.14730488 -0.057468995 -0.06463431
-0.30445516 -0.29504678 0.20925328 -0.33717257 0.22711097 -0.28532195 0.09418176 -0.11335069
-0.13273185 -0.044066146 0.08192087 -0.22727561 0.16267769 -0.07998554 0.06623148 0.28445724
-0.14967933 -0.36321503 0.2189586 0.034118656 0.22122867 -0.21030962 -0.036558382 0.23033355
0.05614686 0.3356987 0.14547637 -0.108418494 -0.02493551 -0.3028285 0.29317504 0.24822758
0.16801912 0.36566237 0.14568514 -0.24121127 0.30792454 0.021272652 -0.33055383 -0.007950922
0.006027837 -0.17708421 0.2746107 -0.20718332 0.028174888 -0.056087095 -0.17672823 0.120190054
0.20398244 0.11336794 -0.33798346 -0.22706269 0.3390128 -0.20772205 0.03627135 0.33572376
0.26342225 0.15120251 0.051222578 0.15905093 -0.074411355 0.22173636 0.2937562 0.18955013
0.086155884 -0.29130945 -0.17987701 -0.14376321 -0.23378563 0.056569703 0.055441648 -0.12108545
0.17291126 -0.13070643 -0.12112062 -0.04216647 -0.0012918711 -0.14428234 0.022460312 -0.14860499
0.16477801 0.020106968 0.003882461 0.21021025 0.034654323 -0.28426644 -0.24566792 0.2819077
-0.15515174 -0.32810515 -0.21250772 0.26263627 0.09120197 0.28728804 -0.14091317 -0.107996635
-0.15571365 -0.110560745 -0.013543174 -0.029781897 -0.0017460895 -0.027103718 -0.26973557 -0.2346485
-0.18624373 0.02330209 0.2976612 -0.29386383 -0.08666143 0.2920131 -0.09072414 -0.100376055
0.24250148 -0.2935609 0.11121611 0.18010177 -0.025463408 0.032577965 -0.23857747 0.020495905
-0.115068875 0.21841092 0.13057055 0.307969 -0.11995115 -0.2884982 -0.29448313 -0.2682638

bias f4 [64]
00000000: 8c5d e93d 7aa6 103e 1bc1 b93a a578 66be
00000010: f562 d03d a24d 3ebe 3e45 7cbe 8b9d ffbd
00000020: 3cdc a83e 73b4 82be 2200 c6b8 e176 0b3b
00000030: ad5f 01bc 3b8d d43b 11a7 48be b92a 0eba
00000040: 867c 543e 721a d4bd 24c6 793a 3f56 5c3c
00000050: b823 86bd edba 233c 0398 75be 8054 f5bd
00000060: fdcf 6f3e 16dc 533e 7cc3 3abe db2f 43be
00000070: 8ead 8fbe bf6a 283e 3689 743a b4c4 403e
00000080: 4602 10bd 054a 003d b4f9 3ebd 3c3c 78be
00000090: c072 17be f1fd 833e 19c8 84bd e195 893d
000000a0: cea9 233c 36ef 513e 727d b6be 199e 003c
000000b0: f1f6 0dbe ef25 80bc 1f92 51bd 70a9 843e
000000c0: ffd6 22be 17a0 063b e629 60be b781 4fbb
000000d0: 5e05 303e 98e3 6e3e 2be7 5a3e b05b 653e
000000e0: e232 6e3d 9e2d 44be 3388 293e b54a 8f3b
000000f0: cca2 50bd 9252 d0bd 4978 823e 9e04 3cbd
0.11394796 0.14126006 0.001417193 -0.2250696 0.101751246 -0.18584302 -0.24635789 -0.12481221
0.32980525 -0.25528297 -9.4414005e-05 0.0021280574 -0.007896346 0.0064865625 -0.19594981 -0.0005423236
0.20750627 -0.103566065 0.00095281214 0.013448297 -0.065497816 0.009993297 -0.23983769 -0.11979008
0.23419185 0.20689425 -0.18238634 -0.19061224 -0.280621 0.1644697 0.00093283074 0.18825036
-0.035158418 0.03132059 -0.046624854 -0.24241728 -0.14789867 0.2577968 -0.06483478 0.0671804
0.009989215 0.20501408 -0.35642582 0.007850193 -0.13863732 -0.015643088 -0.051164743 0.2591052
-0.15902327 0.0020542198 -0.21890983 -0.003166301 0.17189547 0.23329008 0.21377246 0.22398257
0.058153994 -0.19158027 0.16555862 0.0043729194 -0.050936505 -0.10171999 0.25482395 -0.04590284

weight f4 [64]
00000000: d935 643f 8afe aa3f e28c a23f 8a79 7c3f
00000010: 7015 653f 3b66 873f 0000 803f 85c7 5e3f
00000020: c025 643f 85ea 863f b8b0 8f3f 029a ae3f
00000030: 7086 883f 50fd 903f 93c2 733f 3460 903f
00000040: c40c 7d3f 00ba 633f 8236 a63f 5b4a 803f
00000050: 5914 6c3f 0ef1 a53f 0000 803f ad4b 863f
00000060: 70a7 683f 0f3a 673f 47ff 6d3f f887 5e3f
00000070: aa8f 833f c72c 6d3f ea7a a83f 5fed 633f
00000080: b565 913f 4a4f 803f 05a4 663f 1141 843f
00000090: dcf4 8b3f e30e 643f e33a 6b3f 99db 5c3f
000000a0: 69f8 b13f 1c07 633f 53da 773f c451 7a3f
000000b0: d9a2 673f ef5a 6a3f bd25 7a3f 2361 6b3f
000000c0: 2a64 683f b359 ca3f da7f 843f 4eac 983f
000000d0: 51a7 783f 1154 6d3f c311 633f f79c a73f
000000e0: ca9e 9f3f fcb4 733f 71f9 6a3f 1b1d 803f
000000f0: d43e 933f 2e5b 8a3f c4a0 643f e055 973f
0.89144665 1.3358929 1.2699244 0.98622954 0.89485836 1.0578073 1.0 0.8702319
0.891201 1.054032 1.1225805 1.364075 1.0666027 1.1327305 0.9521877 1.1279359
0.98847604 0.8895569 1.2985384 1.0022691 0.9221855 1.2964189 1.0 1.0491844
0.9088049 0.90322965 0.9296765 0.8692622 1.0278218 0.9264645 1.316251 0.89034075
1.1359164 1.0024197 0.90094024 1.0332357 1.09341 0.89085215 0.9188673 0.8627258
1.3903934 0.88682723 0.9681751 0.97781014 0.9048286 0.91545004 0.97713834 0.91945094
0.9077784 1.5808624 1.0351517 1.1927583 0.97130305 0.927064 0.8869898 1.3094777
1.2470334 0.95198035 0.9178687 1.0008882 1.1503549 1.0809076 0.8930781 1.1823082

bias f4 [64]
00000000: da91 9fbb 37d7 c93c 2514 a83d 6255 47bd
00000010: 5a34 febb 8d34 f0bb fa62 b53d 01bf d53d
00000020: bf42 2d3d 774f c33d 7068 d2bc 20b5 1e3d
00000030: a50d 613d 9aaa 563d 64bb b0bd 67a0 a43d
00000040: 81fe 803c 85f7 c0bc 7ae5 d63d 2f13 dd3c
00000050: 90cb 643c 241a 453d a5bf cebd ecb5 5e3d
00000060: e082 b83d dac4 833d f4ed 55bd 8e44 313d
00000070: 612e a33d 45ec 7c3d 355c a33d 3f1c 463d
00000080: ae6c 3d3d 030c a53a 7ded d1bc efbe c03d
00000090: 3bb2 733d ac6e 873d 741f 063c 636d 3c3d
000000a0: 20be 213c bb77 35bc 0105 a1bd 0b5a 013d
000000b0: 833e f73c ba5e 4b3c ac40 91bd 2648 513c
000000c0: e571 533d 233b 5f3d eea5 373d 457d c63d
000000d0: 583d 753d 8c0b 3fbc 08ec 153d 4cac 8a3c
000000e0: 3e1c d33c 3288 863d d5dc 8b3c 91b2 183d
000000f0: b00e 9b3d 32b1 ac3c 23a8 873d 5030 a93d
-0.004869682 0.024638755 0.08206967 -0.04866541 -0.0077577056 -0.0073304833 0.08856769 0.10436822
0.042299982 0.09536641 -0.025684565 0.038746953 0.054944653 0.052408792 -0.08629492 0.08038407
0.015746357 -0.023555527 0.10492988 0.026986687 0.013964549 0.048120633 -0.10095147 0.054372713
0.090093374 0.06434031 -0.052228883 0.04327827 0.079678304 0.06174876 0.079765715 0.04836678
0.046246223 0.0012592081 -0.025625939 0.09411418 0.059496146 0.06612906 0.00818621 0.046002757
0.0098719895 -0.011075909 -0.078622825 0.031580012 0.030181175 0.012412721 -0.07092413 0.012773549
0.05162229 0.054499757 0.044835977 0.09691862 0.059872955 -0.011660468 0.03660205 0.01692786
0.025770303 0.06568946 0.017073074 0.03727967 0.07571161 0.021080587 0.066238664 0.08261168

running_mean f4 [64]
00000000: 232c ec3d f7bd 103e 4f8d 913b f0fd 2530
00000010: bca6 ce3d 116c 0839 0000 0000 6f83 d43a
00000020: 4e4a 073f 0823 2336 3606 bf35 3623 6f3b
00000030: fca9 1a39 a337 b43b d376 4523 58ab 993a
00000040: f3c1 543e fa7d ef3e b845 3e3b 7de7 e138
00000050: cb3d f13e f1a6 2a3c 0000 0000 e417 2d38
00000060: 7872 e63c b199 bc3b 9e99 8e36 83ad a43d
00000070: 3f8c 0835 7c57 b43c 802e 233b 22bb 973b
00000080: a16b 433a 7cc1 013d b3c6 383f 1f5c d135
00000090: 4808 7b37 311c 993c 8fe8 813e 69bf 4e3a
000000a0: 01d8 2b3c 6260 7d3d c719 da29 9dc7 263c
000000b0: 71b9 7d3d ab55 243f ab28 e432 090d 963e
000000c0: 4fe7 983d b27b 583b 81c6 a338 4558 e13a
000000d0: 1a9d 913c 2685 6f3e 0666 083c 97c3 643e
000000e0: df8f 6f3d 18d1 023d 84b6 4d3e 3a29 a13b
000000f0: 0c89 ac39 cbec d539 175a bb3b 531d c839
0.11531856 0.14134966 0.004441894 6.0387517e-10 0.10090396 0.00013010229 0.0 0.0016213487
0.52847755 2.4309284e-06 1.4232417e-06 0.0036489493 0.00014749909 0.0054997965 1.0704553e-17 0.0011724038
0.20777111 0.467758 0.0029033255 0.00010771954 0.47117457 0.0104157785 0.0 4.1268664e-05
0.028130755 0.005755626 4.249813e-06 0.08040907 5.0868033e-07 0.022014372 0.0024899542 0.0046304623
0.00074546976 0.03167866 0.7217819 1.5598524e-06 1.4962694e-05 0.0186902 0.2537274 0.00078867987
0.010488511 0.061859496 9.6856164e-14 0.010179427 0.06194443 0.6419322 2.6561187e-08 0.2930682
0.074659936 0.0033032713 7.80942e-05 0.0017192444 0.017775107 0.23390636 0.0083251055 0.22340237
0.058486816 0.03193769 0.20089155 0.0049182447 0.00032908504 0.0004080295 0.0057175267 0.0003816882

running_var f4 [64]
00000000: 484a e838 2ea9 cb38 aa86 aa38 c9c1 842e
00000010: f5ed ce38 f2c7 8237 0400 0000 554b 4f38
00000020: 0d0b 8b3b 01b4 8434 306e b733 b6f9 0838
00000030: 2051 4a37 8b9f 9637 07d4 cf20 9714 1a38
00000040: e35e 1339 feb9 053d efcd 3938 140e ef35
00000050: 6b09 f03c 7518 1e39 0400 0000 e7db 6536
00000060: 1e40 1c3b 7cd9 4e3a 00bd 8e34 8769 8c3b
00000070: 8a48 4a33 7b6c 9e3a 9378 6437 4a37 1e3a
00000080: bca2 bc38 1a1c a338 db3f 793d d66c 5234
00000090: 0670 b935 b5c2 123b 8661 253c 5cdd 3538
000000a0: 96ba 8838 3f68 f93a 8b32 9926 d2df 0039
000000b0: f7e7 1f3b 06ef 373d b41e 0330 c2f0 2339
000000c0: d124 5e3b 09ad 3338 403d 4836 f4e4 b138
000000d0: 174b a13a e8a8 3739 dc9e 893a 03ed 6838
000000e0: 8bc6 cf38 c494 e53a b5f0 9239 bd4e 4a38
000000f0: 13d6 9337 1170 2738 1f2a 873a ce40 b037
0.00011076458 9.7113065e-05 8.131315e-05 6.037088e-11 9.8671684e-05 1.5590314e-05 6e-45 4.9422804e-05
0.0042432607 2.4717886e-07 8.5416445e-08 3.265749e-05 1.2059027e-05 1.7955686e-05 3.5207472e-19 3.6735637e-05
0.0001405436 0.03264808 4.4299228e-05 1.7810985e-06 0.029301366 0.00015077165 6e-45 3.425166e-06
0.0023841928 0.0007890684 2.6587077e-07 0.004285041 4.7097764e-08 0.0012086773 1.3617932e-05 0.00060354604
8.99485e-05 7.77768e-05 0.060851913 1.9597368e-07 1.3816177e-06 0.0022393886 0.010094052 4.335992e-05
6.51974e-05 0.001902826 1.0630207e-15 0.00012290411 0.0024399736 0.044905685 4.7701154e-10 0.0001563458
0.0033896456 4.2838077e-05 2.9837975e-06 8.4826635e-05 0.0012305704 0.00017515162 0.0010499614 5.5533845e-05
9.907511e-05 0.0017515649 0.0002802663 4.8233884e-05 1.7623452e-05 3.9920273e-05 0.0010312236 2.1011012e-05

weight f4 [128, 64, 9]
00000000: 8382 bdbc 0dd1 d93c 2331 303c 3fd9 dcbc
00000010: 67df f4b7 b9d4 9bbc 0850 9a3b fd52 aa3c
00000020: ef09 d6bc 0b69 2abd d717 3b3c 9166 89bd
00000030: cfc1 023d 77e4 673d 2aa1 90bd beb5 ecbc
00000040: bf23 6b3d f0a1 623d aa4d bbbd 9270 1b3d
00000050: 8e95 81bd 02fd 0dbd e352 163d e8d5 4b3c
00000060: a103 30bd de0d 80bd d713 6f3d cfb0 4a3d
00000070: 5c26 003d 727e bf3c 5407 6ebb 3051 513d
00000080: ce64 88bc 4451 ad3b 344d e8bb 9069 913b
00000090: 2910 e63c 4a11 4abc 4fa0 643c dda8 c2bc
000000a0: 1344 c5b9 4a42 86bc 23c1 cb3c 72ac 443d
000000b0: 29af b4bb 1fa6 acbb cb8e 3f3d 9ebe c73c
000000c0: 2d98 693d c698 fcbb dbe1 fbbc ea1b 1abc
000000d0: 4f4c 4b3d 9a1a bb3c e537 27bc 6758 bfbc
000000e0: 5959 cfbc 1290 52bc 5446 cb3b 8204 5c3b
000000f0: 5698 1bbc 9a7a 02bd c3a3 d1bc 473e 88bc
00000100: 9040 f5bc 99d1 11bc dc7c f6bb df34 93bb
00000110: cbb8 cb3c b9c4 b43a 01d7 e23c 2f5c 373d
00000120: 8f2f 17bd 9596 1cbd cc9a b13b 09f4 c53c
00000130: 8fd2 0f3d 7427 c03c 561e 07bd bc8a caba
00000140: eb4a 4cbc 42b6 a5bc c0bb cfbc 87f5 10bd
00000150: c069 0abd 5213 08bd 7720 fabc 904c 35bd
00000160: 8eb5 383c cef1 9ebc 4eb9 ac3a 5912 b13c
00000170: 9605 21bc 4ad8 843d f224 033d b178 163d
00000180: a9ea 573d 9c4c c4bc abe6 d93c 8d6b c4bb
00000190: 0a52 f23b eee6 87bc c526 093b 9b82 23bd
000001a0: 4f83 21bd 2883 993b 0cf1 1cbd a975 2b3c
000001b0: 1fe1 afbd 64b1 9d3c a478 47bd 346f 41bd
000001c0: c756 88bd b620 53bc 8c27 f9bb 1dbc f7bc
000001d0: 9d55 0fbd 52b9 e0bc 9596 c53c 6068 0bbd
000001e0: 63e6 28bc f1ee 91bc db69 de3c b05e 103b
000001f0: bcae 34bd e6d3 b13a 0cb2 85bc 9b99 2a3b
00000200: 36ee 1c3c 1c3e 313d 9020 123c a926 273c
00000210: 238d 313c 30f8 8abb 59d5 153d dbf7 033a
00000220: a46f 6dbb d4d9 363c 4a0b 983c ff19 bdbb
00000230: 7975 9bba ddef eebc 26c4 ee3c 8e2b 563d
00000240: 72e8 1dbc d553 c83c d6d9 5abc ad11 103c
00000250: b0b7 503d 5f78 2cbc e80c 323b 74aa 063c
00000260: e437 18bd b424 f03c d4d5 133d 0810 0e3d
00000270: a2aa 1b3d e52e ee3c 4dcb 0fbd fa3b bdbc
00000280: be5d 8cbc 2b70 f13c 0bae e73a 8d9a 78bc
00000290: 9d01 d1bc c9b9 0c3c a97b 893c fc6b 473c
000002a0: 38bf 553c 5f5a c0bc 1e46 b93c 3e87 123c
000002b0: b61d 743c a886 91bc 5166 1abd b1b7 5ebc
000002c0: def2 f6bc 912a 2cbd f79a cebc 2619 fcbc
000002d0: f914 093c ecf5 b93c b1fd 26bd 3c4a c13c
000002e0: cb9b 463c abba 22bd 6698 13bb c059 df3a
000002f0: 4801 c7bc 7de2 80bd 08a7 e03b 1dc3 57bd
00000300: 7011 073c d07a 663d 4d14 153d 9b97 c7bb
00000310: 3aea 84bc db78 b53d 276b b6ba 7ad9 a73c
00000320: a97b 293d dc60 fcba 68d6 2c3d 84be 603d
00000330: 4b44 92bc b77f 0f3c c886 843c e1e4 9e3c
00000340: 0d4c c63c e38a 48bd e63e 963c cb07 be3c
00000350: 1cde 53bc b6e6 f8bc 8bea 053d 5964 c4bc
00000360: 84ec 7dbd e3a1 34bd e2bd 28bd 86ab a9bb
00000370: 4b87 b6bc 6254 90bc 7799 f4bb 79a9 28bd
00000380: 848c 7abc 6ec9 153c 6fd2 ffbc 21d4 023d
00000390: 2730 f8bc 64de a63b 70fc 1a3d 6bc5 253d
000003a0: f450 c7bc 6ef8 663c 4fd5 d638 83eb 5cbc
000003b0: 3880 5bb9 5309 8a3d 0f75 ca3c bd77 1abc
000003c0: 2649 ca3b e502 9b3c 2714 adbc c8e8 30bb
000003d0: 7500 053d d6e6 20bd 2fe5 853c a8c9 763c
000003e0: 7944 103d c342 053c c38a a53c a7bb d1bb
000003f0: 10fd 86bd 000a 62bc c9cf 0bbd 4e64 f9bc
-0.023133522 0.026588941 0.010753903 -0.02695906 -2.9191096e-05 -0.019022333 0.0047092475 0.020791525
-0.026127784 -0.041604083 0.011419258 -0.06709016 0.03192311 0.056614365 -0.070619896 -0.028895255
0.057407137 0.055330217 -0.091456726 0.037949152 -0.063273534 -0.034665115 0.03670014 0.012441136
-0.04297221 -0.06252645 0.05836853 0.049485024 0.031286582 0.023375724 -0.0036320286 0.051102817
-0.01664963 0.0052892286 -0.0070892815 0.004437633 0.028083878 -0.012333224 0.013954236 -0.02376216
-0.00037625487 -0.016389031 0.024872368 0.04801602 -0.005514045 -0.0052688266 0.046767037 0.024382886
0.05702989 -0.0077086417 -0.030747345 -0.009406069 0.04963332 0.022839833 -0.010206197 -0.023357583
-0.025311159 -0.012851732 0.006203452 0.0033572023 -0.009496769 -0.031855203 -0.025590783 -0.016631259
-0.029938012 -0.00890007 -0.0075222086 -0.0044923867 0.02486839 0.0013791538 0.027690412 0.044765648
-0.03691059 -0.038229544 0.0054200646 0.024164217 0.035112914 0.023456313 -0.032987915 -0.0015452723
-0.012469034 -0.020228509 -0.02535808 -0.035390403 -0.033792257 -0.03322155 -0.030533059 -0.04426247
0.011273755 -0.01940241 0.0013177784 0.021615194 -0.009827992 0.06486566 0.032017656 0.036736194
0.052714024 -0.023962311 0.026599249 -0.0059942664 0.0073950337 -0.016589608 0.002092765 -0.039919477
-0.039431866 0.0046848245 -0.038315818 0.010465064 -0.0858786 0.019249626 -0.048699036 -0.047225192
-0.066571765 -0.012886217 -0.0076035913 -0.030241067 -0.034993757 -0.027432118 0.024119655 -0.034035087
-0.010308835 -0.017814131 0.027150085 0.0022029094 -0.044111952 0.0013567179 -0.01632025 0.0026031497
0.009578278 0.043272123 0.008918896 0.010202088 0.010836872 -0.004241012 0.036580417 0.0005034187
-0.0036229873 0.011160333 0.01856007 -0.0057709212 -0.0011860571 -0.02916711 0.029146265 0.05228763
-0.009637939 0.024454037 -0.0133576 0.008793277 0.050956428 -0.010526746 0.0027168337 0.00821935
-0.037162676 0.029314376 0.036092594 0.034683257 0.038004525 0.029075095 -0.035105992 -0.023099888
-0.017134544 0.029472431 0.001767577 -0.0151735665 -0.025513465 0.0085892165 0.016782599 0.012171742
0.013046078 -0.023480592 0.022616442 0.008943377 0.014899662 -0.017764404 -0.037695233 -0.0135936
-0.030145105 -0.042032782 -0.025220377 -0.03077371 0.008366817 0.022700273 -0.040769283 0.023594968
0.012122105 -0.0397288 -0.0022521256 0.0017040297 -0.024292603 -0.06293199 0.006855849 -0.05267631
0.0082439035 0.056269467 0.036396313 -0.006091071 -0.01622497 0.08860942 -0.0013917432 0.020489443
0.041377697 -0.001925494 0.04219666 0.05486919 -0.01785483 0.008758477 0.01617755 0.019396247
0.024206186 -0.048960578 0.01834054 0.023197075 -0.012931373 -0.030383449 0.03269438 -0.02397363
-0.061993137 -0.0440997 -0.04119671 -0.005177918 -0.02228131 -0.017618362 -0.0074645835 -0.041177247
-0.015292291 0.009142263 -0.031228272 0.031940583 -0.030296398 0.005092429 0.0378384 0.040471476
-0.024330594 0.014097316 0.00010244047 -0.013483885 -0.00020933233 0.0674006 0.024714021 -0.009427962
0.0061732708 0.018922279 -0.021127773 -0.0026994217 0.03247114 -0.039282642 0.016344635 0.015062727
0.03522155 0.008133593 0.020207768 -0.0064005437 -0.065912366 -0.0137963295 -0.034133706 -0.030443337

bias f4 [128]
00000000: 11ef 9f3c ebec abbc bc81 89bd e390 9fbc
00000010: b526 08bd 1bd0 9cbc e79b f0bc 8751 84bd
00000020: 351d 4ebd 26b4 41bc 5fba 283c 0933 42bd
00000030: ba52 8fbb 4ba1 dcbc e35f 09bd 6a6e 37bd
00000040: 1b3c 55bb 4730 92bd cf64 99bc d17f a4bd
00000050: 3682 dabd a727 323c cbfc 98bd e42a 21ba
00000060: fa9b c53b 5dc5 a93b 1a7e 4abd 2793 00bd
00000070: 37e4 af3c 1bdb 9a3c 7efb f8bc 2c64 c53b
00000080: 8240 12ba 4a74 06bd e282 1e3c fa28 35bd
00000090: 9b54 86bd 4921 3abd 9eac 9abc be58 33bc
000000a0: 50b6 04bd 153b d2ba ca87 0cbd 3142 0bbd
000000b0: 04b6 f7bc cdd9 e2bc 7319 b2bb b44f 14bd
000000c0: c490 5cbc f441 6fbd 4459 afbb e7b8 40bd
000000d0: ecaa 08bc 28d1 0dbd 44d0 803c 3af0 13bd
000000e0: dbdf fabb 8606 693c 0021 abbc 53b7 38bd
000000f0: ff1d fdbc b9bd 8d3c f886 92bc f02f 463c
00000100: 226d b5bc b9cf f3bb 322c 35bd 84c5 a4bc
00000110: 40ca 61bd 974b 50bd b3be b7bc d9f9 6bbd
00000120: 5614 edbc d3a4 553c 3ff4 5ebd b028 12bd
00000130: dee4 86bd 2210 d3bc 4a1f c5bc 4cd6 f0bc
00000140: 0864 42bb 6f8e 84bc 2c50 4c3c 8567 65bc
00000150: 21a6 15bc 15c5 04bc b5b6 453b 088b b2bd
00000160: 920c 20bd be2d 49bd 2dbc f4ba 8413 ebbc
00000170: 7f81 4c3c 3a7a 89bd 000e dbbb 97f0 80bb
00000180: 1dc1 0fbc fe60 8ebd e4b7 c43a ebed cabc
00000190: 81e7 5dbd ae05 c6bd cafc 2ebd 6a72 8cbd
000001a0: 5412 aabc 45a0 703a 07e0 14bd a8cc 0abd
000001b0: 1aaa 133b 0d96 d3bc da77 33bd 40d1 a4bd
000001c0: db8a dabc 024f 283c 2315 04bd d05b e0bc
000001d0: 8e01 50bb 6965 1fbc f7b9 26bd 75c8 013b
000001e0: b753 50bc 8901 89bc 30bc f13b da9f 1e3d
000001f0: 7aed 26bd 5172 90bd 79be d7bc 2182 7e3b
0.019523175 -0.020986995 -0.06714198 -0.019478267 -0.03324004 -0.019142201 -0.029371215 -0.064608626
-0.050320823 -0.011822736 0.010298341 -0.047411952 -0.0043738754 -0.02693238 -0.03353871 -0.044783033
-0.0032537046 -0.071381144 -0.018724827 -0.080321915 -0.10669367 0.010873712 -0.074700914 -0.0006148054
0.0060305567 0.0051809982 -0.049436666 -0.031390335 0.021471126 0.018903306 -0.030393358 0.0060239043
-0.00055790704 -0.032825746 0.00967476 -0.04422853 -0.06559106 -0.0454419 -0.018881138 -0.010946451
-0.03240043 -0.0016039336 -0.034309186 -0.033998672 -0.030238159 -0.027691746 -0.0054351627 -0.036208823
-0.013462249 -0.058412507 -0.0053512175 -0.047051337 -0.008341532 -0.034623295 0.015724309 -0.03611777
-0.00765608 0.014222747 -0.020889759 -0.045096707 -0.030898092 0.01730238 -0.017886624 0.01209639
-0.022146765 -0.007440534 -0.0442316 -0.020113714 -0.05512452 -0.050853338 -0.0224298 -0.05761132
-0.028940361 0.013039785 -0.05443215 -0.035683334 -0.06586622 -0.025764529 -0.024062771 -0.02939906
-0.0029661674 -0.016181199 0.012470286 -0.014001732 -0.0091338465 -0.008103629 0.0030168716 -0.08717924
-0.039074488 -0.04911589 -0.0018671803 -0.02869583 0.012482046 -0.06712766 -0.0066850185 -0.0039349305
-0.008774069 -0.069520935 0.0015008417 -0.024771651 -0.054175857 -0.09669052 -0.042721547 -0.0685776
-0.020760693 0.00091791555 -0.03634646 -0.03388658 0.0022531808 -0.025828386 -0.04381547 -0.08047724
-0.02667754 0.010272743 -0.03224672 -0.02738753 -0.0031739208 -0.009728768 -0.040704694 0.001980332
-0.012715272 -0.016724365 0.00737717 0.038726665 -0.04075382 -0.07053054 -0.026335942 0.0038834887

weight f4 [128]
00000000: 0ac6 663f 7720 7e3f 0249 7a3f dcc7 783f
00000010: 64c3 6a3f 5e10 663f 7e04 6d3f 6d9e 813f
00000020: 1716 6b3f eaa6 6c3f 63b3 6c3f 2a62 7f3f
00000030: 0a93 6f3f 1a31 743f 179b 633f 877d 7a3f
00000040: 94ee 7f3f 90a6 823f 2cc5 873f e70a 7a3f
00000050: b00d 793f e864 803f 452b 603f a659 863f
00000060: fe1f 6a3f d0c9 613f 1446 783f 8c8b 873f
00000070: ab36 673f 1f3a 823f 483a 6e3f 5d0a 8e3f
00000080: a231 703f d100 753f 9fa5 883f f761 743f
00000090: cace 7d3f 792d 853f 937c 803f a7f8 6d3f
000000a0: edfd 6e3f 7dec 7f3f 215c 823f d262 7c3f
000000b0: aca4 713f ec0e 663f 2ca3 7d3f 2a4c 6b3f
000000c0: c6d8 6b3f e31e 783f 379c 833f 0f97 823f
000000d0: 0b19 723f b42e 843f 277d 823f 2650 5d3f
000000e0: f13f 783f aec7 763f cbdc 6f3f b016 713f
000000f0: d530 713f b680 673f d324 6c3f ee92 633f
00000100: bac5 813f 2b60 7c3f 7aac 5f3f f2d5 7d3f
00000110: 777f 703f 9045 673f e5f5 863f dc51 663f
00000120: f692 623f fe6e 7c3f 4383 833f 0de5 733f
00000130: 2c3d 673f b5c8 7b3f 15a4 683f 0ab7 7f3f
00000140: 7a28 853f 7d9f 603f 4493 813f 7763 773f
00000150: 1eee 603f 46e2 743f db2a 783f f888 6e3f
00000160: 1a58 6b3f 9f6a 6d3f aeae 713f 7bff 7b3f
00000170: 1be0 6c3f aa6b 743f 5469 6a3f 5949 6c3f
00000180: 49cf 7d3f c7ea 773f 1b5a 6b3f 7e4a 693f
00000190: 680e 793f 125e 6d3f f6b0 863f 52d2 7a3f
000001a0: 2f35 7a3f fe30 763f 591b 8a3f e634 753f
000001b0: 4524 743f 3f67 703f 1c7e 743f ab74 6c3f
000001c0: 53b5 813f c445 7f3f 03a8 753f 8109 6a3f
000001d0: 9150 8c3f 79a8 7f3f 4507 7f3f 38f4 7f3f
000001e0: 4c61 843f a3d2 6d3f addd 7c3f 7729 6d3f
000001f0: 3f9f 843f 4ed0 743f bb5e 773f d87d 803f
0.90145934 0.9926829 0.9776765 0.9717996 0.9170439 0.89868724 0.9258498 1.0126473
0.9183058 0.9244219 0.9246122 0.9975916 0.9358374 0.95387423 0.88908523 0.9784779
0.99973416 1.0207081 1.0607047 0.97672886 0.9728651 1.0030794 0.87566024 1.0496109
0.91455066 0.88198566 0.9698193 1.0589461 0.9031779 1.0173987 0.9305768 1.1096913
0.93825734 0.9570437 1.0675544 0.9546198 0.9914366 1.0404502 1.0038017 0.9295754
0.9335621 0.9997023 1.0184366 0.9858829 0.94391894 0.8986652 0.99077106 0.9191309
0.92127645 0.9692213 1.0282048 1.020235 0.9456946 1.0326753 1.0194443 0.8645042
0.96972567 0.9639844 0.9369628 0.94175243 0.94215137 0.9043077 0.9224369 0.8889607
1.0138466 0.9858424 0.87372553 0.9915458 0.93944496 0.9034052 1.0543791 0.8996866
0.88505495 0.9860686 1.0274433 0.9527138 0.90327716 0.9835313 0.9087537 0.9988867
1.0402977 0.8774336 1.0123067 0.96636146 0.8786334 0.95657766 0.9694039 0.9317775
0.9193131 0.92740816 0.94407165 0.9843671 0.9252946 0.9547678 0.9156697 0.9229942
0.9914442 0.96842617 0.91934365 0.9112929 0.9728761 0.92721665 1.0522754 0.97977173
0.977374 0.96168506 1.0789596 0.9578384 0.9536784 0.9390754 0.9550493 0.9236552
1.0133461 0.9971583 0.9595949 0.9142075 1.0962087 0.99866444 0.9962047 0.99982023
1.0342193 0.9289953 0.9877575 0.92641395 1.0361098 0.9563035 0.9662892 1.0038404

bias f4 [128]
00000000: 2979 3bbd 8a1e 913d d3ad e73c b925 70bd
00000010: 13ba 273e ac53 393e 6276 c7bd bf1c ae3d
00000020: d616 1a3d 9106 433e 618a be3d 60e2 2a3e
00000030: 8b15 6d3e aed3 1b3e a4c4 b13b 0083 c2bd
00000040: 40a5 33bd 153c 033e 7705 483d 9562 323e
00000050: bd39 1c3e 1f11 17bd eef5 cb3b a112 113e
00000060: 4da6 413e e95d 3cbd 6881 c23d a210 72bd
00000070: 29c5 3e3e 27bc fe3d 425b 2ebc 4ecb f93d
00000080: 4ee7 e53d 0a31 b93d cbac 883d d948 243e
00000090: 0a7f d6bc a0ea 353e 71fc 053e 0824 2b3e
000000a0: 14c7 473e add2 013e 1e2a d53c fc78 8a3d
000000b0: 431e 533e c727 823c 6448 443e 62b2 ac3d
000000c0: 1ee2 7a3d 42ad d0bd 3584 1e3e 3825 063e
000000d0: 132d d43d 2744 283d 8962 393e 1e80 553d
000000e0: ae39 753d 8052 533e e19c 2c3e 4e13 debd
000000f0: b66a 463e 1e9d abbc d61f a63c 45c7 eeba
00000100: db64 1b3e 2fb4 46bd 740c b53d af02 a43d
00000110: b5bd 433e 2f7d 10be 8945 6c3d d501 093e
00000120: 3558 9bbd e93f bf3d 192c f43d ad90 6f3e
00000130: 6973 e43d b15c 513e 5abf 9e3d 1633 bb3d
00000140: 5027 c53d 833b f2bc 335e e93d 307f 5ebd
00000150: 0b18 59bd b752 1d3e c533 6e3d 46c5 273e
00000160: 2760 a43d a154 f73d 2094 9bbc c684 1b3e
00000170: ffff 263e e4f7 2ebd ab00 1c3d dff5 c8ba
00000180: 5a2c d0bc 9ae3 4a3e b1ec 4a3e b3ce 043e
00000190: 0d03 813d d88d 3c3e eca5 dc3d e167 083e
000001a0: e114 8b3d e699 803e 1dd5 d33d a9c0 833e
000001b0: 8cb7 023e 053a 3f3e 144b 2f3e c15d 433c
000001c0: 5ada c23d 5bdd 1c3e cbdd d83d 2b6f 193e
000001d0: bfea d63d b4db 163e 7b1e a93d 6dfb 6cbc
000001e0: 8a24 563e bb15 043c 1374 7f3d cfe0 703e
000001f0: 2bfe 3d3d e8c3 76bd a972 d23c 7ead 76bc
-0.045769844 0.07085903 0.028281128 -0.058629725 0.16379575 0.18098325 -0.097393766 0.08501577
0.037619434 0.19045474 0.093037374 0.16687918 0.23152749 0.15217468 0.0054250527 -0.094976425
-0.043858767 0.12815888 0.048833337 0.17420419 0.152564 -0.036881562 0.0062243855 0.14167263
0.18911095 -0.045987997 0.094973385 -0.059097894 0.18629898 0.12438231 -0.010641875 0.121969804
0.112257585 0.090425566 0.06673583 0.16043414 -0.026183624 0.17765284 0.1308458 0.16712964
0.19509536 0.12678023 0.02602106 0.06761357 0.20617013 0.015888108 0.1916824 0.08432461
0.0612508 -0.10189296 0.1548012 0.13100135 0.1036016 0.04108062 0.18103994 0.052124135
0.05986946 0.2063694 0.1685672 -0.10843526 0.19376644 -0.020948943 0.020278852 -0.0018217346
0.15175192 -0.04851168 0.08840266 0.08008324 0.19115336 -0.14110254 0.0576835 0.13379605
-0.075851835 0.09338362 0.119224735 0.23395033 0.11154825 0.20445515 0.07751341 0.09140603
0.09626639 -0.029569393 0.1139492 -0.054320514 -0.053001445 0.15363584 0.05815484 0.16383848
0.08026152 0.120766886 -0.01899153 0.15187368 0.16308592 -0.042716876 0.038086575 -0.0015332064
-0.025411773 0.19813386 0.19816853 0.12969474 0.0629941 0.18413484 0.107738346 0.13320877
0.06791092 0.25117415 0.103433825 0.25732926 0.1276533 0.18674476 0.17118484 0.011924208
0.095143035 0.15318815 0.10589179 0.14983813 0.10493993 0.14732248 0.08257767 -0.014464241
0.20912376 0.008061822 0.062366556 0.23523258 0.04638497 -0.060245425 0.02568944 -0.015056012

running_mean f4 [128]
00000000: 4d8e 503e 4026 953d 6f84 bc3c 9cbc 123e
00000010: 7c53 ca3d 60a5 163e d6bf 0f3e 5548 f53c
00000020: dc20 3d3d fedd 583e 3b3c bf3d 2745 1a3e
00000030: 4fa0 ed3d 1ab7 953d d952 e33d d00f c23d
00000040: 4f43 9d3d 3df3 293d f0bb ed3d e63e 233e
00000050: f773 923c e66d 363e 0a3b e83c 0c13 c73d
00000060: 9146 2a3e b9f1 603e c1f9 b53d 7f24 993d
00000070: 24a7 473e 7c24 4e3e 9a8a bd3d bc86 bc3d
00000080: 623a 3f3e e235 0e3d a00c de3d be79 063e
00000090: f928 933d eedb 703d a0f7 543e 9fd5 273e
000000a0: 99f6 db3d 8438 b33d d8e1 df3c ad77 1b3d
000000b0: 9b20 be3d ddda 573d 5c29 e13d a76f 973e
000000c0: a866 823e 6d8a 9f3d 40ca f73d 5d52 af3d
000000d0: f0f0 c53d 68f0 cf3d bc0d 5a3e ef32 b53d
000000e0: ffef b03d 21ac 503e ea3b 083e 18b1 523e
000000f0: af8a 903e ea27 9b3e f709 d93d be3b eb3d
00000100: 947b 173e e12a bd3c 1f4a 8a3d 2b45 043e
00000110: 805b d73d 72fd ad3d 3c06 413e ed58 983d
00000120: 8d81 363e b9a0 e93d 92c5 303c f61e fd3d
00000130: 8bda 0e3d 715d 213e cf28 0e3e 31bf d93d
00000140: 8387 de3d 5b08 183e 345d 5b3e 918a 1e3d
00000150: 138d 363e e2b8 1e3e 4f29 243d 20ee 9d3d
00000160: 1766 433e 3b07 b53d f53c a03d 603a 933d
00000170: 08e0 f13d 743f 833d 8629 a83d 9dfc 5a3e
00000180: 4dff 963d 7ecc 4e3d 06f4 423e 10c6 8f3d
00000190: 9c9f 4f3d ad65 563d ba7c e23d b766 b43c
000001a0: 5473 173e 29da 393e cce6 c73d c386 163e
000001b0: 8562 973d ebc3 093e 7ffe 443d 3bf6 313e
000001c0: 7bec 123e e5de 1a3e ae1b 6e3d 35b1 d43e
000001d0: 3dd1 923d 37e9 d53d a4d4 d13d 14d3 e93d
000001e0: 237c b13d 0a31 ee3d c3c7 903e 4e06 be3e
000001f0: 2968 c93d e983 343d 52fd 873d 3ae2 1b3d
0.20366783 0.07282686 0.023012368 0.14329761 0.09879205 0.14711523 0.14038023 0.029941717
0.046173915 0.21178433 0.0933766 0.15065442 0.11602842 0.073103145 0.11099786 0.09475672
0.07678854 0.041491736 0.11608112 0.15941963 0.017877562 0.1781536 0.028348465 0.0972043
0.16628481 0.2196721 0.088855274 0.07477664 0.19497353 0.20131105 0.09254952 0.09205386
0.18674615 0.034719355 0.10842252 0.13132378 0.07185549 0.05880349 0.20797586 0.16390084
0.10740394 0.08751014 0.02732937 0.03795593 0.09283563 0.05269896 0.10994217 0.2957737
0.25468946 0.077900745 0.12099123 0.085606314 0.09665096 0.10153276 0.21294302 0.088476054
0.086395256 0.20378162 0.13304105 0.20575368 0.28230807 0.3030389 0.10597604 0.11486004
0.14793235 0.023091735 0.06752419 0.1291701 0.10515499 0.084956065 0.18850034 0.07438836
0.17822857 0.114076085 0.010789292 0.12359421 0.034876388 0.15758301 0.13882755 0.1063217
0.108656906 0.14846937 0.21422273 0.038706366 0.17827253 0.15500215 0.040078457 0.07711434
0.19081913 0.0883927 0.07824127 0.071888685 0.11810309 0.06408587 0.08211045 0.21385427
0.073729135 0.050487988 0.190384 0.07020199 0.050689325 0.05234306 0.11058946 0.022021635
0.14790088 0.18149628 0.09760818 0.14699845 0.07391838 0.13453643 0.04809427 0.17379086
0.14348023 0.1512409 0.058131866 0.41541448 0.07168815 0.10444873 0.10245636 0.11417213
0.08666255 0.11630447 0.28277406 0.37114185 0.0983432 0.04407111 0.06640114 0.038057543

running_var f4 [128]
00000000: 0957 293f 8929 4c3d 15c8 073d d8f7 723e
00000010: 3373 573e 5e3a 0d3f c4c0 df3e 52ed aa3c
00000020: 9920 743d 6582 273f 155b ad3d 2cbd 3d3e
00000030: fb6b 8c3e 7baa b13d 94c9 013f 2c03 a93d
00000040: 2c6f d43d 6ed2 df3c 5c4d de3d 4a50 4e3f
00000050: b169 b13c 514e 803d 02c1 303d fab5 d73d
00000060: c0a4 8c3e 621a 0e3f 0862 e53d 5af0 8d3d
00000070: 2c23 f33e 6ec0 783e 7ca6 fd3d 3a6e 023d
00000080: a253 683e 5d44 ee3c 2fe9 cb3d 9299 063e
00000090: 7d04 4f3d 4c81 6a3d 51b9 ae3e 5d31 953d
000000a0: 9e54 333e 2aca 363d ad9e 903c d597 ae3c
000000b0: 6818 f93d 7914 313e 0002 3c3e be6e bd3f
000000c0: da70 083f b0cf 063e 51a4 8c3d 3063 a23d
000000d0: 0361 233e 007f ee3d 94e5 323f b81f df3e
000000e0: 32e4 0a3d 35b6 6f3e 89a4 123e 9de5 0e3f
000000f0: f803 933f 800e 353f 9c68 253e 6f93 103e
00000100: 8f59 193e 0575 863c 5747 563e e597 253e
00000110: fa00 e73e a40f ad3e 74f9 5e3e cad8 4b3e
00000120: fee7 cd3e 7fbb af3d c387 1e3c 2457 4b3e
00000130: 4a47 ea3d c67d d43e f1c0 d23e 86f9 b23d
00000140: ceae bc3d 941b d63e d235 9a3e 091d d53c
00000150: 40c2 033f cbae bb3e 4f93 c03c 0a90 503e
00000160: a0ec e53e 401f 1e3e 4811 533d 44dd 963d
00000170: 74e1 a13e 4b67 183e dbf2 873e b1ea 0e3f
00000180: f4b8 b13d a41a 3f3d 4b05 183f 3aa4 923e
00000190: e141 2f3d f9bf 273e ed9f bf3d 0303 ac3c
000001a0: aa46 913e ed1b 483f c0a3 163e 8366 8b3e
000001b0: f969 d73d 575b 323e b7ba 403d 55a1 6e3f
000001c0: 15c2 143e 0979 543e e8c6 fa3c c42c cd3f
000001d0: 93f2 253d 33d8 bf3d 5e5a 053e 6261 ff3d
000001e0: 8f27 813d 4b3e 263e 296a 293f e566 aa3f
000001f0: 14f3 d73d 3fbf a53d cae7 723d 1211 d33c
0.6614843 0.0498443 0.033149797 0.23727357 0.21040039 0.55167186 0.43701756 0.020865116
0.0596014 0.6543334 0.08464638 0.18529195 0.27426133 0.08675095 0.5069821 0.08252558
0.10372767 0.02732202 0.10854599 0.8059126 0.021656843 0.06264938 0.043152817 0.10532756
0.27469444 0.55509007 0.112003386 0.06930609 0.47487772 0.24292156 0.1238527 0.0318434
0.22688153 0.029085333 0.099565856 0.1314452 0.05054139 0.057252213 0.3412576 0.07284806
0.17512748 0.044626392 0.017653788 0.021312634 0.12162858 0.17292966 0.18360138 1.4799421
0.532972 0.13165164 0.06867278 0.07929075 0.15954976 0.11645317 0.6988156 0.43578887
0.03390903 0.2340935 0.14320578 0.5581911 1.1485586 0.7072525 0.16153187 0.14118741
0.1497557 0.016413221 0.20925651 0.16171224 0.45117933 0.33800995 0.21774846 0.19906917
0.40216058 0.08580684 0.009675923 0.1985746 0.114393786 0.41502208 0.41162828 0.08738999
0.09213029 0.41817915 0.30119187 0.026014822 0.51468277 0.36656794 0.023507742 0.20367447
0.44907093 0.15441608 0.051530153 0.07366422 0.3161732 0.14883153 0.26552472 0.5582686
0.08677855 0.046656266 0.59383076 0.2864092 0.042787436 0.16381826 0.09356675 0.02099753
0.28374225 0.7816761 0.14710903 0.27226648 0.105182596 0.17417656 0.047053065 0.93214923
0.14527161 0.20749296 0.030612424 1.6029286 0.04051454 0.093674086 0.13022754 0.12469746
0.06306373 0.162347 0.6617761 1.3312651 0.1054441 0.08093118 0.059303083 0.025764976

weight f4 [64, 128, 9]
00000000: d063 b8bc b7b9 65bb 0a8b a13c 9adc b5bc
00000010: 6670 1abc 427b 82bc e10f 16bc b284 07bc
00000020: 1a5e b63c 5212 abbb 16e1 013b 103e e83c
00000030: f8dc eb3b e245 293d d452 d3bc 70a5 f63c
00000040: 1d01 fdba 5d83 5dbb ec1f 883c 5a53 acba
00000050: f658 a03c 6dd3 8d3c 7917 14bd 27df acba
00000060: a7d7 84ba c4c9 71bb b6d9 8c3c 303e 5a3d
00000070: 107c 253d 834a 0e3c 7717 8d3c 0da8 c8bb
00000080: 1d1c d63b b804 843a 2bf4 9cb9 948b 0dbc
00000090: 3842 873b 859f 243c d2e9 10bc 6451 c8bc
000000a0: 073d 9abc 6228 93bc d8b5 ac3c 03fe da3a
000000b0: 54b7 0fbd 1a63 ab3b 10a3 9dbc f68d b9bc
000000c0: e25c 533b f61c 88bc 7712 183b 4937 49bc
000000d0: 51cb e9bc e48d 0bbb 054e f13c bc5f 7dba
000000e0: 408e 7c3c ca58 373c 7c07 773c b0e1 13bb
000000f0: 6993 123d a73c 1c3b a09a 913a 16de 453c
00000100: 4ac5 003c 0124 393c 25cb 803c 9b78 c93b
00000110: 6928 72bc b3fd f23c f91c f93c 92cf e9bb
00000120: 7b05 b53c 49f2 863b 01c2 6b3c b352 96bb
00000130: ab09 a4ba ce8a 1dbc dedc 4c3c 8e5b acbb
00000140: 73a4 bdbc d944 2abd 079f ba3c 1671 a9bc
00000150: 3c96 b0bb 0ade e9b8 be62 03bb 8714 50bc
00000160: 24bf ccbc 575f d8bc bbcd e23c 446f b03c
00000170: 66cd 893c effd e4bc 205d 64bc d6be 3bbc
00000180: 9a2d 783c d06e afbc 0698 ebbc e0d3 0ebd
00000190: 6858 f6bc b3d6 63bd a69d 06bd 6baf bc3b
000001a0: 1d19 4dbc 6138 b83b af4b 99bc e310 98bc
000001b0: 05b5 b7bc 45d0 a2bb 7ff1 4ebd 4701 27bd
000001c0: 927a 91bc ea26 eebc ec20 15bd 2746 b7ba
000001d0: 9b7c 2dbd ad02 95bb b307 c5bc cbf6 ed3c
000001e0: efe6 a73a 2b44 60bc 6272 863c c3e3 703c
000001f0: f4b6 9c3b f1f5 9ebc 31e1 83bb 2bb9 d23c
00000200: a462 0cbd d997 56bc 3d18 a43b 912e c73c
00000210: 60c8 0b3b d9f8 7dbc 1d42 883c c9ae 0e3d
00000220: dfeb cdbc 6683 ce3c bf59 a5bc 4828 97bc
00000230: 8f3d 553d 538b 02bd 86a1 233c 4457 373c
00000240: d90b c4bb 1c56 a23c 1143 b9ba 30dd ac3a
00000250: ae3b 37bc 0bf2 6539 0d41 a33c 30d6 23bc
00000260: 2647 a73b 5c5e 1dbc 6b1a 843c 1b22 273c
00000270: 369e 00bd 3e5d fbbc 2e41 3b3b 2cb3 db3c
00000280: 85eb a73c c836 c9bc a122 4c3d c8e8 03bc
00000290: adbc f4bc 90db 243d c60d 9e3a fe2e a43c
000002a0: 8d61 663d 4a92 43bc 8fff 8b3c 0a8a 16bd
000002b0: 0015 22bd 1e68 223b 498a 3e3c 03d7 16bc
000002c0: 7b99 57bd 01e9 cebc 06c7 05bd 946b f3bc
000002d0: b66a 643c f36f 3c3c 3b9f 87bc 13e0 89bc
000002e0: 51f7 36bc 5d60 03bb 8ad2 203c d760 df3c
000002f0: 82ae 32bc a612 47bb 4f32 69bc 41e9 47bb
00000300: 7aec f03a 2872 903c ae05 763c 8ae6 263c
00000310: 671c cb3c a2b9 dbbc 0c59 293a 210a 853c
00000320: ec78 633c 84c0 a13c 25e6 7abb e03c 993c
00000330: e73b 1abc 5744 1d3c c4b8 c9bb 0f00 4f3a
00000340: 91fd d7bc b4ae 2cbd 7b6c 63bc 9b7d fcbc
00000350: 4a1d 23bc 49a6 9bbb 7ebf 18bd 68c9 f9bc
00000360: 47a0 94bc 1d12 acbc e819 e039 7b1b bb3c
00000370: 3d51 49bb 9298 c7bc 362a ce3b 5b47 efbc
00000380: 10b9 0dbd a241 223c ae2e 6abb 9bbd d8bb
00000390: 2d18 4f3b db6c 033d 1360 e53a 4a10 8f3c
000003a0: b426 dc3c c48a abbc dd32 75bc fe5e 1cbd
000003b0: c9b8 1fbd a3bf d6bb 6a43 0dbd 8c6a e0bb
000003c0: 6644 6abc e1f1 14bd 407d c3bb 497b 2339
000003d0: 29d5 093d d2ed 82bc a4dd efbb 3d70 6e3b
000003e0: 61ec 753a 7d21 163d 6130 d63c 6c2d 1dbd
000003f0: 8c54 f63c 548c 3abb f061 d0bc dcde 60bc
-0.022508532 -0.0035053322 0.01971962 -0.022199918 -0.009426212 -0.015927915 -0.009159059 -0.008271383
0.022261668 -0.00522069 0.0019818 0.028349906 0.0071979724 0.04132641 -0.025796331 0.030108184
-0.00193027 -0.0033800222 0.016616784 -0.0013147399 0.01957367 0.01731273 -0.036155198 -0.0013189063
-0.001013507 -0.0036893943 0.017193656 0.053281963 0.04040152 0.008684757 0.017223103 -0.006123549
0.006534113 0.0010072207 -0.00029936558 -0.008639235 0.004127767 0.010047798 -0.00884481 -0.024452873
-0.018827928 -0.017963592 0.021082804 0.0016707781 -0.035086945 0.0052303197 -0.019242793 -0.0226507
0.0032251407 -0.016615372 0.0023204365 -0.012281247 -0.028539332 -0.002129429 0.029456148 -0.00096654496
0.015414774 0.011190603 0.015077468 -0.002256494 0.035785113 0.0023839863 0.0011108704 0.012076875
0.007859537 0.011300088 0.015721867 0.0061484105 -0.014780142 0.029661989 0.030409323 -0.00713534
0.02209734 0.004118238 0.014389516 -0.0045874952 -0.0012515088 -0.009615613 0.012503831 -0.0052599376
-0.023149705 -0.041569564 0.022780908 -0.020683806 -0.005389003 -0.00011151664 -0.0020047869 -0.012700207
-0.024993487 -0.02641265 0.02768599 0.02153743 0.016821574 -0.027953116 -0.013938218 -0.011459073
0.015147591 -0.021415144 -0.028759014 -0.03487003 -0.030071452 -0.055624675 -0.03286519 0.005758216
-0.0125181945 0.0056219553 -0.018712847 -0.01856274 -0.022425184 -0.0049686753 -0.050523277 -0.040772703
-0.017758641 -0.02907129 -0.03640835 -0.0013982699 -0.04235516 -0.004547438 -0.024051523 0.029048344
0.0012809912 -0.0136881275 0.016411964 0.01470274 0.004782552 -0.019404383 -0.0040246476 0.02572306
-0.03427376 -0.013097727 0.0050077722 0.024314197 0.002132915 -0.015501224 0.016633088 0.034834657
-0.025136886 0.02520914 -0.020184396 -0.018451825 0.05206066 -0.03187115 0.009987241 0.011190239
-0.0059828577 0.01981645 -0.0014134367 0.0013188478 -0.011183662 0.0002192931 0.01992848 -0.009999797
0.005104917 -0.009605017 0.016125878 0.0102010025 -0.03140088 -0.03068411 0.0028572786 0.026818834
0.020498047 -0.024562255 0.049837712 -0.008051105 -0.029875124 0.040248454 0.0012058548 0.020041939
0.056245375 -0.0119367335 0.017089633 -0.036752738 -0.03957081 0.0024781297 0.011629649 -0.009206536
-0.052636605 -0.02525759 -0.032660507 -0.029714383 0.0139414575 0.0115013 -0.01655542 -0.01683048
-0.011167363 -0.002004645 0.009815821 0.027267857 -0.010905864 -0.0030376106 -0.014233186 -0.003050402
0.0018381022 0.017632559 0.015016003 0.010186801 0.024793817 -0.026821915 0.00064601074 0.016240181
0.0138838105 0.019745119 -0.003828415 0.018705785 -0.009413696 0.009598813 -0.006156059 0.0007896432
-0.026366027 -0.042158797 -0.013880844 -0.030821612 -0.0099557135 -0.0047500473 -0.037291996 -0.030491546
-0.018142832 -0.02100473 0.0004274391 0.022840252 -0.0030718588 -0.024364743 0.006291653 -0.02920883
-0.034600317 0.009903343 -0.003573339 -0.0066143996 0.0031600103 0.032086235 0.0017499946 0.017463822
0.026873924 -0.020940192 -0.01496574 -0.03817653 -0.038994584 -0.0065536066 -0.03448812 -0.006848639
-0.014298534 -0.036363486 -0.0059658587 0.00015590819 0.03365055 -0.015982542 -0.007320123 0.0036382817
0.00093812315 0.03665303 0.026146116 -0.038373396 0.030069612 -0.002846499 -0.025437325 -0.013725009

bias f4 [64]
00000000: f5df cabd 030f a8bd ea15 59bd 7bf8 21bd
00000010: 9844 11bd 441d afbc 18ca a6bd bacf 6fbd
00000020: 546c edbd 77b8 9abd f803 12bd f7a0 a8bc
00000030: cb87 a0bd d51f e3bd babb 97bd 5bfa 7bbd
00000040: 86a3 f9bc 6a2c 4fbd b0b5 62bd 318e 68bd
00000050: f855 45bd 9002 c0bd 0db0 babc 9e09 d6bd
00000060: 1edc b4bc 3ae5 85bd 75e1 e9bd 9eea 0dbd
00000070: df5f 44bc 0c1e 5fbd ac00 47bd c475 38bc
00000080: 278b 55bc 6ced 63bd 6078 89bd 038b 50bc
00000090: c5e4 93bd a6fb b0bd f40e cbbc a3bd 82bd
000000a0: 9554 93bd 6cf3 01bd 0350 73bd 1ad3 21bd
000000b0: 6263 1fbd c07c 57bc f497 81bd 580c 9fbd
000000c0: eedb 11be 350b 30bd c207 12bd 77a8 91bd
000000d0: e981 d0bc 2c09 3bbd 6347 c4bd 2a87 c1bd
000000e0: e2b6 80bd 294e 19bd 25e9 9cbd 4ae4 95bd
000000f0: d73e 95bd d0a2 73bd da0b 7abd a625 d4bb
-0.09905998 -0.08205988 -0.052999415 -0.03954361 -0.035465807 -0.02137626 -0.08144015 -0.058547713
-0.115929276 -0.07554715 -0.035648316 -0.020584567 -0.078384005 -0.11090056 -0.07408853 -0.061518054
-0.030473482 -0.050579466 -0.055349052 -0.05677623 -0.04817769 -0.09375489 -0.022789026 -0.10451053
-0.022077616 -0.06537862 -0.11419956 -0.034647577 -0.011985748 -0.054472014 -0.048584625 -0.011258546
-0.013033665 -0.055646345 -0.06712413 -0.0127284555 -0.07221369 -0.08641748 -0.024787404 -0.063838266
-0.07193867 -0.031726286 -0.059402477 -0.039507963 -0.03891314 -0.013152301 -0.06327811 -0.07766026
-0.14244053 -0.042979438 -0.03565193 -0.0711221 -0.025452571 -0.045663044 -0.095839284 -0.094496086
-0.06284882 -0.037428055 -0.07661656 -0.07318933 -0.072873764 -0.059481442 -0.06104646 -0.0064742146

weight f4 [64]
00000000: 8ce8 8b3f d260 793f 217d 753f e764 723f
00000010: d98b 7c3f f16d 813f c2f7 6f3f 05f6 7b3f
00000020: f19b 743f 37f5 743f 12bf 713f f44b 7d3f
00000030: cd11 7f3f 54c5 723f cb02 843f d749 7d3f
00000040: d9ac 753f ba83 6f3f 0b7d 7f3f 6a38 823f
00000050: 6b19 6c3f aa99 863f f165 793f ed90 8e3f
00000060: 86d6 813f 917d 843f 674f 7c3f e90c 753f
00000070: bfb8 7b3f 01da 7e3f 6614 8d3f b484 763f
00000080: 98df 783f e9ee 843f 1bf8 723f 5eb5 793f
00000090: 6287 6b3f 9c4b 873f 2c4a 733f 57d1 813f
000000a0: c42f 7b3f b9a5 833f de5f 703f 22c4 6b3f
000000b0: 55c5 7a3f 6263 723f cc64 813f f507 803f
000000c0: 6197 773f f9fc 733f 2813 793f 2db5 833f
000000d0: aade 6d3f aa47 6a3f 04aa 7a3f e933 833f
000000e0: 18a0 843f 97e3 8b3f 03b9 873f 54a0 813f
000000f0: e771 863f a32f 7d3f 2d42 853f d6b6 7b3f
1.0930343 0.9741336 0.95894057 0.94685215 0.9865089 1.0111676 0.93737423 0.9842227
0.9555045 0.9568667 0.94432175 0.9894402 0.99636537 0.9483235 1.0313352 0.98940796
0.9596687 0.93560374 0.99800175 1.0173466 0.92226285 1.0515645 0.97421175 1.1137978
1.0143592 1.035082 0.9855866 0.95722824 0.98328775 0.995514 1.102185 0.9629624
0.97216177 1.038541 0.9490983 0.9754237 0.9200345 1.0569949 0.9503505 1.014201
0.9811976 1.028495 0.9389628 0.9209615 0.97957355 0.94682896 1.0108886 1.0002428
0.9671536 0.9530788 0.97294855 1.0289665 0.92917883 0.915156 0.97915673 1.0250217
1.0361357 1.092883 1.0603336 1.0127053 1.050351 0.9890081 1.041082 0.9832586

bias f4 [64]
00000000: 495f 0dbd 692f 07be e503 06be 00af 183e
00000010: fbf2 e1bd 5fad d23d 3b4c 29be 5d4a 14be
00000020: 06d0 23be 3ff5 25be 941f 82bd 983d 073e
00000030: 0e81 ecbd 107f 0f3e 67c7 bbbd b757 b33d
00000040: b2fd 073e a7fd 353e 8c89 90bc 3ee1 843d
00000050: 167f bbbd 2fcb 993d 5f72 a8bb 6eb1 fc3d
00000060: b334 093e ce64 763d 03d2 75bd 2309 363e
00000070: 0b52 2a3e 656d 19be 416a 33bd 4aff 1b3e
00000080: 3411 d1bd af70 a83d 42a9 0ebe 3cac f3bd
00000090: 82d0 1cbe a320 293d 16db e6bd bb1d 1f3e
000000a0: 015a 7fbd d42e 0e3d da8e 353e d1ce e3bd
000000b0: 8aed 043e de01 b9bd c5aa cf3d 8646 cebd
000000c0: e9fe e43d 47d7 87bb 2581 a93d b1f1 72bd
000000d0: 78cb 493b a305 39be 36d1 2fbd fd5c dcbd
000000e0: 8ff2 11be 6cad c33d de40 203e 3e1c 743b
000000f0: 3a2e d0ba 2ece d8bd 5629 f33d 46c4 d7bd
-0.0345147 -0.1320168 -0.13087423 0.14910507 -0.11032673 0.10286974 -0.16532986 -0.14481492
-0.15997323 -0.16206835 -0.06353679 0.1320709 -0.11548053 0.14013314 -0.09168892 0.08756965
0.13280371 0.17772542 -0.017643712 0.06488274 -0.09155099 0.07509457 -0.005140587 0.123385295
0.1339901 0.06015473 -0.060014736 0.17776923 0.1663286 -0.14983137 -0.043802503 0.15234104
-0.10208359 0.08224618 -0.13931754 -0.118980855 -0.15313914 0.04129089 -0.11272256 0.15538685
-0.062341694 0.034712628 0.17730275 -0.111234315 0.12981239 -0.09033559 0.101399936 -0.10072045
0.11181433 -0.004145536 0.082765855 -0.059312526 0.0030791443 -0.18068556 -0.04292413 -0.107599236
-0.14252685 0.09554562 0.15649745 0.003724828 -0.0015882917 -0.10586201 0.118731186 -0.10535483

running_mean f4 [64]
00000000: 3ce0 f83b 8c36 663b 9046 ca3d 9d2b 593d
00000010: b5f0 d33c 9b95 933d d23c ad3c ceac 6c3d
00000020: 35d6 9f3c 1183 5f3d ca9a 823e 733b 8d3c
00000030: c161 293b 5bbe 483d dcd2 313c 8cae b93b
00000040: 304d 313e 1e40 133e 1e63 9b3d e0e7 3e3d
00000050: 0f0c 533e 9235 9e3c acfc 233e 93ac c63c
00000060: dd8d 083d 928d c93b b0cc 0a3d 4e58 063e
00000070: 2e6a 313d e735 323c 200f b33b 0359 963e
00000080: 4542 2e3e 6477 513d 707b b83d d2fb 913d
00000090: 805d 153c 147a 5c3c 2cdf 883c 63d5 cc3c
000000a0: 1fe0 783c 8ab5 bc3c e7f0 6a3d f03c 4a3e
000000b0: e498 8f3d 375b 8c3d b539 2e3d f9d7 a83b
000000c0: 8e97 e43b d29e 013e e6ac 7b3c c58e 293c
000000d0: 80c2 2d3e 2718 4c3e 715e 5e3d b892 d83b
000000e0: 11c8 3f3c 03f6 173c 82af 3b3d 1da4 1f3d
000000f0: 01ab 9c3a 36be a03c 9d8c 5a3c ccb7 5a3d
0.00759509 0.0035127727 0.0987674 0.05302011 0.025871614 0.07206269 0.021147165 0.057781987
0.019511322 0.054568354 0.2550872 0.017240262 0.002584562 0.049009662 0.010853495 0.0056665596
0.17314601 0.14379928 0.075872645 0.046607852 0.20610069 0.019312654 0.16014355 0.024252212
0.033338416 0.0061509097 0.03388661 0.13119623 0.04331415 0.010877109 0.0054644495 0.29364786
0.17017467 0.05113925 0.09007919 0.07128109 0.00911653 0.01345684 0.01670798 0.025004094
0.015190153 0.023035783 0.05735865 0.19749808 0.070115834 0.06853335 0.042535502 0.005152699
0.0069760745 0.12658241 0.015361046 0.01034898 0.16968727 0.19931088 0.054289285 0.006609287
0.011705414 0.009274962 0.045821674 0.03897487 0.0011952819 0.01962195 0.013339189 0.05339794

running_var f4 [64]
00000000: 6c71 cf3a 37ba b63a 73a0 ba3d 02bb f23c
00000010: 32ce b33b 1f43 463d a451 833c 027e 783d
00000020: f0e4 573b 152d 843d b25d 153e 9653 f03b
00000030: 9507 f339 5410 8b3c a428 4b3b 221f 023b
00000040: 27ed 7d3e 29af 5c3d 9fa4 b73d 9689 003d
00000050: 819f 4b3e 4787 1e3c c883 043e 9c5c e33b
00000060: c0f8 983c 105a 1e3b 1bf5 073c 7a85 ea3d
00000070: 049b 893c a7c1 a43b 529e 5d3a 3929 823e
00000080: 3a21 223e a988 373d fef0 843d 676f 833d
00000090: eb6d 593b 5d61 6e3b 692e b93b 96b8 1d3c
000000a0: 94ae 8f3b 07a2 173c 5990 a53c b062 2d3e
000000b0: 111b 683d d425 eb3c 79b7 f83c b543 d63a
000000c0: b6b1 163b 8ed7 3a3e e78a 7e3b f834 3b3b
000000d0: 06af 183e 3e35 2a3e 1173 543c d5db a33a
000000e0: 5973 a03b 904c 503b 4d2c 4f3d f905 403d
000000f0: 7d36 4e39 a641 f03b d41e ca3b b509 003d
0.0015826649 0.0013940994 0.091126345 0.029630188 0.005487227 0.048403855 0.01603014 0.060667045
0.0032942854 0.06453911 0.14586523 0.007334183 0.0004635422 0.01697556 0.0030999565 0.0019854982
0.24797498 0.053877983 0.08966946 0.031381212 0.19885065 0.009675807 0.12940896 0.00693853
0.0186733 0.0024162568 0.008298184 0.1145124 0.01679755 0.005027968 0.00084540725 0.25422075
0.15832987 0.044808064 0.06491278 0.06417733 0.0033177088 0.003637395 0.0056512845 0.009626528
0.004384825 0.009254939 0.020210432 0.16932178 0.056666438 0.028704561 0.030360924 0.0016347083
0.0022994108 0.1824629 0.0038840116 0.0028565507 0.14910516 0.16621873 0.012966887 0.0012501428
0.004896563 0.0031783916 0.050579358 0.046880696 0.0001966599 0.0073320447 0.006168226 0.031259257
